…
I0409 16:55:54.730365   759 net.cpp:296] The NetState phase (0) differed from the phase (1) specified by a rule in layer bn_conv5
I0409 16:55:54.730370   759 net.cpp:296] The NetState phase (0) differed from the phase (1) specified by a rule in layer bn_conv6
I0409 16:55:54.730620   759 net.cpp:53] Initializing net from parameters: 
name: "crnn"
state {
  phase: TRAIN
  level: 0
  stage: ""
}
layer {
  name: "data"
  type: "HDF5Data"
  top: "data"
  top: "label"
  include {
    phase: TRAIN
  }
  hdf5_data_param {
    source: "./data/captcha/trainning.list"
    batch_size: 523
  }
}
layer {
  name: "conv0"
  type: "Convolution"
  bottom: "data"
  top: "conv0"
  param {
    lr_mult: 1
  }
  param {
    lr_mult: 2
  }
  convolution_param {
    num_output: 64
    pad: 1
    kernel_size: 3
    stride: 2
    weight_filler {
      type: "xavier"
    }
    bias_filler {
      type: "constant"
    }
  }
}
layer {
  name: "bn_conv0"
  type: "BatchNorm"
  bottom: "conv0"
  top: "conv0"
  include {
    phase: TRAIN
  }
  batch_norm_param {
    use_global_stats: false
  }
}
layer {
  name: "scale_conv0"
  type: "Scale"
  bottom: "conv0"
  top: "conv0"
  scale_param {
    bias_term: true
  }
}
layer {
  name: "relu0"
  type: "ReLU"
  bottom: "conv0"
  top: "conv0"
}
layer {
  name: "conv1"
  type: "Convolution"
  bottom: "conv0"
  top: "conv1"
  param {
    lr_mult: 1
  }
  param {
    lr_mult: 2
  }
  convolution_param {
    num_output: 128
    pad: 1
    kernel_size: 3
    stride: 1
    weight_filler {
      type: "xavier"
    }
    bias_filler {
      type: "constant"
    }
  }
}
layer {
  name: "bn_conv1"
  type: "BatchNorm"
  bottom: "conv1"
  top: "conv1"
  include {
    phase: TRAIN
  }
  batch_norm_param {
    use_global_stats: false
  }
}
layer {
  name: "scale_conv1"
  type: "Scale"
  bottom: "conv1"
  top: "conv1"
  scale_param {
    bias_term: true
  }
}
layer {
  name: "relu1"
  type: "ReLU"
  bottom: "conv1"
  top: "conv1"
}
layer {
  name: "pool1"
  type: "Pooling"
  bottom: "conv1"
  top: "pool1"
  pooling_param {
    pool: MAX
    kernel_size: 2
    stride: 2
  }
}
layer {
  name: "conv2"
  type: "Convolution"
  bottom: "pool1"
  top: "conv2"
  param {
    lr_mult: 1
  }
  param {
    lr_mult: 2
  }
  convolution_param {
    num_output: 256
    pad: 1
    kernel_size: 3
    stride: 1
    weight_filler {
      type: "xavier"
    }
    bias_filler {
      type: "constant"
    }
  }
}
layer {
  name: "bn_conv2"
  type: "BatchNorm"
  bottom: "conv2"
  top: "conv2"
  include {
    phase: TRAIN
  }
  batch_norm_param {
    use_global_stats: false
  }
}
layer {
  name: "scale_conv2"
  type: "Scale"
  bottom: "conv2"
  top: "conv2"
  scale_param {
    bias_term: true
  }
}
layer {
  name: "relu2"
  type: "ReLU"
  bottom: "conv2"
  top: "conv2"
}
layer {
  name: "conv3"
  type: "Convolution"
  bottom: "conv2"
  top: "conv3"
  param {
    lr_mult: 1
  }
  param {
    lr_mult: 2
  }
  convolution_param {
    num_output: 256
    pad: 1
    kernel_size: 3
    stride: 1
    weight_filler {
      type: "xavier"
    }
    bias_filler {
      type: "constant"
    }
  }
}
layer {
  name: "bn_conv3"
  type: "BatchNorm"
  bottom: "conv3"
  top: "conv3"
  include {
    phase: TRAIN
  }
  batch_norm_param {
    use_global_stats: false
  }
}
layer {
  name: "scale_conv3"
  type: "Scale"
  bottom: "conv3"
  top: "conv3"
  scale_param {
    bias_term: true
  }
}
layer {
  name: "relu3"
  type: "ReLU"
  bottom: "conv3"
  top: "conv3"
}
layer {
  name: "pool2"
  type: "Pooling"
  bottom: "conv3"
  top: "pool2"
  pooling_param {
    pool: MAX
    kernel_size: 2
    stride: 2
  }
}
layer {
  name: "conv4"
  type: "Convolution"
  bottom: "pool2"
  top: "conv4"
  param {
    lr_mult: 1
  }
  param {
    lr_mult: 2
  }
  convolution_param {
    num_output: 512
    pad: 1
    kernel_size: 3
    stride: 1
    weight_filler {
      type: "xavier"
    }
    bias_filler {
      type: "constant"
    }
  }
}
layer {
  name: "bn_conv4"
  type: "BatchNorm"
  bottom: "conv4"
  top: "conv4"
  include {
    phase: TRAIN
  }
  batch_norm_param {
    use_global_stats: false
  }
}
layer {
  name: "scale_conv4"
  type: "Scale"
  bottom: "conv4"
  top: "conv4"
  scale_param {
    bias_term: true
  }
}
layer {
  name: "relu4"
  type: "ReLU"
  bottom: "conv4"
  top: "conv4"
}
layer {
  name: "conv5"
  type: "Convolution"
  bottom: "conv4"
  top: "conv5"
  param {
    lr_mult: 1
  }
  param {
    lr_mult: 2
  }
  convolution_param {
    num_output: 512
    kernel_size: 3
    stride: 1
    weight_filler {
      type: "xavier"
    }
    bias_filler {
      type: "constant"
    }
  }
}
layer {
  name: "bn_conv5"
  type: "BatchNorm"
  bottom: "conv5"
  top: "conv5"
  include {
    phase: TRAIN
  }
  batch_norm_param {
    use_global_stats: false
  }
}
layer {
  name: "scale_conv5"
  type: "Scale"
  bottom: "conv5"
  top: "conv5"
  scale_param {
    bias_term: true
  }
}
layer {
  name: "relu5"
  type: "ReLU"
  bottom: "conv5"
  top: "conv5"
}
layer {
  name: "conv6"
  type: "Convolution"
  bottom: "conv5"
  top: "conv6"
  param {
    lr_mult: 1
  }
  param {
    lr_mult: 2
  }
  convolution_param {
    num_output: 512
    kernel_size: 2
    stride: 1
    weight_filler {
      type: "xavier"
    }
    bias_filler {
      type: "constant"
    }
  }
}
layer {
  name: "bn_conv6"
  type: "BatchNorm"
  bottom: "conv6"
  top: "conv6"
  include {
    phase: TRAIN
  }
  batch_norm_param {
    use_global_stats: false
  }
}
layer {
  name: "scale_conv6"
  type: "Scale"
  bottom: "conv6"
  top: "conv6"
  scale_param {
    bias_term: true
  }
}
layer {
  name: "relu6"
  type: "ReLU"
  bottom: "conv6"
  top: "conv6"
}
layer {
  name: "reshape"
  type: "Reshape"
  bottom: "conv6"
  top: "reshape"
  reshape_param {
    shape {
      dim: 523
      dim: 512
      dim: 13
    }
  }
}
layer {
  name: "permuted_data"
  type: "Permute"
  bottom: "reshape"
  top: "permuted_data"
  permute_param {
    order: 2
    order: 0
    order: 1
  }
}
layer {
  name: "indicator"
  type: "ContinuationIndicator"
  top: "indicator"
  continuation_indicator_param {
    time_step: 13
    batch_size: 523
  }
}
layer {
  name: "lstm1"
  type: "LSTM"
  bottom: "permuted_data"
  bottom: "indicator"
  top: "lstm1"
  recurrent_param {
    num_output: 128
    weight_filler {
      type: "xavier"
    }
    bias_filler {
      type: "constant"
      value: 0
    }
  }
}
layer {
  name: "lstm2"
  type: "LSTM"
  bottom: "lstm1"
  bottom: "indicator"
  top: "lstm2"
  recurrent_param {
    num_output: 256
    weight_filler {
      type: "xavier"
    }
    bias_filler {
      type: "constant"
      value: 0
    }
  }
}
layer {
  name: "fc1"
  type: "InnerProduct"
  bottom: "lstm2"
  top: "fc1"
  param {
    lr_mult: 1
    decay_mult: 1
  }
  param {
    lr_mult: 2
    decay_mult: 0
  }
  inner_product_param {
    num_output: 11
    weight_filler {
      type: "xavier"
    }
    bias_filler {
      type: "constant"
      value: 0
    }
    axis: 2
  }
}
layer {
  name: "ctc_loss"
  type: "CtcLoss"
  bottom: "fc1"
  bottom: "label"
  top: "ctc_loss"
  loss_weight: 1
  ctc_loss_param {
    alphabet_size: 11
    time_step: 13
    blank_label: 10
  }
}
layer {
  name: "permute_fc"
  type: "Permute"
  bottom: "fc1"
  top: "premuted_fc"
  permute_param {
    order: 1
    order: 0
    order: 2
  }
}
layer {
  name: "accuracy"
  type: "LabelsequenceAccuracy"
  bottom: "premuted_fc"
  bottom: "label"
  top: "accuracy"
  labelsequence_accuracy_param {
    blank_label: 10
  }
}
I0409 16:55:54.730911   759 layer_factory.hpp:77] Creating layer data
I0409 16:55:54.730937   759 net.cpp:86] Creating Layer data
I0409 16:55:54.730948   759 net.cpp:382] data -> data
I0409 16:55:54.730985   759 net.cpp:382] data -> label
I0409 16:55:54.731003   759 hdf5_data_layer.cpp:79] Loading list of HDF5 filenames from: ./data/captcha/trainning.list
I0409 16:55:54.731057   759 hdf5_data_layer.cpp:93] Number of HDF5 files: 4
I0409 16:55:54.732522   759 hdf5.cpp:32] Datatype class: H5T_FLOAT
I0409 16:55:55.751183   759 net.cpp:124] Setting up data
I0409 16:55:55.751241   759 net.cpp:131] Top shape: 523 3 32 128 (6426624)
I0409 16:55:55.751248   759 net.cpp:131] Top shape: 523 5 (2615)
I0409 16:55:55.751252   759 net.cpp:139] Memory required for data: 25716956
I0409 16:55:55.751271   759 layer_factory.hpp:77] Creating layer label_data_1_split
I0409 16:55:55.751287   759 net.cpp:86] Creating Layer label_data_1_split
I0409 16:55:55.751296   759 net.cpp:408] label_data_1_split <- label
I0409 16:55:55.751319   759 net.cpp:382] label_data_1_split -> label_data_1_split_0
I0409 16:55:55.751336   759 net.cpp:382] label_data_1_split -> label_data_1_split_1
I0409 16:55:55.751395   759 net.cpp:124] Setting up label_data_1_split
I0409 16:55:55.751405   759 net.cpp:131] Top shape: 523 5 (2615)
I0409 16:55:55.751410   759 net.cpp:131] Top shape: 523 5 (2615)
I0409 16:55:55.751415   759 net.cpp:139] Memory required for data: 25737876
I0409 16:55:55.751421   759 layer_factory.hpp:77] Creating layer conv0
I0409 16:55:55.751446   759 net.cpp:86] Creating Layer conv0
I0409 16:55:55.751451   759 net.cpp:408] conv0 <- data
I0409 16:55:55.751458   759 net.cpp:382] conv0 -> conv0
I0409 16:55:55.753087   759 net.cpp:124] Setting up conv0
I0409 16:55:55.753103   759 net.cpp:131] Top shape: 523 64 16 64 (34275328)
I0409 16:55:55.753108   759 net.cpp:139] Memory required for data: 162839188
I0409 16:55:55.753134   759 layer_factory.hpp:77] Creating layer bn_conv0
I0409 16:55:55.753144   759 net.cpp:86] Creating Layer bn_conv0
I0409 16:55:55.753150   759 net.cpp:408] bn_conv0 <- conv0
I0409 16:55:55.753159   759 net.cpp:369] bn_conv0 -> conv0 (in-place)
I0409 16:55:55.753321   759 net.cpp:124] Setting up bn_conv0
I0409 16:55:55.753332   759 net.cpp:131] Top shape: 523 64 16 64 (34275328)
I0409 16:55:55.753335   759 net.cpp:139] Memory required for data: 299940500
I0409 16:55:55.753351   759 layer_factory.hpp:77] Creating layer scale_conv0
I0409 16:55:55.753366   759 net.cpp:86] Creating Layer scale_conv0
I0409 16:55:55.753374   759 net.cpp:408] scale_conv0 <- conv0
I0409 16:55:55.753382   759 net.cpp:369] scale_conv0 -> conv0 (in-place)
I0409 16:55:55.753424   759 layer_factory.hpp:77] Creating layer scale_conv0
I0409 16:55:55.753525   759 net.cpp:124] Setting up scale_conv0
I0409 16:55:55.753535   759 net.cpp:131] Top shape: 523 64 16 64 (34275328)
I0409 16:55:55.753537   759 net.cpp:139] Memory required for data: 437041812
I0409 16:55:55.753545   759 layer_factory.hpp:77] Creating layer relu0
I0409 16:55:55.753551   759 net.cpp:86] Creating Layer relu0
I0409 16:55:55.753556   759 net.cpp:408] relu0 <- conv0
I0409 16:55:55.753559   759 net.cpp:369] relu0 -> conv0 (in-place)
I0409 16:55:55.753566   759 net.cpp:124] Setting up relu0
I0409 16:55:55.753569   759 net.cpp:131] Top shape: 523 64 16 64 (34275328)
I0409 16:55:55.753573   759 net.cpp:139] Memory required for data: 574143124
I0409 16:55:55.753599   759 layer_factory.hpp:77] Creating layer conv1
I0409 16:55:55.753609   759 net.cpp:86] Creating Layer conv1
I0409 16:55:55.753613   759 net.cpp:408] conv1 <- conv0
I0409 16:55:55.753619   759 net.cpp:382] conv1 -> conv1
I0409 16:55:55.754231   759 net.cpp:124] Setting up conv1
I0409 16:55:55.754241   759 net.cpp:131] Top shape: 523 128 16 64 (68550656)
I0409 16:55:55.754245   759 net.cpp:139] Memory required for data: 848345748
I0409 16:55:55.754254   759 layer_factory.hpp:77] Creating layer bn_conv1
I0409 16:55:55.754261   759 net.cpp:86] Creating Layer bn_conv1
I0409 16:55:55.754264   759 net.cpp:408] bn_conv1 <- conv1
I0409 16:55:55.754269   759 net.cpp:369] bn_conv1 -> conv1 (in-place)
I0409 16:55:55.754415   759 net.cpp:124] Setting up bn_conv1
I0409 16:55:55.754423   759 net.cpp:131] Top shape: 523 128 16 64 (68550656)
I0409 16:55:55.754426   759 net.cpp:139] Memory required for data: 1122548372
I0409 16:55:55.754434   759 layer_factory.hpp:77] Creating layer scale_conv1
I0409 16:55:55.754442   759 net.cpp:86] Creating Layer scale_conv1
I0409 16:55:55.754446   759 net.cpp:408] scale_conv1 <- conv1
I0409 16:55:55.754451   759 net.cpp:369] scale_conv1 -> conv1 (in-place)
I0409 16:55:55.754482   759 layer_factory.hpp:77] Creating layer scale_conv1
I0409 16:55:55.754571   759 net.cpp:124] Setting up scale_conv1
I0409 16:55:55.754580   759 net.cpp:131] Top shape: 523 128 16 64 (68550656)
I0409 16:55:55.754583   759 net.cpp:139] Memory required for data: 1396750996
I0409 16:55:55.754590   759 layer_factory.hpp:77] Creating layer relu1
I0409 16:55:55.754608   759 net.cpp:86] Creating Layer relu1
I0409 16:55:55.754612   759 net.cpp:408] relu1 <- conv1
I0409 16:55:55.754616   759 net.cpp:369] relu1 -> conv1 (in-place)
I0409 16:55:55.754622   759 net.cpp:124] Setting up relu1
I0409 16:55:55.754627   759 net.cpp:131] Top shape: 523 128 16 64 (68550656)
I0409 16:55:55.754631   759 net.cpp:139] Memory required for data: 1670953620
I0409 16:55:55.754633   759 layer_factory.hpp:77] Creating layer pool1
I0409 16:55:55.754639   759 net.cpp:86] Creating Layer pool1
I0409 16:55:55.754643   759 net.cpp:408] pool1 <- conv1
I0409 16:55:55.754647   759 net.cpp:382] pool1 -> pool1
I0409 16:55:55.754726   759 net.cpp:124] Setting up pool1
I0409 16:55:55.754736   759 net.cpp:131] Top shape: 523 128 8 32 (17137664)
I0409 16:55:55.754740   759 net.cpp:139] Memory required for data: 1739504276
I0409 16:55:55.754745   759 layer_factory.hpp:77] Creating layer conv2
I0409 16:55:55.754755   759 net.cpp:86] Creating Layer conv2
I0409 16:55:55.754761   759 net.cpp:408] conv2 <- pool1
I0409 16:55:55.754770   759 net.cpp:382] conv2 -> conv2
I0409 16:55:55.757300   759 net.cpp:124] Setting up conv2
I0409 16:55:55.757316   759 net.cpp:131] Top shape: 523 256 8 32 (34275328)
I0409 16:55:55.757320   759 net.cpp:139] Memory required for data: 1876605588
I0409 16:55:55.757333   759 layer_factory.hpp:77] Creating layer bn_conv2
I0409 16:55:55.757342   759 net.cpp:86] Creating Layer bn_conv2
I0409 16:55:55.757349   759 net.cpp:408] bn_conv2 <- conv2
I0409 16:55:55.757356   759 net.cpp:369] bn_conv2 -> conv2 (in-place)
I0409 16:55:55.757493   759 net.cpp:124] Setting up bn_conv2
I0409 16:55:55.757501   759 net.cpp:131] Top shape: 523 256 8 32 (34275328)
I0409 16:55:55.757504   759 net.cpp:139] Memory required for data: 2013706900
I0409 16:55:55.757519   759 layer_factory.hpp:77] Creating layer scale_conv2
I0409 16:55:55.757529   759 net.cpp:86] Creating Layer scale_conv2
I0409 16:55:55.757532   759 net.cpp:408] scale_conv2 <- conv2
I0409 16:55:55.757539   759 net.cpp:369] scale_conv2 -> conv2 (in-place)
I0409 16:55:55.757577   759 layer_factory.hpp:77] Creating layer scale_conv2
I0409 16:55:55.757666   759 net.cpp:124] Setting up scale_conv2
I0409 16:55:55.757675   759 net.cpp:131] Top shape: 523 256 8 32 (34275328)
I0409 16:55:55.757678   759 net.cpp:139] Memory required for data: 2150808212
I0409 16:55:55.757688   759 layer_factory.hpp:77] Creating layer relu2
I0409 16:55:55.757696   759 net.cpp:86] Creating Layer relu2
I0409 16:55:55.757712   759 net.cpp:408] relu2 <- conv2
I0409 16:55:55.757719   759 net.cpp:369] relu2 -> conv2 (in-place)
I0409 16:55:55.757725   759 net.cpp:124] Setting up relu2
I0409 16:55:55.757730   759 net.cpp:131] Top shape: 523 256 8 32 (34275328)
I0409 16:55:55.757733   759 net.cpp:139] Memory required for data: 2287909524
I0409 16:55:55.757736   759 layer_factory.hpp:77] Creating layer conv3
I0409 16:55:55.757745   759 net.cpp:86] Creating Layer conv3
I0409 16:55:55.757750   759 net.cpp:408] conv3 <- conv2
I0409 16:55:55.757755   759 net.cpp:382] conv3 -> conv3
I0409 16:55:55.762524   759 net.cpp:124] Setting up conv3
I0409 16:55:55.762540   759 net.cpp:131] Top shape: 523 256 8 32 (34275328)
I0409 16:55:55.762544   759 net.cpp:139] Memory required for data: 2425010836
I0409 16:55:55.762552   759 layer_factory.hpp:77] Creating layer bn_conv3
I0409 16:55:55.762559   759 net.cpp:86] Creating Layer bn_conv3
I0409 16:55:55.762562   759 net.cpp:408] bn_conv3 <- conv3
I0409 16:55:55.762569   759 net.cpp:369] bn_conv3 -> conv3 (in-place)
I0409 16:55:55.762722   759 net.cpp:124] Setting up bn_conv3
I0409 16:55:55.762732   759 net.cpp:131] Top shape: 523 256 8 32 (34275328)
I0409 16:55:55.762735   759 net.cpp:139] Memory required for data: 2562112148
I0409 16:55:55.762744   759 layer_factory.hpp:77] Creating layer scale_conv3
I0409 16:55:55.762751   759 net.cpp:86] Creating Layer scale_conv3
I0409 16:55:55.762758   759 net.cpp:408] scale_conv3 <- conv3
I0409 16:55:55.762763   759 net.cpp:369] scale_conv3 -> conv3 (in-place)
I0409 16:55:55.762802   759 layer_factory.hpp:77] Creating layer scale_conv3
I0409 16:55:55.762890   759 net.cpp:124] Setting up scale_conv3
I0409 16:55:55.762898   759 net.cpp:131] Top shape: 523 256 8 32 (34275328)
I0409 16:55:55.762902   759 net.cpp:139] Memory required for data: 2699213460
I0409 16:55:55.762912   759 layer_factory.hpp:77] Creating layer relu3
I0409 16:55:55.762919   759 net.cpp:86] Creating Layer relu3
I0409 16:55:55.762923   759 net.cpp:408] relu3 <- conv3
I0409 16:55:55.762929   759 net.cpp:369] relu3 -> conv3 (in-place)
I0409 16:55:55.762945   759 net.cpp:124] Setting up relu3
I0409 16:55:55.762954   759 net.cpp:131] Top shape: 523 256 8 32 (34275328)
I0409 16:55:55.762957   759 net.cpp:139] Memory required for data: 2836314772
I0409 16:55:55.762960   759 layer_factory.hpp:77] Creating layer pool2
I0409 16:55:55.762966   759 net.cpp:86] Creating Layer pool2
I0409 16:55:55.762969   759 net.cpp:408] pool2 <- conv3
I0409 16:55:55.762974   759 net.cpp:382] pool2 -> pool2
I0409 16:55:55.763005   759 net.cpp:124] Setting up pool2
I0409 16:55:55.763013   759 net.cpp:131] Top shape: 523 256 4 16 (8568832)
I0409 16:55:55.763016   759 net.cpp:139] Memory required for data: 2870590100
I0409 16:55:55.763020   759 layer_factory.hpp:77] Creating layer conv4
I0409 16:55:55.763029   759 net.cpp:86] Creating Layer conv4
I0409 16:55:55.763036   759 net.cpp:408] conv4 <- pool2
I0409 16:55:55.763041   759 net.cpp:382] conv4 -> conv4
I0409 16:55:55.772162   759 net.cpp:124] Setting up conv4
I0409 16:55:55.772178   759 net.cpp:131] Top shape: 523 512 4 16 (17137664)
I0409 16:55:55.772182   759 net.cpp:139] Memory required for data: 2939140756
I0409 16:55:55.772189   759 layer_factory.hpp:77] Creating layer bn_conv4
I0409 16:55:55.772197   759 net.cpp:86] Creating Layer bn_conv4
I0409 16:55:55.772202   759 net.cpp:408] bn_conv4 <- conv4
I0409 16:55:55.772207   759 net.cpp:369] bn_conv4 -> conv4 (in-place)
I0409 16:55:55.772356   759 net.cpp:124] Setting up bn_conv4
I0409 16:55:55.772364   759 net.cpp:131] Top shape: 523 512 4 16 (17137664)
I0409 16:55:55.772367   759 net.cpp:139] Memory required for data: 3007691412
I0409 16:55:55.772378   759 layer_factory.hpp:77] Creating layer scale_conv4
I0409 16:55:55.772384   759 net.cpp:86] Creating Layer scale_conv4
I0409 16:55:55.772387   759 net.cpp:408] scale_conv4 <- conv4
I0409 16:55:55.772393   759 net.cpp:369] scale_conv4 -> conv4 (in-place)
I0409 16:55:55.772428   759 layer_factory.hpp:77] Creating layer scale_conv4
I0409 16:55:55.772522   759 net.cpp:124] Setting up scale_conv4
I0409 16:55:55.772542   759 net.cpp:131] Top shape: 523 512 4 16 (17137664)
I0409 16:55:55.772547   759 net.cpp:139] Memory required for data: 3076242068
I0409 16:55:55.772553   759 layer_factory.hpp:77] Creating layer relu4
I0409 16:55:55.772559   759 net.cpp:86] Creating Layer relu4
I0409 16:55:55.772562   759 net.cpp:408] relu4 <- conv4
I0409 16:55:55.772569   759 net.cpp:369] relu4 -> conv4 (in-place)
I0409 16:55:55.772577   759 net.cpp:124] Setting up relu4
I0409 16:55:55.772580   759 net.cpp:131] Top shape: 523 512 4 16 (17137664)
I0409 16:55:55.772583   759 net.cpp:139] Memory required for data: 3144792724
I0409 16:55:55.772586   759 layer_factory.hpp:77] Creating layer conv5
I0409 16:55:55.772598   759 net.cpp:86] Creating Layer conv5
I0409 16:55:55.772601   759 net.cpp:408] conv5 <- conv4
I0409 16:55:55.772608   759 net.cpp:382] conv5 -> conv5
I0409 16:55:55.790515   759 net.cpp:124] Setting up conv5
I0409 16:55:55.790532   759 net.cpp:131] Top shape: 523 512 2 14 (7497728)
I0409 16:55:55.790536   759 net.cpp:139] Memory required for data: 3174783636
I0409 16:55:55.790544   759 layer_factory.hpp:77] Creating layer bn_conv5
I0409 16:55:55.790552   759 net.cpp:86] Creating Layer bn_conv5
I0409 16:55:55.790557   759 net.cpp:408] bn_conv5 <- conv5
I0409 16:55:55.790562   759 net.cpp:369] bn_conv5 -> conv5 (in-place)
I0409 16:55:55.790732   759 net.cpp:124] Setting up bn_conv5
I0409 16:55:55.790741   759 net.cpp:131] Top shape: 523 512 2 14 (7497728)
I0409 16:55:55.790745   759 net.cpp:139] Memory required for data: 3204774548
I0409 16:55:55.790752   759 layer_factory.hpp:77] Creating layer scale_conv5
I0409 16:55:55.790762   759 net.cpp:86] Creating Layer scale_conv5
I0409 16:55:55.790768   759 net.cpp:408] scale_conv5 <- conv5
I0409 16:55:55.790776   759 net.cpp:369] scale_conv5 -> conv5 (in-place)
I0409 16:55:55.790820   759 layer_factory.hpp:77] Creating layer scale_conv5
I0409 16:55:55.790927   759 net.cpp:124] Setting up scale_conv5
I0409 16:55:55.790936   759 net.cpp:131] Top shape: 523 512 2 14 (7497728)
I0409 16:55:55.790941   759 net.cpp:139] Memory required for data: 3234765460
I0409 16:55:55.790951   759 layer_factory.hpp:77] Creating layer relu5
I0409 16:55:55.790957   759 net.cpp:86] Creating Layer relu5
I0409 16:55:55.790961   759 net.cpp:408] relu5 <- conv5
I0409 16:55:55.790968   759 net.cpp:369] relu5 -> conv5 (in-place)
I0409 16:55:55.790973   759 net.cpp:124] Setting up relu5
I0409 16:55:55.790978   759 net.cpp:131] Top shape: 523 512 2 14 (7497728)
I0409 16:55:55.790982   759 net.cpp:139] Memory required for data: 3264756372
I0409 16:55:55.790985   759 layer_factory.hpp:77] Creating layer conv6
I0409 16:55:55.790994   759 net.cpp:86] Creating Layer conv6
I0409 16:55:55.790997   759 net.cpp:408] conv6 <- conv5
I0409 16:55:55.791007   759 net.cpp:382] conv6 -> conv6
I0409 16:55:55.799208   759 net.cpp:124] Setting up conv6
I0409 16:55:55.799223   759 net.cpp:131] Top shape: 523 512 1 13 (3481088)
I0409 16:55:55.799226   759 net.cpp:139] Memory required for data: 3278680724
I0409 16:55:55.799233   759 layer_factory.hpp:77] Creating layer bn_conv6
I0409 16:55:55.799243   759 net.cpp:86] Creating Layer bn_conv6
I0409 16:55:55.799247   759 net.cpp:408] bn_conv6 <- conv6
I0409 16:55:55.799257   759 net.cpp:369] bn_conv6 -> conv6 (in-place)
I0409 16:55:55.799423   759 net.cpp:124] Setting up bn_conv6
I0409 16:55:55.799433   759 net.cpp:131] Top shape: 523 512 1 13 (3481088)
I0409 16:55:55.799437   759 net.cpp:139] Memory required for data: 3292605076
I0409 16:55:55.799448   759 layer_factory.hpp:77] Creating layer scale_conv6
I0409 16:55:55.799454   759 net.cpp:86] Creating Layer scale_conv6
I0409 16:55:55.799460   759 net.cpp:408] scale_conv6 <- conv6
I0409 16:55:55.799471   759 net.cpp:369] scale_conv6 -> conv6 (in-place)
I0409 16:55:55.799513   759 layer_factory.hpp:77] Creating layer scale_conv6
I0409 16:55:55.799614   759 net.cpp:124] Setting up scale_conv6
I0409 16:55:55.799625   759 net.cpp:131] Top shape: 523 512 1 13 (3481088)
I0409 16:55:55.799629   759 net.cpp:139] Memory required for data: 3306529428
I0409 16:55:55.799651   759 layer_factory.hpp:77] Creating layer relu6
I0409 16:55:55.799659   759 net.cpp:86] Creating Layer relu6
I0409 16:55:55.799662   759 net.cpp:408] relu6 <- conv6
I0409 16:55:55.799666   759 net.cpp:369] relu6 -> conv6 (in-place)
I0409 16:55:55.799672   759 net.cpp:124] Setting up relu6
I0409 16:55:55.799676   759 net.cpp:131] Top shape: 523 512 1 13 (3481088)
I0409 16:55:55.799680   759 net.cpp:139] Memory required for data: 3320453780
I0409 16:55:55.799684   759 layer_factory.hpp:77] Creating layer reshape
I0409 16:55:55.799697   759 net.cpp:86] Creating Layer reshape
I0409 16:55:55.799700   759 net.cpp:408] reshape <- conv6
I0409 16:55:55.799706   759 net.cpp:382] reshape -> reshape
I0409 16:55:55.799737   759 net.cpp:124] Setting up reshape
I0409 16:55:55.799744   759 net.cpp:131] Top shape: 523 512 13 (3481088)
I0409 16:55:55.799748   759 net.cpp:139] Memory required for data: 3334378132
I0409 16:55:55.799752   759 layer_factory.hpp:77] Creating layer permuted_data
I0409 16:55:55.799762   759 net.cpp:86] Creating Layer permuted_data
I0409 16:55:55.799767   759 net.cpp:408] permuted_data <- reshape
I0409 16:55:55.799773   759 net.cpp:382] permuted_data -> permuted_data
I0409 16:55:55.799861   759 net.cpp:124] Setting up permuted_data
I0409 16:55:55.799870   759 net.cpp:131] Top shape: 13 523 512 (3481088)
I0409 16:55:55.799872   759 net.cpp:139] Memory required for data: 3348302484
I0409 16:55:55.799876   759 layer_factory.hpp:77] Creating layer indicator
I0409 16:55:55.799886   759 net.cpp:86] Creating Layer indicator
I0409 16:55:55.799892   759 net.cpp:382] indicator -> indicator
I0409 16:55:55.799926   759 net.cpp:124] Setting up indicator
I0409 16:55:55.799932   759 net.cpp:131] Top shape: 13 523 (6799)
I0409 16:55:55.799937   759 net.cpp:139] Memory required for data: 3348329680
I0409 16:55:55.799942   759 layer_factory.hpp:77] Creating layer indicator_indicator_0_split
I0409 16:55:55.799949   759 net.cpp:86] Creating Layer indicator_indicator_0_split
I0409 16:55:55.799957   759 net.cpp:408] indicator_indicator_0_split <- indicator
I0409 16:55:55.799962   759 net.cpp:382] indicator_indicator_0_split -> indicator_indicator_0_split_0
I0409 16:55:55.799973   759 net.cpp:382] indicator_indicator_0_split -> indicator_indicator_0_split_1
I0409 16:55:55.800005   759 net.cpp:124] Setting up indicator_indicator_0_split
I0409 16:55:55.800014   759 net.cpp:131] Top shape: 13 523 (6799)
I0409 16:55:55.800017   759 net.cpp:131] Top shape: 13 523 (6799)
I0409 16:55:55.800020   759 net.cpp:139] Memory required for data: 3348384072
I0409 16:55:55.800024   759 layer_factory.hpp:77] Creating layer lstm1
I0409 16:55:55.800034   759 net.cpp:86] Creating Layer lstm1
I0409 16:55:55.800038   759 net.cpp:408] lstm1 <- permuted_data
I0409 16:55:55.800042   759 net.cpp:408] lstm1 <- indicator_indicator_0_split_0
I0409 16:55:55.800048   759 net.cpp:382] lstm1 -> lstm1
I0409 16:55:55.800057   759 recurrent_layer.cpp:20] Initializing recurrent layer: assuming input batch contains 13 timesteps of 523 independent streams.
I0409 16:55:55.800614   759 net.cpp:53] Initializing net from parameters: 
layer {
  name: "lstm1_"
  type: "Input"
  top: "x"
  top: "cont"
  input_param {
    shape {
      dim: 13
      dim: 523
      dim: 512
    }
    shape {
      dim: 13
      dim: 523
    }
  }
}
layer {
  name: "lstm1_"
  type: "Input"
  top: "c_0"
  top: "h_0"
  input_param {
    shape {
      dim: 1
      dim: 523
      dim: 128
    }
    shape {
      dim: 1
      dim: 523
      dim: 128
    }
  }
}
layer {
  name: "lstm1_cont_slice"
  type: "Slice"
  bottom: "cont"
  top: "cont_1"
  top: "cont_2"
  top: "cont_3"
  top: "cont_4"
  top: "cont_5"
  top: "cont_6"
  top: "cont_7"
  top: "cont_8"
  top: "cont_9"
  top: "cont_10"
  top: "cont_11"
  top: "cont_12"
  top: "cont_13"
  slice_param {
    axis: 0
  }
}
layer {
  name: "lstm1_x_transform"
  type: "InnerProduct"
  bottom: "x"
  top: "W_xc_x"
  param {
    name: "W_xc"
  }
  param {
    name: "b_c"
  }
  propagate_down: true
  inner_product_param {
    num_output: 512
    bias_term: true
    weight_filler {
      type: "xavier"
    }
    bias_filler {
      type: "constant"
      value: 0
    }
    axis: 2
  }
}
layer {
  name: "lstm1_W_xc_x_slice"
  type: "Slice"
  bottom: "W_xc_x"
  top: "W_xc_x_1"
  top: "W_xc_x_2"
  top: "W_xc_x_3"
  top: "W_xc_x_4"
  top: "W_xc_x_5"
  top: "W_xc_x_6"
  top: "W_xc_x_7"
  top: "W_xc_x_8"
  top: "W_xc_x_9"
  top: "W_xc_x_10"
  top: "W_xc_x_11"
  top: "W_xc_x_12"
  top: "W_xc_x_13"
  slice_param {
    axis: 0
  }
}
layer {
  name: "lstm1_h_conted_0"
  type: "Scale"
  bottom: "h_0"
  bottom: "cont_1"
  top: "h_conted_0"
  scale_param {
    axis: 0
  }
}
layer {
  name: "lstm1_transform_1"
  type: "InnerProduct"
  bottom: "h_conted_0"
  top: "W_hc_h_0"
  param {
    name: "W_hc"
  }
  inner_product_param {
    num_output: 512
    bias_term: false
    weight_filler {
      type: "xavier"
    }
    axis: 2
  }
}
layer {
  name: "lstm1_gate_input_1"
  type: "Eltwise"
  bottom: "W_hc_h_0"
  bottom: "W_xc_x_1"
  top: "gate_input_1"
  eltwise_param {
    operation: SUM
  }
}
layer {
  name: "lstm1_unit_1"
  type: "LSTMUnit"
  bottom: "c_0"
  bottom: "gate_input_1"
  bottom: "cont_1"
  top: "c_1"
  top: "h_1"
}
layer {
  name: "lstm1_h_conted_1"
  type: "Scale"
  bottom: "h_1"
  bottom: "cont_2"
  top: "h_conted_1"
  scale_param {
    axis: 0
  }
}
layer {
  name: "lstm1_transform_2"
  type: "InnerProduct"
  bottom: "h_conted_1"
  top: "W_hc_h_1"
  param {
    name: "W_hc"
  }
  inner_product_param {
    num_output: 512
    bias_term: false
    weight_filler {
      type: "xavier"
    }
    axis: 2
  }
}
layer {
  name: "lstm1_gate_input_2"
  type: "Eltwise"
  bottom: "W_hc_h_1"
  bottom: "W_xc_x_2"
  top: "gate_input_2"
  eltwise_param {
    operation: SUM
  }
}
layer {
  name: "lstm1_unit_2"
  type: "LSTMUnit"
  bottom: "c_1"
  bottom: "gate_input_2"
  bottom: "cont_2"
  top: "c_2"
  top: "h_2"
}
layer {
  name: "lstm1_h_conted_2"
  type: "Scale"
  bottom: "h_2"
  bottom: "cont_3"
  top: "h_conted_2"
  scale_param {
    axis: 0
  }
}
layer {
  name: "lstm1_transform_3"
  type: "InnerProduct"
  bottom: "h_conted_2"
  top: "W_hc_h_2"
  param {
    name: "W_hc"
  }
  inner_product_param {
    num_output: 512
    bias_term: false
    weight_filler {
      type: "xavier"
    }
    axis: 2
  }
}
layer {
  name: "lstm1_gate_input_3"
  type: "Eltwise"
  bottom: "W_hc_h_2"
  bottom: "W_xc_x_3"
  top: "gate_input_3"
  eltwise_param {
    operation: SUM
  }
}
layer {
  name: "lstm1_unit_3"
  type: "LSTMUnit"
  bottom: "c_2"
  bottom: "gate_input_3"
  bottom: "cont_3"
  top: "c_3"
  top: "h_3"
}
layer {
  name: "lstm1_h_conted_3"
  type: "Scale"
  bottom: "h_3"
  bottom: "cont_4"
  top: "h_conted_3"
  scale_param {
    axis: 0
  }
}
layer {
  name: "lstm1_transform_4"
  type: "InnerProduct"
  bottom: "h_conted_3"
  top: "W_hc_h_3"
  param {
    name: "W_hc"
  }
  inner_product_param {
    num_output: 512
    bias_term: false
    weight_filler {
      type: "xavier"
    }
    axis: 2
  }
}
layer {
  name: "lstm1_gate_input_4"
  type: "Eltwise"
  bottom: "W_hc_h_3"
  bottom: "W_xc_x_4"
  top: "gate_input_4"
  eltwise_param {
    operation: SUM
  }
}
layer {
  name: "lstm1_unit_4"
  type: "LSTMUnit"
  bottom: "c_3"
  bottom: "gate_input_4"
  bottom: "cont_4"
  top: "c_4"
  top: "h_4"
}
layer {
  name: "lstm1_h_conted_4"
  type: "Scale"
  bottom: "h_4"
  bottom: "cont_5"
  top: "h_conted_4"
  scale_param {
    axis: 0
  }
}
layer {
  name: "lstm1_transform_5"
  type: "InnerProduct"
  bottom: "h_conted_4"
  top: "W_hc_h_4"
  param {
    name: "W_hc"
  }
  inner_product_param {
    num_output: 512
    bias_term: false
    weight_filler {
      type: "xavier"
    }
    axis: 2
  }
}
layer {
  name: "lstm1_gate_input_5"
  type: "Eltwise"
  bottom: "W_hc_h_4"
  bottom: "W_xc_x_5"
  top: "gate_input_5"
  eltwise_param {
    operation: SUM
  }
}
layer {
  name: "lstm1_unit_5"
  type: "LSTMUnit"
  bottom: "c_4"
  bottom: "gate_input_5"
  bottom: "cont_5"
  top: "c_5"
  top: "h_5"
}
layer {
  name: "lstm1_h_conted_5"
  type: "Scale"
  bottom: "h_5"
  bottom: "cont_6"
  top: "h_conted_5"
  scale_param {
    axis: 0
  }
}
layer {
  name: "lstm1_transform_6"
  type: "InnerProduct"
  bottom: "h_conted_5"
  top: "W_hc_h_5"
  param {
    name: "W_hc"
  }
  inner_product_param {
    num_output: 512
    bias_term: false
    weight_filler {
      type: "xavier"
    }
    axis: 2
  }
}
layer {
  name: "lstm1_gate_input_6"
  type: "Eltwise"
  bottom: "W_hc_h_5"
  bottom: "W_xc_x_6"
  top: "gate_input_6"
  eltwise_param {
    operation: SUM
  }
}
layer {
  name: "lstm1_unit_6"
  type: "LSTMUnit"
  bottom: "c_5"
  bottom: "gate_input_6"
  bottom: "cont_6"
  top: "c_6"
  top: "h_6"
}
layer {
  name: "lstm1_h_conted_6"
  type: "Scale"
  bottom: "h_6"
  bottom: "cont_7"
  top: "h_conted_6"
  scale_param {
    axis: 0
  }
}
layer {
  name: "lstm1_transform_7"
  type: "InnerProduct"
  bottom: "h_conted_6"
  top: "W_hc_h_6"
  param {
    name: "W_hc"
  }
  inner_product_param {
    num_output: 512
    bias_term: false
    weight_filler {
      type: "xavier"
    }
    axis: 2
  }
}
layer {
  name: "lstm1_gate_input_7"
  type: "Eltwise"
  bottom: "W_hc_h_6"
  bottom: "W_xc_x_7"
  top: "gate_input_7"
  eltwise_param {
    operation: SUM
  }
}
layer {
  name: "lstm1_unit_7"
  type: "LSTMUnit"
  bottom: "c_6"
  bottom: "gate_input_7"
  bottom: "cont_7"
  top: "c_7"
  top: "h_7"
}
layer {
  name: "lstm1_h_conted_7"
  type: "Scale"
  bottom: "h_7"
  bottom: "cont_8"
  top: "h_conted_7"
  scale_param {
    axis: 0
  }
}
layer {
  name: "lstm1_transform_8"
  type: "InnerProduct"
  bottom: "h_conted_7"
  top: "W_hc_h_7"
  param {
    name: "W_hc"
  }
  inner_product_param {
    num_output: 512
    bias_term: false
    weight_filler {
      type: "xavier"
    }
    axis: 2
  }
}
layer {
  name: "lstm1_gate_input_8"
  type: "Eltwise"
  bottom: "W_hc_h_7"
  bottom: "W_xc_x_8"
  top: "gate_input_8"
  eltwise_param {
    operation: SUM
  }
}
layer {
  name: "lstm1_unit_8"
  type: "LSTMUnit"
  bottom: "c_7"
  bottom: "gate_input_8"
  bottom: "cont_8"
  top: "c_8"
  top: "h_8"
}
layer {
  name: "lstm1_h_conted_8"
  type: "Scale"
  bottom: "h_8"
  bottom: "cont_9"
  top: "h_conted_8"
  scale_param {
    axis: 0
  }
}
layer {
  name: "lstm1_transform_9"
  type: "InnerProduct"
  bottom: "h_conted_8"
  top: "W_hc_h_8"
  param {
    name: "W_hc"
  }
  inner_product_param {
    num_output: 512
    bias_term: false
    weight_filler {
      type: "xavier"
    }
    axis: 2
  }
}
layer {
  name: "lstm1_gate_input_9"
  type: "Eltwise"
  bottom: "W_hc_h_8"
  bottom: "W_xc_x_9"
  top: "gate_input_9"
  eltwise_param {
    operation: SUM
  }
}
layer {
  name: "lstm1_unit_9"
  type: "LSTMUnit"
  bottom: "c_8"
  bottom: "gate_input_9"
  bottom: "cont_9"
  top: "c_9"
  top: "h_9"
}
layer {
  name: "lstm1_h_conted_9"
  type: "Scale"
  bottom: "h_9"
  bottom: "cont_10"
  top: "h_conted_9"
  scale_param {
    axis: 0
  }
}
layer {
  name: "lstm1_transform_10"
  type: "InnerProduct"
  bottom: "h_conted_9"
  top: "W_hc_h_9"
  param {
    name: "W_hc"
  }
  inner_product_param {
    num_output: 512
    bias_term: false
    weight_filler {
      type: "xavier"
    }
    axis: 2
  }
}
layer {
  name: "lstm1_gate_input_10"
  type: "Eltwise"
  bottom: "W_hc_h_9"
  bottom: "W_xc_x_10"
  top: "gate_input_10"
  eltwise_param {
    operation: SUM
  }
}
layer {
  name: "lstm1_unit_10"
  type: "LSTMUnit"
  bottom: "c_9"
  bottom: "gate_input_10"
  bottom: "cont_10"
  top: "c_10"
  top: "h_10"
}
layer {
  name: "lstm1_h_conted_10"
  type: "Scale"
  bottom: "h_10"
  bottom: "cont_11"
  top: "h_conted_10"
  scale_param {
    axis: 0
  }
}
layer {
  name: "lstm1_transform_11"
  type: "InnerProduct"
  bottom: "h_conted_10"
  top: "W_hc_h_10"
  param {
    name: "W_hc"
  }
  inner_product_param {
    num_output: 512
    bias_term: false
    weight_filler {
      type: "xavier"
    }
    axis: 2
  }
}
layer {
  name: "lstm1_gate_input_11"
  type: "Eltwise"
  bottom: "W_hc_h_10"
  bottom: "W_xc_x_11"
  top: "gate_input_11"
  eltwise_param {
    operation: SUM
  }
}
layer {
  name: "lstm1_unit_11"
  type: "LSTMUnit"
  bottom: "c_10"
  bottom: "gate_input_11"
  bottom: "cont_11"
  top: "c_11"
  top: "h_11"
}
layer {
  name: "lstm1_h_conted_11"
  type: "Scale"
  bottom: "h_11"
  bottom: "cont_12"
  top: "h_conted_11"
  scale_param {
    axis: 0
  }
}
layer {
  name: "lstm1_transform_12"
  type: "InnerProduct"
  bottom: "h_conted_11"
  top: "W_hc_h_11"
  param {
    name: "W_hc"
  }
  inner_product_param {
    num_output: 512
    bias_term: false
    weight_filler {
      type: "xavier"
    }
    axis: 2
  }
}
layer {
  name: "lstm1_gate_input_12"
  type: "Eltwise"
  bottom: "W_hc_h_11"
  bottom: "W_xc_x_12"
  top: "gate_input_12"
  eltwise_param {
    operation: SUM
  }
}
layer {
  name: "lstm1_unit_12"
  type: "LSTMUnit"
  bottom: "c_11"
  bottom: "gate_input_12"
  bottom: "cont_12"
  top: "c_12"
  top: "h_12"
}
layer {
  name: "lstm1_h_conted_12"
  type: "Scale"
  bottom: "h_12"
  bottom: "cont_13"
  top: "h_conted_12"
  scale_param {
    axis: 0
  }
}
layer {
  name: "lstm1_transform_13"
  type: "InnerProduct"
  bottom: "h_conted_12"
  top: "W_hc_h_12"
  param {
    name: "W_hc"
  }
  inner_product_param {
    num_output: 512
    bias_term: false
    weight_filler {
      type: "xavier"
    }
    axis: 2
  }
}
layer {
  name: "lstm1_gate_input_13"
  type: "Eltwise"
  bottom: "W_hc_h_12"
  bottom: "W_xc_x_13"
  top: "gate_input_13"
  eltwise_param {
    operation: SUM
  }
}
layer {
  name: "lstm1_unit_13"
  type: "LSTMUnit"
  bottom: "c_12"
  bottom: "gate_input_13"
  bottom: "cont_13"
  top: "c_13"
  top: "h_13"
}
layer {
  name: "lstm1_"
  type: "Split"
  bottom: "c_13"
  top: "c_T"
}
layer {
  name: "lstm1_h_concat"
  type: "Concat"
  bottom: "h_1"
  bottom: "h_2"
  bottom: "h_3"
  bottom: "h_4"
  bottom: "h_5"
  bottom: "h_6"
  bottom: "h_7"
  bottom: "h_8"
  bottom: "h_9"
  bottom: "h_10"
  bottom: "h_11"
  bottom: "h_12"
  bottom: "h_13"
  top: "h"
  concat_param {
    axis: 0
  }
}
layer {
  name: "h_pseudoloss"
  type: "Reduction"
  bottom: "h"
  top: "h_pseudoloss"
  loss_weight: 1
}
I0409 16:55:55.801192   759 layer_factory.hpp:77] Creating layer lstm1_
I0409 16:55:55.801204   759 net.cpp:86] Creating Layer lstm1_
I0409 16:55:55.801211   759 net.cpp:382] lstm1_ -> x
I0409 16:55:55.801228   759 net.cpp:382] lstm1_ -> cont
I0409 16:55:55.801280   759 net.cpp:124] Setting up lstm1_
I0409 16:55:55.801290   759 net.cpp:131] Top shape: 13 523 512 (3481088)
I0409 16:55:55.801296   759 net.cpp:131] Top shape: 13 523 (6799)
I0409 16:55:55.801302   759 net.cpp:139] Memory required for data: 13951548
I0409 16:55:55.801307   759 layer_factory.hpp:77] Creating layer lstm1_
I0409 16:55:55.801313   759 net.cpp:86] Creating Layer lstm1_
I0409 16:55:55.801317   759 net.cpp:382] lstm1_ -> c_0
I0409 16:55:55.801326   759 net.cpp:382] lstm1_ -> h_0
I0409 16:55:55.801364   759 net.cpp:124] Setting up lstm1_
I0409 16:55:55.801373   759 net.cpp:131] Top shape: 1 523 128 (66944)
I0409 16:55:55.801378   759 net.cpp:131] Top shape: 1 523 128 (66944)
I0409 16:55:55.801380   759 net.cpp:139] Memory required for data: 14487100
I0409 16:55:55.801384   759 layer_factory.hpp:77] Creating layer lstm1_cont_slice
I0409 16:55:55.801390   759 net.cpp:86] Creating Layer lstm1_cont_slice
I0409 16:55:55.801394   759 net.cpp:408] lstm1_cont_slice <- cont
I0409 16:55:55.801400   759 net.cpp:382] lstm1_cont_slice -> cont_1
I0409 16:55:55.801409   759 net.cpp:382] lstm1_cont_slice -> cont_2
I0409 16:55:55.801414   759 net.cpp:382] lstm1_cont_slice -> cont_3
I0409 16:55:55.801422   759 net.cpp:382] lstm1_cont_slice -> cont_4
I0409 16:55:55.801429   759 net.cpp:382] lstm1_cont_slice -> cont_5
I0409 16:55:55.801435   759 net.cpp:382] lstm1_cont_slice -> cont_6
I0409 16:55:55.801440   759 net.cpp:382] lstm1_cont_slice -> cont_7
I0409 16:55:55.801445   759 net.cpp:382] lstm1_cont_slice -> cont_8
I0409 16:55:55.801451   759 net.cpp:382] lstm1_cont_slice -> cont_9
I0409 16:55:55.801460   759 net.cpp:382] lstm1_cont_slice -> cont_10
I0409 16:55:55.801465   759 net.cpp:382] lstm1_cont_slice -> cont_11
I0409 16:55:55.801470   759 net.cpp:382] lstm1_cont_slice -> cont_12
I0409 16:55:55.801476   759 net.cpp:382] lstm1_cont_slice -> cont_13
I0409 16:55:55.801648   759 net.cpp:124] Setting up lstm1_cont_slice
I0409 16:55:55.801658   759 net.cpp:131] Top shape: 1 523 (523)
I0409 16:55:55.801662   759 net.cpp:131] Top shape: 1 523 (523)
I0409 16:55:55.801666   759 net.cpp:131] Top shape: 1 523 (523)
I0409 16:55:55.801671   759 net.cpp:131] Top shape: 1 523 (523)
I0409 16:55:55.801674   759 net.cpp:131] Top shape: 1 523 (523)
I0409 16:55:55.801677   759 net.cpp:131] Top shape: 1 523 (523)
I0409 16:55:55.801681   759 net.cpp:131] Top shape: 1 523 (523)
I0409 16:55:55.801686   759 net.cpp:131] Top shape: 1 523 (523)
I0409 16:55:55.801689   759 net.cpp:131] Top shape: 1 523 (523)
I0409 16:55:55.801692   759 net.cpp:131] Top shape: 1 523 (523)
I0409 16:55:55.801697   759 net.cpp:131] Top shape: 1 523 (523)
I0409 16:55:55.801700   759 net.cpp:131] Top shape: 1 523 (523)
I0409 16:55:55.801704   759 net.cpp:131] Top shape: 1 523 (523)
I0409 16:55:55.801707   759 net.cpp:139] Memory required for data: 14514296
I0409 16:55:55.801710   759 layer_factory.hpp:77] Creating layer cont_1_lstm1_cont_slice_0_split
I0409 16:55:55.801717   759 net.cpp:86] Creating Layer cont_1_lstm1_cont_slice_0_split
I0409 16:55:55.801719   759 net.cpp:408] cont_1_lstm1_cont_slice_0_split <- cont_1
I0409 16:55:55.801726   759 net.cpp:382] cont_1_lstm1_cont_slice_0_split -> cont_1_lstm1_cont_slice_0_split_0
I0409 16:55:55.801734   759 net.cpp:382] cont_1_lstm1_cont_slice_0_split -> cont_1_lstm1_cont_slice_0_split_1
I0409 16:55:55.801764   759 net.cpp:124] Setting up cont_1_lstm1_cont_slice_0_split
I0409 16:55:55.801771   759 net.cpp:131] Top shape: 1 523 (523)
I0409 16:55:55.801775   759 net.cpp:131] Top shape: 1 523 (523)
I0409 16:55:55.801779   759 net.cpp:139] Memory required for data: 14518480
I0409 16:55:55.801782   759 layer_factory.hpp:77] Creating layer cont_2_lstm1_cont_slice_1_split
I0409 16:55:55.801787   759 net.cpp:86] Creating Layer cont_2_lstm1_cont_slice_1_split
I0409 16:55:55.801791   759 net.cpp:408] cont_2_lstm1_cont_slice_1_split <- cont_2
I0409 16:55:55.801797   759 net.cpp:382] cont_2_lstm1_cont_slice_1_split -> cont_2_lstm1_cont_slice_1_split_0
I0409 16:55:55.801802   759 net.cpp:382] cont_2_lstm1_cont_slice_1_split -> cont_2_lstm1_cont_slice_1_split_1
I0409 16:55:55.801834   759 net.cpp:124] Setting up cont_2_lstm1_cont_slice_1_split
I0409 16:55:55.801841   759 net.cpp:131] Top shape: 1 523 (523)
I0409 16:55:55.801846   759 net.cpp:131] Top shape: 1 523 (523)
I0409 16:55:55.801848   759 net.cpp:139] Memory required for data: 14522664
I0409 16:55:55.801851   759 layer_factory.hpp:77] Creating layer cont_3_lstm1_cont_slice_2_split
I0409 16:55:55.801856   759 net.cpp:86] Creating Layer cont_3_lstm1_cont_slice_2_split
I0409 16:55:55.801861   759 net.cpp:408] cont_3_lstm1_cont_slice_2_split <- cont_3
I0409 16:55:55.801867   759 net.cpp:382] cont_3_lstm1_cont_slice_2_split -> cont_3_lstm1_cont_slice_2_split_0
I0409 16:55:55.801872   759 net.cpp:382] cont_3_lstm1_cont_slice_2_split -> cont_3_lstm1_cont_slice_2_split_1
I0409 16:55:55.801903   759 net.cpp:124] Setting up cont_3_lstm1_cont_slice_2_split
I0409 16:55:55.801909   759 net.cpp:131] Top shape: 1 523 (523)
I0409 16:55:55.801913   759 net.cpp:131] Top shape: 1 523 (523)
I0409 16:55:55.801916   759 net.cpp:139] Memory required for data: 14526848
I0409 16:55:55.801919   759 layer_factory.hpp:77] Creating layer cont_4_lstm1_cont_slice_3_split
I0409 16:55:55.801924   759 net.cpp:86] Creating Layer cont_4_lstm1_cont_slice_3_split
I0409 16:55:55.801928   759 net.cpp:408] cont_4_lstm1_cont_slice_3_split <- cont_4
I0409 16:55:55.801934   759 net.cpp:382] cont_4_lstm1_cont_slice_3_split -> cont_4_lstm1_cont_slice_3_split_0
I0409 16:55:55.801940   759 net.cpp:382] cont_4_lstm1_cont_slice_3_split -> cont_4_lstm1_cont_slice_3_split_1
I0409 16:55:55.801970   759 net.cpp:124] Setting up cont_4_lstm1_cont_slice_3_split
I0409 16:55:55.801977   759 net.cpp:131] Top shape: 1 523 (523)
I0409 16:55:55.801980   759 net.cpp:131] Top shape: 1 523 (523)
I0409 16:55:55.801983   759 net.cpp:139] Memory required for data: 14531032
I0409 16:55:55.801995   759 layer_factory.hpp:77] Creating layer cont_5_lstm1_cont_slice_4_split
I0409 16:55:55.802000   759 net.cpp:86] Creating Layer cont_5_lstm1_cont_slice_4_split
I0409 16:55:55.802003   759 net.cpp:408] cont_5_lstm1_cont_slice_4_split <- cont_5
I0409 16:55:55.802011   759 net.cpp:382] cont_5_lstm1_cont_slice_4_split -> cont_5_lstm1_cont_slice_4_split_0
I0409 16:55:55.802018   759 net.cpp:382] cont_5_lstm1_cont_slice_4_split -> cont_5_lstm1_cont_slice_4_split_1
I0409 16:55:55.802052   759 net.cpp:124] Setting up cont_5_lstm1_cont_slice_4_split
I0409 16:55:55.802059   759 net.cpp:131] Top shape: 1 523 (523)
I0409 16:55:55.802063   759 net.cpp:131] Top shape: 1 523 (523)
I0409 16:55:55.802068   759 net.cpp:139] Memory required for data: 14535216
I0409 16:55:55.802073   759 layer_factory.hpp:77] Creating layer cont_6_lstm1_cont_slice_5_split
I0409 16:55:55.802084   759 net.cpp:86] Creating Layer cont_6_lstm1_cont_slice_5_split
I0409 16:55:55.802090   759 net.cpp:408] cont_6_lstm1_cont_slice_5_split <- cont_6
I0409 16:55:55.802099   759 net.cpp:382] cont_6_lstm1_cont_slice_5_split -> cont_6_lstm1_cont_slice_5_split_0
I0409 16:55:55.802109   759 net.cpp:382] cont_6_lstm1_cont_slice_5_split -> cont_6_lstm1_cont_slice_5_split_1
I0409 16:55:55.802145   759 net.cpp:124] Setting up cont_6_lstm1_cont_slice_5_split
I0409 16:55:55.802151   759 net.cpp:131] Top shape: 1 523 (523)
I0409 16:55:55.802156   759 net.cpp:131] Top shape: 1 523 (523)
I0409 16:55:55.802161   759 net.cpp:139] Memory required for data: 14539400
I0409 16:55:55.802166   759 layer_factory.hpp:77] Creating layer cont_7_lstm1_cont_slice_6_split
I0409 16:55:55.802171   759 net.cpp:86] Creating Layer cont_7_lstm1_cont_slice_6_split
I0409 16:55:55.802176   759 net.cpp:408] cont_7_lstm1_cont_slice_6_split <- cont_7
I0409 16:55:55.802183   759 net.cpp:382] cont_7_lstm1_cont_slice_6_split -> cont_7_lstm1_cont_slice_6_split_0
I0409 16:55:55.802189   759 net.cpp:382] cont_7_lstm1_cont_slice_6_split -> cont_7_lstm1_cont_slice_6_split_1
I0409 16:55:55.802217   759 net.cpp:124] Setting up cont_7_lstm1_cont_slice_6_split
I0409 16:55:55.802224   759 net.cpp:131] Top shape: 1 523 (523)
I0409 16:55:55.802228   759 net.cpp:131] Top shape: 1 523 (523)
I0409 16:55:55.802232   759 net.cpp:139] Memory required for data: 14543584
I0409 16:55:55.802234   759 layer_factory.hpp:77] Creating layer cont_8_lstm1_cont_slice_7_split
I0409 16:55:55.802240   759 net.cpp:86] Creating Layer cont_8_lstm1_cont_slice_7_split
I0409 16:55:55.802244   759 net.cpp:408] cont_8_lstm1_cont_slice_7_split <- cont_8
I0409 16:55:55.802253   759 net.cpp:382] cont_8_lstm1_cont_slice_7_split -> cont_8_lstm1_cont_slice_7_split_0
I0409 16:55:55.802260   759 net.cpp:382] cont_8_lstm1_cont_slice_7_split -> cont_8_lstm1_cont_slice_7_split_1
I0409 16:55:55.802300   759 net.cpp:124] Setting up cont_8_lstm1_cont_slice_7_split
I0409 16:55:55.802309   759 net.cpp:131] Top shape: 1 523 (523)
I0409 16:55:55.802312   759 net.cpp:131] Top shape: 1 523 (523)
I0409 16:55:55.802316   759 net.cpp:139] Memory required for data: 14547768
I0409 16:55:55.802322   759 layer_factory.hpp:77] Creating layer cont_9_lstm1_cont_slice_8_split
I0409 16:55:55.802332   759 net.cpp:86] Creating Layer cont_9_lstm1_cont_slice_8_split
I0409 16:55:55.802337   759 net.cpp:408] cont_9_lstm1_cont_slice_8_split <- cont_9
I0409 16:55:55.802345   759 net.cpp:382] cont_9_lstm1_cont_slice_8_split -> cont_9_lstm1_cont_slice_8_split_0
I0409 16:55:55.802353   759 net.cpp:382] cont_9_lstm1_cont_slice_8_split -> cont_9_lstm1_cont_slice_8_split_1
I0409 16:55:55.802388   759 net.cpp:124] Setting up cont_9_lstm1_cont_slice_8_split
I0409 16:55:55.802395   759 net.cpp:131] Top shape: 1 523 (523)
I0409 16:55:55.802399   759 net.cpp:131] Top shape: 1 523 (523)
I0409 16:55:55.802405   759 net.cpp:139] Memory required for data: 14551952
I0409 16:55:55.802410   759 layer_factory.hpp:77] Creating layer cont_10_lstm1_cont_slice_9_split
I0409 16:55:55.802417   759 net.cpp:86] Creating Layer cont_10_lstm1_cont_slice_9_split
I0409 16:55:55.802433   759 net.cpp:408] cont_10_lstm1_cont_slice_9_split <- cont_10
I0409 16:55:55.802441   759 net.cpp:382] cont_10_lstm1_cont_slice_9_split -> cont_10_lstm1_cont_slice_9_split_0
I0409 16:55:55.802455   759 net.cpp:382] cont_10_lstm1_cont_slice_9_split -> cont_10_lstm1_cont_slice_9_split_1
I0409 16:55:55.802490   759 net.cpp:124] Setting up cont_10_lstm1_cont_slice_9_split
I0409 16:55:55.802497   759 net.cpp:131] Top shape: 1 523 (523)
I0409 16:55:55.802502   759 net.cpp:131] Top shape: 1 523 (523)
I0409 16:55:55.802506   759 net.cpp:139] Memory required for data: 14556136
I0409 16:55:55.802511   759 layer_factory.hpp:77] Creating layer cont_11_lstm1_cont_slice_10_split
I0409 16:55:55.802521   759 net.cpp:86] Creating Layer cont_11_lstm1_cont_slice_10_split
I0409 16:55:55.802528   759 net.cpp:408] cont_11_lstm1_cont_slice_10_split <- cont_11
I0409 16:55:55.802536   759 net.cpp:382] cont_11_lstm1_cont_slice_10_split -> cont_11_lstm1_cont_slice_10_split_0
I0409 16:55:55.802546   759 net.cpp:382] cont_11_lstm1_cont_slice_10_split -> cont_11_lstm1_cont_slice_10_split_1
I0409 16:55:55.802582   759 net.cpp:124] Setting up cont_11_lstm1_cont_slice_10_split
I0409 16:55:55.802589   759 net.cpp:131] Top shape: 1 523 (523)
I0409 16:55:55.802608   759 net.cpp:131] Top shape: 1 523 (523)
I0409 16:55:55.802614   759 net.cpp:139] Memory required for data: 14560320
I0409 16:55:55.802619   759 layer_factory.hpp:77] Creating layer cont_12_lstm1_cont_slice_11_split
I0409 16:55:55.802626   759 net.cpp:86] Creating Layer cont_12_lstm1_cont_slice_11_split
I0409 16:55:55.802633   759 net.cpp:408] cont_12_lstm1_cont_slice_11_split <- cont_12
I0409 16:55:55.802639   759 net.cpp:382] cont_12_lstm1_cont_slice_11_split -> cont_12_lstm1_cont_slice_11_split_0
I0409 16:55:55.802650   759 net.cpp:382] cont_12_lstm1_cont_slice_11_split -> cont_12_lstm1_cont_slice_11_split_1
I0409 16:55:55.802686   759 net.cpp:124] Setting up cont_12_lstm1_cont_slice_11_split
I0409 16:55:55.802695   759 net.cpp:131] Top shape: 1 523 (523)
I0409 16:55:55.802698   759 net.cpp:131] Top shape: 1 523 (523)
I0409 16:55:55.802700   759 net.cpp:139] Memory required for data: 14564504
I0409 16:55:55.802704   759 layer_factory.hpp:77] Creating layer cont_13_lstm1_cont_slice_12_split
I0409 16:55:55.802713   759 net.cpp:86] Creating Layer cont_13_lstm1_cont_slice_12_split
I0409 16:55:55.802718   759 net.cpp:408] cont_13_lstm1_cont_slice_12_split <- cont_13
I0409 16:55:55.802726   759 net.cpp:382] cont_13_lstm1_cont_slice_12_split -> cont_13_lstm1_cont_slice_12_split_0
I0409 16:55:55.802734   759 net.cpp:382] cont_13_lstm1_cont_slice_12_split -> cont_13_lstm1_cont_slice_12_split_1
I0409 16:55:55.802772   759 net.cpp:124] Setting up cont_13_lstm1_cont_slice_12_split
I0409 16:55:55.802779   759 net.cpp:131] Top shape: 1 523 (523)
I0409 16:55:55.802783   759 net.cpp:131] Top shape: 1 523 (523)
I0409 16:55:55.802788   759 net.cpp:139] Memory required for data: 14568688
I0409 16:55:55.802793   759 layer_factory.hpp:77] Creating layer lstm1_x_transform
I0409 16:55:55.802804   759 net.cpp:86] Creating Layer lstm1_x_transform
I0409 16:55:55.802809   759 net.cpp:408] lstm1_x_transform <- x
I0409 16:55:55.802816   759 net.cpp:382] lstm1_x_transform -> W_xc_x
I0409 16:55:55.805685   759 net.cpp:124] Setting up lstm1_x_transform
I0409 16:55:55.805698   759 net.cpp:131] Top shape: 13 523 512 (3481088)
I0409 16:55:55.805702   759 net.cpp:139] Memory required for data: 28493040
I0409 16:55:55.805713   759 layer_factory.hpp:77] Creating layer lstm1_W_xc_x_slice
I0409 16:55:55.805728   759 net.cpp:86] Creating Layer lstm1_W_xc_x_slice
I0409 16:55:55.805735   759 net.cpp:408] lstm1_W_xc_x_slice <- W_xc_x
I0409 16:55:55.805743   759 net.cpp:382] lstm1_W_xc_x_slice -> W_xc_x_1
I0409 16:55:55.805757   759 net.cpp:382] lstm1_W_xc_x_slice -> W_xc_x_2
I0409 16:55:55.805768   759 net.cpp:382] lstm1_W_xc_x_slice -> W_xc_x_3
I0409 16:55:55.805776   759 net.cpp:382] lstm1_W_xc_x_slice -> W_xc_x_4
I0409 16:55:55.805786   759 net.cpp:382] lstm1_W_xc_x_slice -> W_xc_x_5
I0409 16:55:55.805796   759 net.cpp:382] lstm1_W_xc_x_slice -> W_xc_x_6
I0409 16:55:55.805819   759 net.cpp:382] lstm1_W_xc_x_slice -> W_xc_x_7
I0409 16:55:55.805830   759 net.cpp:382] lstm1_W_xc_x_slice -> W_xc_x_8
I0409 16:55:55.805840   759 net.cpp:382] lstm1_W_xc_x_slice -> W_xc_x_9
I0409 16:55:55.805846   759 net.cpp:382] lstm1_W_xc_x_slice -> W_xc_x_10
I0409 16:55:55.805852   759 net.cpp:382] lstm1_W_xc_x_slice -> W_xc_x_11
I0409 16:55:55.805857   759 net.cpp:382] lstm1_W_xc_x_slice -> W_xc_x_12
I0409 16:55:55.805863   759 net.cpp:382] lstm1_W_xc_x_slice -> W_xc_x_13
I0409 16:55:55.806010   759 net.cpp:124] Setting up lstm1_W_xc_x_slice
I0409 16:55:55.806018   759 net.cpp:131] Top shape: 1 523 512 (267776)
I0409 16:55:55.806022   759 net.cpp:131] Top shape: 1 523 512 (267776)
I0409 16:55:55.806026   759 net.cpp:131] Top shape: 1 523 512 (267776)
I0409 16:55:55.806031   759 net.cpp:131] Top shape: 1 523 512 (267776)
I0409 16:55:55.806037   759 net.cpp:131] Top shape: 1 523 512 (267776)
I0409 16:55:55.806043   759 net.cpp:131] Top shape: 1 523 512 (267776)
I0409 16:55:55.806049   759 net.cpp:131] Top shape: 1 523 512 (267776)
I0409 16:55:55.806056   759 net.cpp:131] Top shape: 1 523 512 (267776)
I0409 16:55:55.806062   759 net.cpp:131] Top shape: 1 523 512 (267776)
I0409 16:55:55.806068   759 net.cpp:131] Top shape: 1 523 512 (267776)
I0409 16:55:55.806074   759 net.cpp:131] Top shape: 1 523 512 (267776)
I0409 16:55:55.806080   759 net.cpp:131] Top shape: 1 523 512 (267776)
I0409 16:55:55.806087   759 net.cpp:131] Top shape: 1 523 512 (267776)
I0409 16:55:55.806092   759 net.cpp:139] Memory required for data: 42417392
I0409 16:55:55.806097   759 layer_factory.hpp:77] Creating layer lstm1_h_conted_0
I0409 16:55:55.806107   759 net.cpp:86] Creating Layer lstm1_h_conted_0
I0409 16:55:55.806111   759 net.cpp:408] lstm1_h_conted_0 <- h_0
I0409 16:55:55.806118   759 net.cpp:408] lstm1_h_conted_0 <- cont_1_lstm1_cont_slice_0_split_0
I0409 16:55:55.806126   759 net.cpp:382] lstm1_h_conted_0 -> h_conted_0
I0409 16:55:55.806192   759 net.cpp:124] Setting up lstm1_h_conted_0
I0409 16:55:55.806201   759 net.cpp:131] Top shape: 1 523 128 (66944)
I0409 16:55:55.806205   759 net.cpp:139] Memory required for data: 42685168
I0409 16:55:55.806210   759 layer_factory.hpp:77] Creating layer lstm1_transform_1
I0409 16:55:55.806223   759 net.cpp:86] Creating Layer lstm1_transform_1
I0409 16:55:55.806231   759 net.cpp:408] lstm1_transform_1 <- h_conted_0
I0409 16:55:55.806236   759 net.cpp:382] lstm1_transform_1 -> W_hc_h_0
I0409 16:55:55.807332   759 net.cpp:124] Setting up lstm1_transform_1
I0409 16:55:55.807350   759 net.cpp:131] Top shape: 1 523 512 (267776)
I0409 16:55:55.807354   759 net.cpp:139] Memory required for data: 43756272
I0409 16:55:55.807364   759 layer_factory.hpp:77] Creating layer lstm1_gate_input_1
I0409 16:55:55.807374   759 net.cpp:86] Creating Layer lstm1_gate_input_1
I0409 16:55:55.807394   759 net.cpp:408] lstm1_gate_input_1 <- W_hc_h_0
I0409 16:55:55.807399   759 net.cpp:408] lstm1_gate_input_1 <- W_xc_x_1
I0409 16:55:55.807406   759 net.cpp:382] lstm1_gate_input_1 -> gate_input_1
I0409 16:55:55.807435   759 net.cpp:124] Setting up lstm1_gate_input_1
I0409 16:55:55.807446   759 net.cpp:131] Top shape: 1 523 512 (267776)
I0409 16:55:55.807449   759 net.cpp:139] Memory required for data: 44827376
I0409 16:55:55.807453   759 layer_factory.hpp:77] Creating layer lstm1_unit_1
I0409 16:55:55.807461   759 net.cpp:86] Creating Layer lstm1_unit_1
I0409 16:55:55.807468   759 net.cpp:408] lstm1_unit_1 <- c_0
I0409 16:55:55.807476   759 net.cpp:408] lstm1_unit_1 <- gate_input_1
I0409 16:55:55.807482   759 net.cpp:408] lstm1_unit_1 <- cont_1_lstm1_cont_slice_0_split_1
I0409 16:55:55.807490   759 net.cpp:382] lstm1_unit_1 -> c_1
I0409 16:55:55.807502   759 net.cpp:382] lstm1_unit_1 -> h_1
I0409 16:55:55.807552   759 net.cpp:124] Setting up lstm1_unit_1
I0409 16:55:55.807560   759 net.cpp:131] Top shape: 1 523 128 (66944)
I0409 16:55:55.807565   759 net.cpp:131] Top shape: 1 523 128 (66944)
I0409 16:55:55.807571   759 net.cpp:139] Memory required for data: 45362928
I0409 16:55:55.807590   759 layer_factory.hpp:77] Creating layer h_1_lstm1_unit_1_1_split
I0409 16:55:55.807597   759 net.cpp:86] Creating Layer h_1_lstm1_unit_1_1_split
I0409 16:55:55.807601   759 net.cpp:408] h_1_lstm1_unit_1_1_split <- h_1
I0409 16:55:55.807607   759 net.cpp:382] h_1_lstm1_unit_1_1_split -> h_1_lstm1_unit_1_1_split_0
I0409 16:55:55.807615   759 net.cpp:382] h_1_lstm1_unit_1_1_split -> h_1_lstm1_unit_1_1_split_1
I0409 16:55:55.807652   759 net.cpp:124] Setting up h_1_lstm1_unit_1_1_split
I0409 16:55:55.807660   759 net.cpp:131] Top shape: 1 523 128 (66944)
I0409 16:55:55.807665   759 net.cpp:131] Top shape: 1 523 128 (66944)
I0409 16:55:55.807668   759 net.cpp:139] Memory required for data: 45898480
I0409 16:55:55.807672   759 layer_factory.hpp:77] Creating layer lstm1_h_conted_1
I0409 16:55:55.807679   759 net.cpp:86] Creating Layer lstm1_h_conted_1
I0409 16:55:55.807687   759 net.cpp:408] lstm1_h_conted_1 <- h_1_lstm1_unit_1_1_split_0
I0409 16:55:55.807693   759 net.cpp:408] lstm1_h_conted_1 <- cont_2_lstm1_cont_slice_1_split_0
I0409 16:55:55.807703   759 net.cpp:382] lstm1_h_conted_1 -> h_conted_1
I0409 16:55:55.807770   759 net.cpp:124] Setting up lstm1_h_conted_1
I0409 16:55:55.807780   759 net.cpp:131] Top shape: 1 523 128 (66944)
I0409 16:55:55.807785   759 net.cpp:139] Memory required for data: 46166256
I0409 16:55:55.807790   759 layer_factory.hpp:77] Creating layer lstm1_transform_2
I0409 16:55:55.807798   759 net.cpp:86] Creating Layer lstm1_transform_2
I0409 16:55:55.807804   759 net.cpp:408] lstm1_transform_2 <- h_conted_1
I0409 16:55:55.807816   759 net.cpp:382] lstm1_transform_2 -> W_hc_h_1
I0409 16:55:55.808248   759 net.cpp:124] Setting up lstm1_transform_2
I0409 16:55:55.808257   759 net.cpp:131] Top shape: 1 523 512 (267776)
I0409 16:55:55.808262   759 net.cpp:139] Memory required for data: 47237360
I0409 16:55:55.808269   759 net.cpp:467] Sharing parameters 'W_hc' owned by layer 'lstm1_transform_1', param index 0
I0409 16:55:55.808275   759 layer_factory.hpp:77] Creating layer lstm1_gate_input_2
I0409 16:55:55.808281   759 net.cpp:86] Creating Layer lstm1_gate_input_2
I0409 16:55:55.808285   759 net.cpp:408] lstm1_gate_input_2 <- W_hc_h_1
I0409 16:55:55.808290   759 net.cpp:408] lstm1_gate_input_2 <- W_xc_x_2
I0409 16:55:55.808295   759 net.cpp:382] lstm1_gate_input_2 -> gate_input_2
I0409 16:55:55.808321   759 net.cpp:124] Setting up lstm1_gate_input_2
I0409 16:55:55.808329   759 net.cpp:131] Top shape: 1 523 512 (267776)
I0409 16:55:55.808332   759 net.cpp:139] Memory required for data: 48308464
I0409 16:55:55.808336   759 layer_factory.hpp:77] Creating layer lstm1_unit_2
I0409 16:55:55.808341   759 net.cpp:86] Creating Layer lstm1_unit_2
I0409 16:55:55.808346   759 net.cpp:408] lstm1_unit_2 <- c_1
I0409 16:55:55.808351   759 net.cpp:408] lstm1_unit_2 <- gate_input_2
I0409 16:55:55.808354   759 net.cpp:408] lstm1_unit_2 <- cont_2_lstm1_cont_slice_1_split_1
I0409 16:55:55.808360   759 net.cpp:382] lstm1_unit_2 -> c_2
I0409 16:55:55.808367   759 net.cpp:382] lstm1_unit_2 -> h_2
I0409 16:55:55.808408   759 net.cpp:124] Setting up lstm1_unit_2
I0409 16:55:55.808416   759 net.cpp:131] Top shape: 1 523 128 (66944)
I0409 16:55:55.808423   759 net.cpp:131] Top shape: 1 523 128 (66944)
I0409 16:55:55.808426   759 net.cpp:139] Memory required for data: 48844016
I0409 16:55:55.808431   759 layer_factory.hpp:77] Creating layer h_2_lstm1_unit_2_1_split
I0409 16:55:55.808439   759 net.cpp:86] Creating Layer h_2_lstm1_unit_2_1_split
I0409 16:55:55.808445   759 net.cpp:408] h_2_lstm1_unit_2_1_split <- h_2
I0409 16:55:55.808454   759 net.cpp:382] h_2_lstm1_unit_2_1_split -> h_2_lstm1_unit_2_1_split_0
I0409 16:55:55.808465   759 net.cpp:382] h_2_lstm1_unit_2_1_split -> h_2_lstm1_unit_2_1_split_1
I0409 16:55:55.808513   759 net.cpp:124] Setting up h_2_lstm1_unit_2_1_split
I0409 16:55:55.808523   759 net.cpp:131] Top shape: 1 523 128 (66944)
I0409 16:55:55.808531   759 net.cpp:131] Top shape: 1 523 128 (66944)
I0409 16:55:55.808534   759 net.cpp:139] Memory required for data: 49379568
I0409 16:55:55.808550   759 layer_factory.hpp:77] Creating layer lstm1_h_conted_2
I0409 16:55:55.808557   759 net.cpp:86] Creating Layer lstm1_h_conted_2
I0409 16:55:55.808560   759 net.cpp:408] lstm1_h_conted_2 <- h_2_lstm1_unit_2_1_split_0
I0409 16:55:55.808565   759 net.cpp:408] lstm1_h_conted_2 <- cont_3_lstm1_cont_slice_2_split_0
I0409 16:55:55.808575   759 net.cpp:382] lstm1_h_conted_2 -> h_conted_2
I0409 16:55:55.808631   759 net.cpp:124] Setting up lstm1_h_conted_2
I0409 16:55:55.808640   759 net.cpp:131] Top shape: 1 523 128 (66944)
I0409 16:55:55.808642   759 net.cpp:139] Memory required for data: 49647344
I0409 16:55:55.808646   759 layer_factory.hpp:77] Creating layer lstm1_transform_3
I0409 16:55:55.808652   759 net.cpp:86] Creating Layer lstm1_transform_3
I0409 16:55:55.808656   759 net.cpp:408] lstm1_transform_3 <- h_conted_2
I0409 16:55:55.808665   759 net.cpp:382] lstm1_transform_3 -> W_hc_h_2
I0409 16:55:55.809072   759 net.cpp:124] Setting up lstm1_transform_3
I0409 16:55:55.809079   759 net.cpp:131] Top shape: 1 523 512 (267776)
I0409 16:55:55.809083   759 net.cpp:139] Memory required for data: 50718448
I0409 16:55:55.809089   759 net.cpp:467] Sharing parameters 'W_hc' owned by layer 'lstm1_transform_1', param index 0
I0409 16:55:55.809093   759 layer_factory.hpp:77] Creating layer lstm1_gate_input_3
I0409 16:55:55.809098   759 net.cpp:86] Creating Layer lstm1_gate_input_3
I0409 16:55:55.809103   759 net.cpp:408] lstm1_gate_input_3 <- W_hc_h_2
I0409 16:55:55.809108   759 net.cpp:408] lstm1_gate_input_3 <- W_xc_x_3
I0409 16:55:55.809113   759 net.cpp:382] lstm1_gate_input_3 -> gate_input_3
I0409 16:55:55.809135   759 net.cpp:124] Setting up lstm1_gate_input_3
I0409 16:55:55.809144   759 net.cpp:131] Top shape: 1 523 512 (267776)
I0409 16:55:55.809147   759 net.cpp:139] Memory required for data: 51789552
I0409 16:55:55.809150   759 layer_factory.hpp:77] Creating layer lstm1_unit_3
I0409 16:55:55.809155   759 net.cpp:86] Creating Layer lstm1_unit_3
I0409 16:55:55.809159   759 net.cpp:408] lstm1_unit_3 <- c_2
I0409 16:55:55.809165   759 net.cpp:408] lstm1_unit_3 <- gate_input_3
I0409 16:55:55.809168   759 net.cpp:408] lstm1_unit_3 <- cont_3_lstm1_cont_slice_2_split_1
I0409 16:55:55.809173   759 net.cpp:382] lstm1_unit_3 -> c_3
I0409 16:55:55.809180   759 net.cpp:382] lstm1_unit_3 -> h_3
I0409 16:55:55.809221   759 net.cpp:124] Setting up lstm1_unit_3
I0409 16:55:55.809227   759 net.cpp:131] Top shape: 1 523 128 (66944)
I0409 16:55:55.809233   759 net.cpp:131] Top shape: 1 523 128 (66944)
I0409 16:55:55.809237   759 net.cpp:139] Memory required for data: 52325104
I0409 16:55:55.809240   759 layer_factory.hpp:77] Creating layer h_3_lstm1_unit_3_1_split
I0409 16:55:55.809247   759 net.cpp:86] Creating Layer h_3_lstm1_unit_3_1_split
I0409 16:55:55.809250   759 net.cpp:408] h_3_lstm1_unit_3_1_split <- h_3
I0409 16:55:55.809257   759 net.cpp:382] h_3_lstm1_unit_3_1_split -> h_3_lstm1_unit_3_1_split_0
I0409 16:55:55.809264   759 net.cpp:382] h_3_lstm1_unit_3_1_split -> h_3_lstm1_unit_3_1_split_1
I0409 16:55:55.809293   759 net.cpp:124] Setting up h_3_lstm1_unit_3_1_split
I0409 16:55:55.809299   759 net.cpp:131] Top shape: 1 523 128 (66944)
I0409 16:55:55.809304   759 net.cpp:131] Top shape: 1 523 128 (66944)
I0409 16:55:55.809307   759 net.cpp:139] Memory required for data: 52860656
I0409 16:55:55.809310   759 layer_factory.hpp:77] Creating layer lstm1_h_conted_3
I0409 16:55:55.809320   759 net.cpp:86] Creating Layer lstm1_h_conted_3
I0409 16:55:55.809326   759 net.cpp:408] lstm1_h_conted_3 <- h_3_lstm1_unit_3_1_split_0
I0409 16:55:55.809334   759 net.cpp:408] lstm1_h_conted_3 <- cont_4_lstm1_cont_slice_3_split_0
I0409 16:55:55.809341   759 net.cpp:382] lstm1_h_conted_3 -> h_conted_3
I0409 16:55:55.809401   759 net.cpp:124] Setting up lstm1_h_conted_3
I0409 16:55:55.809409   759 net.cpp:131] Top shape: 1 523 128 (66944)
I0409 16:55:55.809412   759 net.cpp:139] Memory required for data: 53128432
I0409 16:55:55.809417   759 layer_factory.hpp:77] Creating layer lstm1_transform_4
I0409 16:55:55.809427   759 net.cpp:86] Creating Layer lstm1_transform_4
I0409 16:55:55.809445   759 net.cpp:408] lstm1_transform_4 <- h_conted_3
I0409 16:55:55.809453   759 net.cpp:382] lstm1_transform_4 -> W_hc_h_3
I0409 16:55:55.809864   759 net.cpp:124] Setting up lstm1_transform_4
I0409 16:55:55.809873   759 net.cpp:131] Top shape: 1 523 512 (267776)
I0409 16:55:55.809877   759 net.cpp:139] Memory required for data: 54199536
I0409 16:55:55.809881   759 net.cpp:467] Sharing parameters 'W_hc' owned by layer 'lstm1_transform_1', param index 0
I0409 16:55:55.809885   759 layer_factory.hpp:77] Creating layer lstm1_gate_input_4
I0409 16:55:55.809892   759 net.cpp:86] Creating Layer lstm1_gate_input_4
I0409 16:55:55.809898   759 net.cpp:408] lstm1_gate_input_4 <- W_hc_h_3
I0409 16:55:55.809906   759 net.cpp:408] lstm1_gate_input_4 <- W_xc_x_4
I0409 16:55:55.809916   759 net.cpp:382] lstm1_gate_input_4 -> gate_input_4
I0409 16:55:55.809943   759 net.cpp:124] Setting up lstm1_gate_input_4
I0409 16:55:55.809952   759 net.cpp:131] Top shape: 1 523 512 (267776)
I0409 16:55:55.809955   759 net.cpp:139] Memory required for data: 55270640
I0409 16:55:55.809959   759 layer_factory.hpp:77] Creating layer lstm1_unit_4
I0409 16:55:55.809967   759 net.cpp:86] Creating Layer lstm1_unit_4
I0409 16:55:55.809973   759 net.cpp:408] lstm1_unit_4 <- c_3
I0409 16:55:55.809979   759 net.cpp:408] lstm1_unit_4 <- gate_input_4
I0409 16:55:55.809984   759 net.cpp:408] lstm1_unit_4 <- cont_4_lstm1_cont_slice_3_split_1
I0409 16:55:55.809993   759 net.cpp:382] lstm1_unit_4 -> c_4
I0409 16:55:55.810005   759 net.cpp:382] lstm1_unit_4 -> h_4
I0409 16:55:55.810055   759 net.cpp:124] Setting up lstm1_unit_4
I0409 16:55:55.810062   759 net.cpp:131] Top shape: 1 523 128 (66944)
I0409 16:55:55.810066   759 net.cpp:131] Top shape: 1 523 128 (66944)
I0409 16:55:55.810072   759 net.cpp:139] Memory required for data: 55806192
I0409 16:55:55.810077   759 layer_factory.hpp:77] Creating layer h_4_lstm1_unit_4_1_split
I0409 16:55:55.810082   759 net.cpp:86] Creating Layer h_4_lstm1_unit_4_1_split
I0409 16:55:55.810086   759 net.cpp:408] h_4_lstm1_unit_4_1_split <- h_4
I0409 16:55:55.810092   759 net.cpp:382] h_4_lstm1_unit_4_1_split -> h_4_lstm1_unit_4_1_split_0
I0409 16:55:55.810098   759 net.cpp:382] h_4_lstm1_unit_4_1_split -> h_4_lstm1_unit_4_1_split_1
I0409 16:55:55.810132   759 net.cpp:124] Setting up h_4_lstm1_unit_4_1_split
I0409 16:55:55.810138   759 net.cpp:131] Top shape: 1 523 128 (66944)
I0409 16:55:55.810143   759 net.cpp:131] Top shape: 1 523 128 (66944)
I0409 16:55:55.810147   759 net.cpp:139] Memory required for data: 56341744
I0409 16:55:55.810149   759 layer_factory.hpp:77] Creating layer lstm1_h_conted_4
I0409 16:55:55.810159   759 net.cpp:86] Creating Layer lstm1_h_conted_4
I0409 16:55:55.810163   759 net.cpp:408] lstm1_h_conted_4 <- h_4_lstm1_unit_4_1_split_0
I0409 16:55:55.810168   759 net.cpp:408] lstm1_h_conted_4 <- cont_5_lstm1_cont_slice_4_split_0
I0409 16:55:55.810173   759 net.cpp:382] lstm1_h_conted_4 -> h_conted_4
I0409 16:55:55.810230   759 net.cpp:124] Setting up lstm1_h_conted_4
I0409 16:55:55.810237   759 net.cpp:131] Top shape: 1 523 128 (66944)
I0409 16:55:55.810240   759 net.cpp:139] Memory required for data: 56609520
I0409 16:55:55.810243   759 layer_factory.hpp:77] Creating layer lstm1_transform_5
I0409 16:55:55.810253   759 net.cpp:86] Creating Layer lstm1_transform_5
I0409 16:55:55.810259   759 net.cpp:408] lstm1_transform_5 <- h_conted_4
I0409 16:55:55.810268   759 net.cpp:382] lstm1_transform_5 -> W_hc_h_4
I0409 16:55:55.811367   759 net.cpp:124] Setting up lstm1_transform_5
I0409 16:55:55.811380   759 net.cpp:131] Top shape: 1 523 512 (267776)
I0409 16:55:55.811385   759 net.cpp:139] Memory required for data: 57680624
I0409 16:55:55.811391   759 net.cpp:467] Sharing parameters 'W_hc' owned by layer 'lstm1_transform_1', param index 0
I0409 16:55:55.811398   759 layer_factory.hpp:77] Creating layer lstm1_gate_input_5
I0409 16:55:55.811409   759 net.cpp:86] Creating Layer lstm1_gate_input_5
I0409 16:55:55.811417   759 net.cpp:408] lstm1_gate_input_5 <- W_hc_h_4
I0409 16:55:55.811437   759 net.cpp:408] lstm1_gate_input_5 <- W_xc_x_5
I0409 16:55:55.811445   759 net.cpp:382] lstm1_gate_input_5 -> gate_input_5
I0409 16:55:55.811475   759 net.cpp:124] Setting up lstm1_gate_input_5
I0409 16:55:55.811483   759 net.cpp:131] Top shape: 1 523 512 (267776)
I0409 16:55:55.811487   759 net.cpp:139] Memory required for data: 58751728
I0409 16:55:55.811492   759 layer_factory.hpp:77] Creating layer lstm1_unit_5
I0409 16:55:55.811506   759 net.cpp:86] Creating Layer lstm1_unit_5
I0409 16:55:55.811513   759 net.cpp:408] lstm1_unit_5 <- c_4
I0409 16:55:55.811518   759 net.cpp:408] lstm1_unit_5 <- gate_input_5
I0409 16:55:55.811525   759 net.cpp:408] lstm1_unit_5 <- cont_5_lstm1_cont_slice_4_split_1
I0409 16:55:55.811532   759 net.cpp:382] lstm1_unit_5 -> c_5
I0409 16:55:55.811542   759 net.cpp:382] lstm1_unit_5 -> h_5
I0409 16:55:55.811589   759 net.cpp:124] Setting up lstm1_unit_5
I0409 16:55:55.811599   759 net.cpp:131] Top shape: 1 523 128 (66944)
I0409 16:55:55.811604   759 net.cpp:131] Top shape: 1 523 128 (66944)
I0409 16:55:55.811609   759 net.cpp:139] Memory required for data: 59287280
I0409 16:55:55.811614   759 layer_factory.hpp:77] Creating layer h_5_lstm1_unit_5_1_split
I0409 16:55:55.811619   759 net.cpp:86] Creating Layer h_5_lstm1_unit_5_1_split
I0409 16:55:55.811622   759 net.cpp:408] h_5_lstm1_unit_5_1_split <- h_5
I0409 16:55:55.811630   759 net.cpp:382] h_5_lstm1_unit_5_1_split -> h_5_lstm1_unit_5_1_split_0
I0409 16:55:55.811638   759 net.cpp:382] h_5_lstm1_unit_5_1_split -> h_5_lstm1_unit_5_1_split_1
I0409 16:55:55.811676   759 net.cpp:124] Setting up h_5_lstm1_unit_5_1_split
I0409 16:55:55.811683   759 net.cpp:131] Top shape: 1 523 128 (66944)
I0409 16:55:55.811689   759 net.cpp:131] Top shape: 1 523 128 (66944)
I0409 16:55:55.811694   759 net.cpp:139] Memory required for data: 59822832
I0409 16:55:55.811698   759 layer_factory.hpp:77] Creating layer lstm1_h_conted_5
I0409 16:55:55.811704   759 net.cpp:86] Creating Layer lstm1_h_conted_5
I0409 16:55:55.811709   759 net.cpp:408] lstm1_h_conted_5 <- h_5_lstm1_unit_5_1_split_0
I0409 16:55:55.811713   759 net.cpp:408] lstm1_h_conted_5 <- cont_6_lstm1_cont_slice_5_split_0
I0409 16:55:55.811718   759 net.cpp:382] lstm1_h_conted_5 -> h_conted_5
I0409 16:55:55.811772   759 net.cpp:124] Setting up lstm1_h_conted_5
I0409 16:55:55.811780   759 net.cpp:131] Top shape: 1 523 128 (66944)
I0409 16:55:55.811784   759 net.cpp:139] Memory required for data: 60090608
I0409 16:55:55.811786   759 layer_factory.hpp:77] Creating layer lstm1_transform_6
I0409 16:55:55.811794   759 net.cpp:86] Creating Layer lstm1_transform_6
I0409 16:55:55.811800   759 net.cpp:408] lstm1_transform_6 <- h_conted_5
I0409 16:55:55.811808   759 net.cpp:382] lstm1_transform_6 -> W_hc_h_5
I0409 16:55:55.812222   759 net.cpp:124] Setting up lstm1_transform_6
I0409 16:55:55.812230   759 net.cpp:131] Top shape: 1 523 512 (267776)
I0409 16:55:55.812234   759 net.cpp:139] Memory required for data: 61161712
I0409 16:55:55.812240   759 net.cpp:467] Sharing parameters 'W_hc' owned by layer 'lstm1_transform_1', param index 0
I0409 16:55:55.812247   759 layer_factory.hpp:77] Creating layer lstm1_gate_input_6
I0409 16:55:55.812255   759 net.cpp:86] Creating Layer lstm1_gate_input_6
I0409 16:55:55.812260   759 net.cpp:408] lstm1_gate_input_6 <- W_hc_h_5
I0409 16:55:55.812264   759 net.cpp:408] lstm1_gate_input_6 <- W_xc_x_6
I0409 16:55:55.812269   759 net.cpp:382] lstm1_gate_input_6 -> gate_input_6
I0409 16:55:55.812292   759 net.cpp:124] Setting up lstm1_gate_input_6
I0409 16:55:55.812299   759 net.cpp:131] Top shape: 1 523 512 (267776)
I0409 16:55:55.812304   759 net.cpp:139] Memory required for data: 62232816
I0409 16:55:55.812306   759 layer_factory.hpp:77] Creating layer lstm1_unit_6
I0409 16:55:55.812314   759 net.cpp:86] Creating Layer lstm1_unit_6
I0409 16:55:55.812321   759 net.cpp:408] lstm1_unit_6 <- c_5
I0409 16:55:55.812327   759 net.cpp:408] lstm1_unit_6 <- gate_input_6
I0409 16:55:55.812333   759 net.cpp:408] lstm1_unit_6 <- cont_6_lstm1_cont_slice_5_split_1
I0409 16:55:55.812340   759 net.cpp:382] lstm1_unit_6 -> c_6
I0409 16:55:55.812361   759 net.cpp:382] lstm1_unit_6 -> h_6
I0409 16:55:55.812409   759 net.cpp:124] Setting up lstm1_unit_6
I0409 16:55:55.812418   759 net.cpp:131] Top shape: 1 523 128 (66944)
I0409 16:55:55.812423   759 net.cpp:131] Top shape: 1 523 128 (66944)
I0409 16:55:55.812428   759 net.cpp:139] Memory required for data: 62768368
I0409 16:55:55.812434   759 layer_factory.hpp:77] Creating layer h_6_lstm1_unit_6_1_split
I0409 16:55:55.812439   759 net.cpp:86] Creating Layer h_6_lstm1_unit_6_1_split
I0409 16:55:55.812443   759 net.cpp:408] h_6_lstm1_unit_6_1_split <- h_6
I0409 16:55:55.812450   759 net.cpp:382] h_6_lstm1_unit_6_1_split -> h_6_lstm1_unit_6_1_split_0
I0409 16:55:55.812456   759 net.cpp:382] h_6_lstm1_unit_6_1_split -> h_6_lstm1_unit_6_1_split_1
I0409 16:55:55.812489   759 net.cpp:124] Setting up h_6_lstm1_unit_6_1_split
I0409 16:55:55.812495   759 net.cpp:131] Top shape: 1 523 128 (66944)
I0409 16:55:55.812500   759 net.cpp:131] Top shape: 1 523 128 (66944)
I0409 16:55:55.812502   759 net.cpp:139] Memory required for data: 63303920
I0409 16:55:55.812505   759 layer_factory.hpp:77] Creating layer lstm1_h_conted_6
I0409 16:55:55.812513   759 net.cpp:86] Creating Layer lstm1_h_conted_6
I0409 16:55:55.812520   759 net.cpp:408] lstm1_h_conted_6 <- h_6_lstm1_unit_6_1_split_0
I0409 16:55:55.812526   759 net.cpp:408] lstm1_h_conted_6 <- cont_7_lstm1_cont_slice_6_split_0
I0409 16:55:55.812536   759 net.cpp:382] lstm1_h_conted_6 -> h_conted_6
I0409 16:55:55.812595   759 net.cpp:124] Setting up lstm1_h_conted_6
I0409 16:55:55.812604   759 net.cpp:131] Top shape: 1 523 128 (66944)
I0409 16:55:55.812608   759 net.cpp:139] Memory required for data: 63571696
I0409 16:55:55.812613   759 layer_factory.hpp:77] Creating layer lstm1_transform_7
I0409 16:55:55.812620   759 net.cpp:86] Creating Layer lstm1_transform_7
I0409 16:55:55.812626   759 net.cpp:408] lstm1_transform_7 <- h_conted_6
I0409 16:55:55.812634   759 net.cpp:382] lstm1_transform_7 -> W_hc_h_6
I0409 16:55:55.813048   759 net.cpp:124] Setting up lstm1_transform_7
I0409 16:55:55.813057   759 net.cpp:131] Top shape: 1 523 512 (267776)
I0409 16:55:55.813061   759 net.cpp:139] Memory required for data: 64642800
I0409 16:55:55.813069   759 net.cpp:467] Sharing parameters 'W_hc' owned by layer 'lstm1_transform_1', param index 0
I0409 16:55:55.813076   759 layer_factory.hpp:77] Creating layer lstm1_gate_input_7
I0409 16:55:55.813082   759 net.cpp:86] Creating Layer lstm1_gate_input_7
I0409 16:55:55.813087   759 net.cpp:408] lstm1_gate_input_7 <- W_hc_h_6
I0409 16:55:55.813093   759 net.cpp:408] lstm1_gate_input_7 <- W_xc_x_7
I0409 16:55:55.813102   759 net.cpp:382] lstm1_gate_input_7 -> gate_input_7
I0409 16:55:55.813128   759 net.cpp:124] Setting up lstm1_gate_input_7
I0409 16:55:55.813136   759 net.cpp:131] Top shape: 1 523 512 (267776)
I0409 16:55:55.813139   759 net.cpp:139] Memory required for data: 65713904
I0409 16:55:55.813143   759 layer_factory.hpp:77] Creating layer lstm1_unit_7
I0409 16:55:55.813154   759 net.cpp:86] Creating Layer lstm1_unit_7
I0409 16:55:55.813161   759 net.cpp:408] lstm1_unit_7 <- c_6
I0409 16:55:55.813167   759 net.cpp:408] lstm1_unit_7 <- gate_input_7
I0409 16:55:55.813174   759 net.cpp:408] lstm1_unit_7 <- cont_7_lstm1_cont_slice_6_split_1
I0409 16:55:55.813181   759 net.cpp:382] lstm1_unit_7 -> c_7
I0409 16:55:55.813191   759 net.cpp:382] lstm1_unit_7 -> h_7
I0409 16:55:55.813241   759 net.cpp:124] Setting up lstm1_unit_7
I0409 16:55:55.813248   759 net.cpp:131] Top shape: 1 523 128 (66944)
I0409 16:55:55.813253   759 net.cpp:131] Top shape: 1 523 128 (66944)
I0409 16:55:55.813259   759 net.cpp:139] Memory required for data: 66249456
I0409 16:55:55.813264   759 layer_factory.hpp:77] Creating layer h_7_lstm1_unit_7_1_split
I0409 16:55:55.813269   759 net.cpp:86] Creating Layer h_7_lstm1_unit_7_1_split
I0409 16:55:55.813272   759 net.cpp:408] h_7_lstm1_unit_7_1_split <- h_7
I0409 16:55:55.813280   759 net.cpp:382] h_7_lstm1_unit_7_1_split -> h_7_lstm1_unit_7_1_split_0
I0409 16:55:55.813287   759 net.cpp:382] h_7_lstm1_unit_7_1_split -> h_7_lstm1_unit_7_1_split_1
I0409 16:55:55.813334   759 net.cpp:124] Setting up h_7_lstm1_unit_7_1_split
I0409 16:55:55.813343   759 net.cpp:131] Top shape: 1 523 128 (66944)
I0409 16:55:55.813347   759 net.cpp:131] Top shape: 1 523 128 (66944)
I0409 16:55:55.813350   759 net.cpp:139] Memory required for data: 66785008
I0409 16:55:55.813354   759 layer_factory.hpp:77] Creating layer lstm1_h_conted_7
I0409 16:55:55.813364   759 net.cpp:86] Creating Layer lstm1_h_conted_7
I0409 16:55:55.813374   759 net.cpp:408] lstm1_h_conted_7 <- h_7_lstm1_unit_7_1_split_0
I0409 16:55:55.813378   759 net.cpp:408] lstm1_h_conted_7 <- cont_8_lstm1_cont_slice_7_split_0
I0409 16:55:55.813386   759 net.cpp:382] lstm1_h_conted_7 -> h_conted_7
I0409 16:55:55.813446   759 net.cpp:124] Setting up lstm1_h_conted_7
I0409 16:55:55.813454   759 net.cpp:131] Top shape: 1 523 128 (66944)
I0409 16:55:55.813457   759 net.cpp:139] Memory required for data: 67052784
I0409 16:55:55.813462   759 layer_factory.hpp:77] Creating layer lstm1_transform_8
I0409 16:55:55.813470   759 net.cpp:86] Creating Layer lstm1_transform_8
I0409 16:55:55.813477   759 net.cpp:408] lstm1_transform_8 <- h_conted_7
I0409 16:55:55.813488   759 net.cpp:382] lstm1_transform_8 -> W_hc_h_7
I0409 16:55:55.813896   759 net.cpp:124] Setting up lstm1_transform_8
I0409 16:55:55.813906   759 net.cpp:131] Top shape: 1 523 512 (267776)
I0409 16:55:55.813910   759 net.cpp:139] Memory required for data: 68123888
I0409 16:55:55.813916   759 net.cpp:467] Sharing parameters 'W_hc' owned by layer 'lstm1_transform_1', param index 0
I0409 16:55:55.813922   759 layer_factory.hpp:77] Creating layer lstm1_gate_input_8
I0409 16:55:55.813931   759 net.cpp:86] Creating Layer lstm1_gate_input_8
I0409 16:55:55.813935   759 net.cpp:408] lstm1_gate_input_8 <- W_hc_h_7
I0409 16:55:55.813941   759 net.cpp:408] lstm1_gate_input_8 <- W_xc_x_8
I0409 16:55:55.813946   759 net.cpp:382] lstm1_gate_input_8 -> gate_input_8
I0409 16:55:55.813967   759 net.cpp:124] Setting up lstm1_gate_input_8
I0409 16:55:55.813975   759 net.cpp:131] Top shape: 1 523 512 (267776)
I0409 16:55:55.813978   759 net.cpp:139] Memory required for data: 69194992
I0409 16:55:55.813982   759 layer_factory.hpp:77] Creating layer lstm1_unit_8
I0409 16:55:55.813988   759 net.cpp:86] Creating Layer lstm1_unit_8
I0409 16:55:55.813992   759 net.cpp:408] lstm1_unit_8 <- c_7
I0409 16:55:55.813997   759 net.cpp:408] lstm1_unit_8 <- gate_input_8
I0409 16:55:55.814002   759 net.cpp:408] lstm1_unit_8 <- cont_8_lstm1_cont_slice_7_split_1
I0409 16:55:55.814009   759 net.cpp:382] lstm1_unit_8 -> c_8
I0409 16:55:55.814019   759 net.cpp:382] lstm1_unit_8 -> h_8
I0409 16:55:55.814069   759 net.cpp:124] Setting up lstm1_unit_8
I0409 16:55:55.814076   759 net.cpp:131] Top shape: 1 523 128 (66944)
I0409 16:55:55.814081   759 net.cpp:131] Top shape: 1 523 128 (66944)
I0409 16:55:55.814086   759 net.cpp:139] Memory required for data: 69730544
I0409 16:55:55.814091   759 layer_factory.hpp:77] Creating layer h_8_lstm1_unit_8_1_split
I0409 16:55:55.814097   759 net.cpp:86] Creating Layer h_8_lstm1_unit_8_1_split
I0409 16:55:55.814100   759 net.cpp:408] h_8_lstm1_unit_8_1_split <- h_8
I0409 16:55:55.814108   759 net.cpp:382] h_8_lstm1_unit_8_1_split -> h_8_lstm1_unit_8_1_split_0
I0409 16:55:55.814115   759 net.cpp:382] h_8_lstm1_unit_8_1_split -> h_8_lstm1_unit_8_1_split_1
I0409 16:55:55.814146   759 net.cpp:124] Setting up h_8_lstm1_unit_8_1_split
I0409 16:55:55.814152   759 net.cpp:131] Top shape: 1 523 128 (66944)
I0409 16:55:55.814157   759 net.cpp:131] Top shape: 1 523 128 (66944)
I0409 16:55:55.814160   759 net.cpp:139] Memory required for data: 70266096
I0409 16:55:55.814163   759 layer_factory.hpp:77] Creating layer lstm1_h_conted_8
I0409 16:55:55.814170   759 net.cpp:86] Creating Layer lstm1_h_conted_8
I0409 16:55:55.814177   759 net.cpp:408] lstm1_h_conted_8 <- h_8_lstm1_unit_8_1_split_0
I0409 16:55:55.814183   759 net.cpp:408] lstm1_h_conted_8 <- cont_9_lstm1_cont_slice_8_split_0
I0409 16:55:55.814195   759 net.cpp:382] lstm1_h_conted_8 -> h_conted_8
I0409 16:55:55.814272   759 net.cpp:124] Setting up lstm1_h_conted_8
I0409 16:55:55.814282   759 net.cpp:131] Top shape: 1 523 128 (66944)
I0409 16:55:55.814285   759 net.cpp:139] Memory required for data: 70533872
I0409 16:55:55.814296   759 layer_factory.hpp:77] Creating layer lstm1_transform_9
I0409 16:55:55.814306   759 net.cpp:86] Creating Layer lstm1_transform_9
I0409 16:55:55.814309   759 net.cpp:408] lstm1_transform_9 <- h_conted_8
I0409 16:55:55.814316   759 net.cpp:382] lstm1_transform_9 -> W_hc_h_8
I0409 16:55:55.815403   759 net.cpp:124] Setting up lstm1_transform_9
I0409 16:55:55.815418   759 net.cpp:131] Top shape: 1 523 512 (267776)
I0409 16:55:55.815421   759 net.cpp:139] Memory required for data: 71604976
I0409 16:55:55.815426   759 net.cpp:467] Sharing parameters 'W_hc' owned by layer 'lstm1_transform_1', param index 0
I0409 16:55:55.815430   759 layer_factory.hpp:77] Creating layer lstm1_gate_input_9
I0409 16:55:55.815439   759 net.cpp:86] Creating Layer lstm1_gate_input_9
I0409 16:55:55.815446   759 net.cpp:408] lstm1_gate_input_9 <- W_hc_h_8
I0409 16:55:55.815454   759 net.cpp:408] lstm1_gate_input_9 <- W_xc_x_9
I0409 16:55:55.815462   759 net.cpp:382] lstm1_gate_input_9 -> gate_input_9
I0409 16:55:55.815496   759 net.cpp:124] Setting up lstm1_gate_input_9
I0409 16:55:55.815505   759 net.cpp:131] Top shape: 1 523 512 (267776)
I0409 16:55:55.815510   759 net.cpp:139] Memory required for data: 72676080
I0409 16:55:55.815513   759 layer_factory.hpp:77] Creating layer lstm1_unit_9
I0409 16:55:55.815521   759 net.cpp:86] Creating Layer lstm1_unit_9
I0409 16:55:55.815526   759 net.cpp:408] lstm1_unit_9 <- c_8
I0409 16:55:55.815531   759 net.cpp:408] lstm1_unit_9 <- gate_input_9
I0409 16:55:55.815536   759 net.cpp:408] lstm1_unit_9 <- cont_9_lstm1_cont_slice_8_split_1
I0409 16:55:55.815541   759 net.cpp:382] lstm1_unit_9 -> c_9
I0409 16:55:55.815548   759 net.cpp:382] lstm1_unit_9 -> h_9
I0409 16:55:55.815591   759 net.cpp:124] Setting up lstm1_unit_9
I0409 16:55:55.815598   759 net.cpp:131] Top shape: 1 523 128 (66944)
I0409 16:55:55.815605   759 net.cpp:131] Top shape: 1 523 128 (66944)
I0409 16:55:55.815609   759 net.cpp:139] Memory required for data: 73211632
I0409 16:55:55.815613   759 layer_factory.hpp:77] Creating layer h_9_lstm1_unit_9_1_split
I0409 16:55:55.815621   759 net.cpp:86] Creating Layer h_9_lstm1_unit_9_1_split
I0409 16:55:55.815626   759 net.cpp:408] h_9_lstm1_unit_9_1_split <- h_9
I0409 16:55:55.815635   759 net.cpp:382] h_9_lstm1_unit_9_1_split -> h_9_lstm1_unit_9_1_split_0
I0409 16:55:55.815651   759 net.cpp:382] h_9_lstm1_unit_9_1_split -> h_9_lstm1_unit_9_1_split_1
I0409 16:55:55.815690   759 net.cpp:124] Setting up h_9_lstm1_unit_9_1_split
I0409 16:55:55.815699   759 net.cpp:131] Top shape: 1 523 128 (66944)
I0409 16:55:55.815706   759 net.cpp:131] Top shape: 1 523 128 (66944)
I0409 16:55:55.815711   759 net.cpp:139] Memory required for data: 73747184
I0409 16:55:55.815714   759 layer_factory.hpp:77] Creating layer lstm1_h_conted_9
I0409 16:55:55.815721   759 net.cpp:86] Creating Layer lstm1_h_conted_9
I0409 16:55:55.815724   759 net.cpp:408] lstm1_h_conted_9 <- h_9_lstm1_unit_9_1_split_0
I0409 16:55:55.815729   759 net.cpp:408] lstm1_h_conted_9 <- cont_10_lstm1_cont_slice_9_split_0
I0409 16:55:55.815740   759 net.cpp:382] lstm1_h_conted_9 -> h_conted_9
I0409 16:55:55.815804   759 net.cpp:124] Setting up lstm1_h_conted_9
I0409 16:55:55.815814   759 net.cpp:131] Top shape: 1 523 128 (66944)
I0409 16:55:55.815816   759 net.cpp:139] Memory required for data: 74014960
I0409 16:55:55.815821   759 layer_factory.hpp:77] Creating layer lstm1_transform_10
I0409 16:55:55.815836   759 net.cpp:86] Creating Layer lstm1_transform_10
I0409 16:55:55.815843   759 net.cpp:408] lstm1_transform_10 <- h_conted_9
I0409 16:55:55.815850   759 net.cpp:382] lstm1_transform_10 -> W_hc_h_9
I0409 16:55:55.816262   759 net.cpp:124] Setting up lstm1_transform_10
I0409 16:55:55.816272   759 net.cpp:131] Top shape: 1 523 512 (267776)
I0409 16:55:55.816275   759 net.cpp:139] Memory required for data: 75086064
I0409 16:55:55.816296   759 net.cpp:467] Sharing parameters 'W_hc' owned by layer 'lstm1_transform_1', param index 0
I0409 16:55:55.816303   759 layer_factory.hpp:77] Creating layer lstm1_gate_input_10
I0409 16:55:55.816313   759 net.cpp:86] Creating Layer lstm1_gate_input_10
I0409 16:55:55.816318   759 net.cpp:408] lstm1_gate_input_10 <- W_hc_h_9
I0409 16:55:55.816323   759 net.cpp:408] lstm1_gate_input_10 <- W_xc_x_10
I0409 16:55:55.816329   759 net.cpp:382] lstm1_gate_input_10 -> gate_input_10
I0409 16:55:55.816352   759 net.cpp:124] Setting up lstm1_gate_input_10
I0409 16:55:55.816359   759 net.cpp:131] Top shape: 1 523 512 (267776)
I0409 16:55:55.816363   759 net.cpp:139] Memory required for data: 76157168
I0409 16:55:55.816366   759 layer_factory.hpp:77] Creating layer lstm1_unit_10
I0409 16:55:55.816375   759 net.cpp:86] Creating Layer lstm1_unit_10
I0409 16:55:55.816381   759 net.cpp:408] lstm1_unit_10 <- c_9
I0409 16:55:55.816388   759 net.cpp:408] lstm1_unit_10 <- gate_input_10
I0409 16:55:55.816395   759 net.cpp:408] lstm1_unit_10 <- cont_10_lstm1_cont_slice_9_split_1
I0409 16:55:55.816403   759 net.cpp:382] lstm1_unit_10 -> c_10
I0409 16:55:55.816413   759 net.cpp:382] lstm1_unit_10 -> h_10
I0409 16:55:55.816460   759 net.cpp:124] Setting up lstm1_unit_10
I0409 16:55:55.816468   759 net.cpp:131] Top shape: 1 523 128 (66944)
I0409 16:55:55.816473   759 net.cpp:131] Top shape: 1 523 128 (66944)
I0409 16:55:55.816478   759 net.cpp:139] Memory required for data: 76692720
I0409 16:55:55.816483   759 layer_factory.hpp:77] Creating layer h_10_lstm1_unit_10_1_split
I0409 16:55:55.816489   759 net.cpp:86] Creating Layer h_10_lstm1_unit_10_1_split
I0409 16:55:55.816493   759 net.cpp:408] h_10_lstm1_unit_10_1_split <- h_10
I0409 16:55:55.816501   759 net.cpp:382] h_10_lstm1_unit_10_1_split -> h_10_lstm1_unit_10_1_split_0
I0409 16:55:55.816509   759 net.cpp:382] h_10_lstm1_unit_10_1_split -> h_10_lstm1_unit_10_1_split_1
I0409 16:55:55.816540   759 net.cpp:124] Setting up h_10_lstm1_unit_10_1_split
I0409 16:55:55.816547   759 net.cpp:131] Top shape: 1 523 128 (66944)
I0409 16:55:55.816552   759 net.cpp:131] Top shape: 1 523 128 (66944)
I0409 16:55:55.816555   759 net.cpp:139] Memory required for data: 77228272
I0409 16:55:55.816558   759 layer_factory.hpp:77] Creating layer lstm1_h_conted_10
I0409 16:55:55.816565   759 net.cpp:86] Creating Layer lstm1_h_conted_10
I0409 16:55:55.816572   759 net.cpp:408] lstm1_h_conted_10 <- h_10_lstm1_unit_10_1_split_0
I0409 16:55:55.816579   759 net.cpp:408] lstm1_h_conted_10 <- cont_11_lstm1_cont_slice_10_split_0
I0409 16:55:55.816587   759 net.cpp:382] lstm1_h_conted_10 -> h_conted_10
I0409 16:55:55.816648   759 net.cpp:124] Setting up lstm1_h_conted_10
I0409 16:55:55.816658   759 net.cpp:131] Top shape: 1 523 128 (66944)
I0409 16:55:55.816660   759 net.cpp:139] Memory required for data: 77496048
I0409 16:55:55.816664   759 layer_factory.hpp:77] Creating layer lstm1_transform_11
I0409 16:55:55.816673   759 net.cpp:86] Creating Layer lstm1_transform_11
I0409 16:55:55.816679   759 net.cpp:408] lstm1_transform_11 <- h_conted_10
I0409 16:55:55.816691   759 net.cpp:382] lstm1_transform_11 -> W_hc_h_10
I0409 16:55:55.817111   759 net.cpp:124] Setting up lstm1_transform_11
I0409 16:55:55.817121   759 net.cpp:131] Top shape: 1 523 512 (267776)
I0409 16:55:55.817124   759 net.cpp:139] Memory required for data: 78567152
I0409 16:55:55.817131   759 net.cpp:467] Sharing parameters 'W_hc' owned by layer 'lstm1_transform_1', param index 0
I0409 16:55:55.817137   759 layer_factory.hpp:77] Creating layer lstm1_gate_input_11
I0409 16:55:55.817142   759 net.cpp:86] Creating Layer lstm1_gate_input_11
I0409 16:55:55.817147   759 net.cpp:408] lstm1_gate_input_11 <- W_hc_h_10
I0409 16:55:55.817150   759 net.cpp:408] lstm1_gate_input_11 <- W_xc_x_11
I0409 16:55:55.817155   759 net.cpp:382] lstm1_gate_input_11 -> gate_input_11
I0409 16:55:55.817178   759 net.cpp:124] Setting up lstm1_gate_input_11
I0409 16:55:55.817186   759 net.cpp:131] Top shape: 1 523 512 (267776)
I0409 16:55:55.817200   759 net.cpp:139] Memory required for data: 79638256
I0409 16:55:55.817204   759 layer_factory.hpp:77] Creating layer lstm1_unit_11
I0409 16:55:55.817209   759 net.cpp:86] Creating Layer lstm1_unit_11
I0409 16:55:55.817214   759 net.cpp:408] lstm1_unit_11 <- c_10
I0409 16:55:55.817219   759 net.cpp:408] lstm1_unit_11 <- gate_input_11
I0409 16:55:55.817222   759 net.cpp:408] lstm1_unit_11 <- cont_11_lstm1_cont_slice_10_split_1
I0409 16:55:55.817227   759 net.cpp:382] lstm1_unit_11 -> c_11
I0409 16:55:55.817241   759 net.cpp:382] lstm1_unit_11 -> h_11
I0409 16:55:55.817286   759 net.cpp:124] Setting up lstm1_unit_11
I0409 16:55:55.817293   759 net.cpp:131] Top shape: 1 523 128 (66944)
I0409 16:55:55.817297   759 net.cpp:131] Top shape: 1 523 128 (66944)
I0409 16:55:55.817301   759 net.cpp:139] Memory required for data: 80173808
I0409 16:55:55.817304   759 layer_factory.hpp:77] Creating layer h_11_lstm1_unit_11_1_split
I0409 16:55:55.817315   759 net.cpp:86] Creating Layer h_11_lstm1_unit_11_1_split
I0409 16:55:55.817322   759 net.cpp:408] h_11_lstm1_unit_11_1_split <- h_11
I0409 16:55:55.817329   759 net.cpp:382] h_11_lstm1_unit_11_1_split -> h_11_lstm1_unit_11_1_split_0
I0409 16:55:55.817340   759 net.cpp:382] h_11_lstm1_unit_11_1_split -> h_11_lstm1_unit_11_1_split_1
I0409 16:55:55.817378   759 net.cpp:124] Setting up h_11_lstm1_unit_11_1_split
I0409 16:55:55.817385   759 net.cpp:131] Top shape: 1 523 128 (66944)
I0409 16:55:55.817391   759 net.cpp:131] Top shape: 1 523 128 (66944)
I0409 16:55:55.817396   759 net.cpp:139] Memory required for data: 80709360
I0409 16:55:55.817401   759 layer_factory.hpp:77] Creating layer lstm1_h_conted_11
I0409 16:55:55.817409   759 net.cpp:86] Creating Layer lstm1_h_conted_11
I0409 16:55:55.817414   759 net.cpp:408] lstm1_h_conted_11 <- h_11_lstm1_unit_11_1_split_0
I0409 16:55:55.817418   759 net.cpp:408] lstm1_h_conted_11 <- cont_12_lstm1_cont_slice_11_split_0
I0409 16:55:55.817423   759 net.cpp:382] lstm1_h_conted_11 -> h_conted_11
I0409 16:55:55.817478   759 net.cpp:124] Setting up lstm1_h_conted_11
I0409 16:55:55.817487   759 net.cpp:131] Top shape: 1 523 128 (66944)
I0409 16:55:55.817490   759 net.cpp:139] Memory required for data: 80977136
I0409 16:55:55.817493   759 layer_factory.hpp:77] Creating layer lstm1_transform_12
I0409 16:55:55.817502   759 net.cpp:86] Creating Layer lstm1_transform_12
I0409 16:55:55.817508   759 net.cpp:408] lstm1_transform_12 <- h_conted_11
I0409 16:55:55.817517   759 net.cpp:382] lstm1_transform_12 -> W_hc_h_11
I0409 16:55:55.817930   759 net.cpp:124] Setting up lstm1_transform_12
I0409 16:55:55.817939   759 net.cpp:131] Top shape: 1 523 512 (267776)
I0409 16:55:55.817943   759 net.cpp:139] Memory required for data: 82048240
I0409 16:55:55.817950   759 net.cpp:467] Sharing parameters 'W_hc' owned by layer 'lstm1_transform_1', param index 0
I0409 16:55:55.817955   759 layer_factory.hpp:77] Creating layer lstm1_gate_input_12
I0409 16:55:55.817962   759 net.cpp:86] Creating Layer lstm1_gate_input_12
I0409 16:55:55.817970   759 net.cpp:408] lstm1_gate_input_12 <- W_hc_h_11
I0409 16:55:55.817975   759 net.cpp:408] lstm1_gate_input_12 <- W_xc_x_12
I0409 16:55:55.817986   759 net.cpp:382] lstm1_gate_input_12 -> gate_input_12
I0409 16:55:55.818013   759 net.cpp:124] Setting up lstm1_gate_input_12
I0409 16:55:55.818022   759 net.cpp:131] Top shape: 1 523 512 (267776)
I0409 16:55:55.818024   759 net.cpp:139] Memory required for data: 83119344
I0409 16:55:55.818028   759 layer_factory.hpp:77] Creating layer lstm1_unit_12
I0409 16:55:55.818035   759 net.cpp:86] Creating Layer lstm1_unit_12
I0409 16:55:55.818042   759 net.cpp:408] lstm1_unit_12 <- c_11
I0409 16:55:55.818048   759 net.cpp:408] lstm1_unit_12 <- gate_input_12
I0409 16:55:55.818055   759 net.cpp:408] lstm1_unit_12 <- cont_12_lstm1_cont_slice_11_split_1
I0409 16:55:55.818063   759 net.cpp:382] lstm1_unit_12 -> c_12
I0409 16:55:55.818073   759 net.cpp:382] lstm1_unit_12 -> h_12
I0409 16:55:55.818121   759 net.cpp:124] Setting up lstm1_unit_12
I0409 16:55:55.818130   759 net.cpp:131] Top shape: 1 523 128 (66944)
I0409 16:55:55.818142   759 net.cpp:131] Top shape: 1 523 128 (66944)
I0409 16:55:55.818146   759 net.cpp:139] Memory required for data: 83654896
I0409 16:55:55.818150   759 layer_factory.hpp:77] Creating layer h_12_lstm1_unit_12_1_split
I0409 16:55:55.818154   759 net.cpp:86] Creating Layer h_12_lstm1_unit_12_1_split
I0409 16:55:55.818158   759 net.cpp:408] h_12_lstm1_unit_12_1_split <- h_12
I0409 16:55:55.818164   759 net.cpp:382] h_12_lstm1_unit_12_1_split -> h_12_lstm1_unit_12_1_split_0
I0409 16:55:55.818171   759 net.cpp:382] h_12_lstm1_unit_12_1_split -> h_12_lstm1_unit_12_1_split_1
I0409 16:55:55.818203   759 net.cpp:124] Setting up h_12_lstm1_unit_12_1_split
I0409 16:55:55.818210   759 net.cpp:131] Top shape: 1 523 128 (66944)
I0409 16:55:55.818215   759 net.cpp:131] Top shape: 1 523 128 (66944)
I0409 16:55:55.818218   759 net.cpp:139] Memory required for data: 84190448
I0409 16:55:55.818222   759 layer_factory.hpp:77] Creating layer lstm1_h_conted_12
I0409 16:55:55.818230   759 net.cpp:86] Creating Layer lstm1_h_conted_12
I0409 16:55:55.818238   759 net.cpp:408] lstm1_h_conted_12 <- h_12_lstm1_unit_12_1_split_0
I0409 16:55:55.818250   759 net.cpp:408] lstm1_h_conted_12 <- cont_13_lstm1_cont_slice_12_split_0
I0409 16:55:55.818259   759 net.cpp:382] lstm1_h_conted_12 -> h_conted_12
I0409 16:55:55.818320   759 net.cpp:124] Setting up lstm1_h_conted_12
I0409 16:55:55.818327   759 net.cpp:131] Top shape: 1 523 128 (66944)
I0409 16:55:55.818331   759 net.cpp:139] Memory required for data: 84458224
I0409 16:55:55.818336   759 layer_factory.hpp:77] Creating layer lstm1_transform_13
I0409 16:55:55.818348   759 net.cpp:86] Creating Layer lstm1_transform_13
I0409 16:55:55.818356   759 net.cpp:408] lstm1_transform_13 <- h_conted_12
I0409 16:55:55.818362   759 net.cpp:382] lstm1_transform_13 -> W_hc_h_12
I0409 16:55:55.819458   759 net.cpp:124] Setting up lstm1_transform_13
I0409 16:55:55.819473   759 net.cpp:131] Top shape: 1 523 512 (267776)
I0409 16:55:55.819478   759 net.cpp:139] Memory required for data: 85529328
I0409 16:55:55.819483   759 net.cpp:467] Sharing parameters 'W_hc' owned by layer 'lstm1_transform_1', param index 0
I0409 16:55:55.819490   759 layer_factory.hpp:77] Creating layer lstm1_gate_input_13
I0409 16:55:55.819502   759 net.cpp:86] Creating Layer lstm1_gate_input_13
I0409 16:55:55.819509   759 net.cpp:408] lstm1_gate_input_13 <- W_hc_h_12
I0409 16:55:55.819515   759 net.cpp:408] lstm1_gate_input_13 <- W_xc_x_13
I0409 16:55:55.819523   759 net.cpp:382] lstm1_gate_input_13 -> gate_input_13
I0409 16:55:55.819556   759 net.cpp:124] Setting up lstm1_gate_input_13
I0409 16:55:55.819566   759 net.cpp:131] Top shape: 1 523 512 (267776)
I0409 16:55:55.819568   759 net.cpp:139] Memory required for data: 86600432
I0409 16:55:55.819573   759 layer_factory.hpp:77] Creating layer lstm1_unit_13
I0409 16:55:55.819581   759 net.cpp:86] Creating Layer lstm1_unit_13
I0409 16:55:55.819586   759 net.cpp:408] lstm1_unit_13 <- c_12
I0409 16:55:55.819593   759 net.cpp:408] lstm1_unit_13 <- gate_input_13
I0409 16:55:55.819600   759 net.cpp:408] lstm1_unit_13 <- cont_13_lstm1_cont_slice_12_split_1
I0409 16:55:55.819612   759 net.cpp:382] lstm1_unit_13 -> c_13
I0409 16:55:55.819622   759 net.cpp:382] lstm1_unit_13 -> h_13
I0409 16:55:55.819671   759 net.cpp:124] Setting up lstm1_unit_13
I0409 16:55:55.819679   759 net.cpp:131] Top shape: 1 523 128 (66944)
I0409 16:55:55.819684   759 net.cpp:131] Top shape: 1 523 128 (66944)
I0409 16:55:55.819689   759 net.cpp:139] Memory required for data: 87135984
I0409 16:55:55.819694   759 layer_factory.hpp:77] Creating layer lstm1_
I0409 16:55:55.819700   759 net.cpp:86] Creating Layer lstm1_
I0409 16:55:55.819703   759 net.cpp:408] lstm1_ <- c_13
I0409 16:55:55.819708   759 net.cpp:382] lstm1_ -> c_T
I0409 16:55:55.819731   759 net.cpp:124] Setting up lstm1_
I0409 16:55:55.819738   759 net.cpp:131] Top shape: 1 523 128 (66944)
I0409 16:55:55.819741   759 net.cpp:139] Memory required for data: 87403760
I0409 16:55:55.819746   759 layer_factory.hpp:77] Creating layer lstm1_h_concat
I0409 16:55:55.819767   759 net.cpp:86] Creating Layer lstm1_h_concat
I0409 16:55:55.819773   759 net.cpp:408] lstm1_h_concat <- h_1_lstm1_unit_1_1_split_1
I0409 16:55:55.819779   759 net.cpp:408] lstm1_h_concat <- h_2_lstm1_unit_2_1_split_1
…
I0409 16:55:55.822993   759 net.cpp:202] lstm1_ does not need backward computation.
I0409 16:55:55.822999   759 net.cpp:244] This network produces output c_T
I0409 16:55:55.823005   759 net.cpp:244] This network produces output h_pseudoloss
I0409 16:55:55.823993   759 net.cpp:257] Network initialization done.
I0409 16:55:55.824133   759 recurrent_layer.cpp:150] Adding parameter 0: W_xc
I0409 16:55:55.824142   759 recurrent_layer.cpp:150] Adding parameter 1: b_c
I0409 16:55:55.824146   759 recurrent_layer.cpp:150] Adding parameter 2: W_hc
I0409 16:55:55.825187   759 net.cpp:124] Setting up lstm1
I0409 16:55:55.825202   759 net.cpp:131] Top shape: 13 523 128 (870272)
I0409 16:55:55.825222   759 net.cpp:139] Memory required for data: 3351865160
I0409 16:55:55.825232   759 layer_factory.hpp:77] Creating layer lstm2
I0409 16:55:55.825238   759 net.cpp:86] Creating Layer lstm2
I0409 16:55:55.825243   759 net.cpp:408] lstm2 <- lstm1
I0409 16:55:55.825251   759 net.cpp:408] lstm2 <- indicator_indicator_0_split_1
I0409 16:55:55.825260   759 net.cpp:382] lstm2 -> lstm2
I0409 16:55:55.825271   759 recurrent_layer.cpp:20] Initializing recurrent layer: assuming input batch contains 13 timesteps of 523 independent streams.
I0409 16:55:55.825682   759 net.cpp:53] Initializing net from parameters: 
layer {
  name: "lstm2_"
  type: "Input"
  top: "x"
  top: "cont"
  input_param {
    shape {
      dim: 13
      dim: 523
      dim: 128
    }
    shape {
      dim: 13
      dim: 523
    }
  }
}
layer {
  name: "lstm2_"
  type: "Input"
  top: "c_0"
  top: "h_0"
  input_param {
    shape {
      dim: 1
      dim: 523
      dim: 256
    }
    shape {
      dim: 1
      dim: 523
      dim: 256
    }
  }
}
layer {
  name: "lstm2_cont_slice"
  type: "Slice"
  bottom: "cont"
  top: "cont_1"
  top: "cont_2"
  top: "cont_3"
  top: "cont_4"
  top: "cont_5"
  top: "cont_6"
  top: "cont_7"
  top: "cont_8"
  top: "cont_9"
  top: "cont_10"
  top: "cont_11"
  top: "cont_12"
  top: "cont_13"
  slice_param {
    axis: 0
  }
}
layer {
  name: "lstm2_x_transform"
  type: "InnerProduct"
  bottom: "x"
  top: "W_xc_x"
  param {
    name: "W_xc"
  }
  param {
    name: "b_c"
  }
  propagate_down: true
  inner_product_param {
    num_output: 1024
    bias_term: true
    weight_filler {
      type: "xavier"
    }
    bias_filler {
      type: "constant"
      value: 0
    }
    axis: 2
  }
}
layer {
  name: "lstm2_W_xc_x_slice"
  type: "Slice"
  bottom: "W_xc_x"
  top: "W_xc_x_1"
  top: "W_xc_x_2"
  top: "W_xc_x_3"
  top: "W_xc_x_4"
  top: "W_xc_x_5"
  top: "W_xc_x_6"
  top: "W_xc_x_7"
  top: "W_xc_x_8"
  top: "W_xc_x_9"
  top: "W_xc_x_10"
  top: "W_xc_x_11"
  top: "W_xc_x_12"
  top: "W_xc_x_13"
  slice_param {
    axis: 0
  }
}
layer {
  name: "lstm2_h_conted_0"
  type: "Scale"
  bottom: "h_0"
  bottom: "cont_1"
  top: "h_conted_0"
  scale_param {
    axis: 0
  }
}
layer {
  name: "lstm2_transform_1"
  type: "InnerProduct"
  bottom: "h_conted_0"
  top: "W_hc_h_0"
  param {
    name: "W_hc"
  }
  inner_product_param {
    num_output: 1024
    bias_term: false
    weight_filler {
      type: "xavier"
    }
    axis: 2
  }
}
layer {
  name: "lstm2_gate_input_1"
  type: "Eltwise"
  bottom: "W_hc_h_0"
  bottom: "W_xc_x_1"
  top: "gate_input_1"
  eltwise_param {
    operation: SUM
  }
}
layer {
  name: "lstm2_unit_1"
  type: "LSTMUnit"
  bottom: "c_0"
  bottom: "gate_input_1"
  bottom: "cont_1"
  top: "c_1"
  top: "h_1"
}
layer {
  name: "lstm2_h_conted_1"
  type: "Scale"
  bottom: "h_1"
  bottom: "cont_2"
  top: "h_conted_1"
  scale_param {
    axis: 0
  }
}
layer {
  name: "lstm2_transform_2"
  type: "InnerProduct"
  bottom: "h_conted_1"
  top: "W_hc_h_1"
  param {
    name: "W_hc"
  }
  inner_product_param {
    num_output: 1024
    bias_term: false
    weight_filler {
      type: "xavier"
    }
    axis: 2
  }
}
layer {
  name: "lstm2_gate_input_2"
  type: "Eltwise"
  bottom: "W_hc_h_1"
  bottom: "W_xc_x_2"
  top: "gate_input_2"
  eltwise_param {
    operation: SUM
  }
}
layer {
  name: "lstm2_unit_2"
  type: "LSTMUnit"
  bottom: "c_1"
  bottom: "gate_input_2"
  bottom: "cont_2"
  top: "c_2"
  top: "h_2"
}
layer {
  name: "lstm2_h_conted_2"
  type: "Scale"
  bottom: "h_2"
  bottom: "cont_3"
  top: "h_conted_2"
  scale_param {
    axis: 0
  }
}
layer {
  name: "lstm2_transform_3"
  type: "InnerProduct"
  bottom: "h_conted_2"
  top: "W_hc_h_2"
  param {
    name: "W_hc"
  }
  inner_product_param {
    num_output: 1024
    bias_term: false
    weight_filler {
      type: "xavier"
    }
    axis: 2
  }
}
layer {
  name: "lstm2_gate_input_3"
  type: "Eltwise"
  bottom: "W_hc_h_2"
  bottom: "W_xc_x_3"
  top: "gate_input_3"
  eltwise_param {
    operation: SUM
  }
}
layer {
  name: "lstm2_unit_3"
  type: "LSTMUnit"
  bottom: "c_2"
  bottom: "gate_input_3"
  bottom: "cont_3"
  top: "c_3"
  top: "h_3"
}
layer {
  name: "lstm2_h_conted_3"
  type: "Scale"
  bottom: "h_3"
  bottom: "cont_4"
  top: "h_conted_3"
  scale_param {
    axis: 0
  }
}
layer {
  name: "lstm2_transform_4"
  type: "InnerProduct"
  bottom: "h_conted_3"
  top: "W_hc_h_3"
  param {
    name: "W_hc"
  }
  inner_product_param {
    num_output: 1024
    bias_term: false
    weight_filler {
      type: "xavier"
    }
    axis: 2
  }
}
layer {
  name: "lstm2_gate_input_4"
  type: "Eltwise"
  bottom: "W_hc_h_3"
  bottom: "W_xc_x_4"
  top: "gate_input_4"
  eltwise_param {
    operation: SUM
  }
}
layer {
  name: "lstm2_unit_4"
  type: "LSTMUnit"
  bottom: "c_3"
  bottom: "gate_input_4"
  bottom: "cont_4"
  top: "c_4"
  top: "h_4"
}
layer {
  name: "lstm2_h_conted_4"
  type: "Scale"
  bottom: "h_4"
  bottom: "cont_5"
  top: "h_conted_4"
  scale_param {
    axis: 0
  }
}
layer {
  name: "lstm2_transform_5"
  type: "InnerProduct"
  bottom: "h_conted_4"
  top: "W_hc_h_4"
  param {
    name: "W_hc"
  }
  inner_product_param {
    num_output: 1024
    bias_term: false
    weight_filler {
      type: "xavier"
    }
    axis: 2
  }
}
layer {
  name: "lstm2_gate_input_5"
  type: "Eltwise"
  bottom: "W_hc_h_4"
  bottom: "W_xc_x_5"
  top: "gate_input_5"
  eltwise_param {
    operation: SUM
  }
}
layer {
  name: "lstm2_unit_5"
  type: "LSTMUnit"
  bottom: "c_4"
  bottom: "gate_input_5"
  bottom: "cont_5"
  top: "c_5"
  top: "h_5"
}
layer {
  name: "lstm2_h_conted_5"
  type: "Scale"
  bottom: "h_5"
  bottom: "cont_6"
  top: "h_conted_5"
  scale_param {
    axis: 0
  }
}
layer {
  name: "lstm2_transform_6"
  type: "InnerProduct"
  bottom: "h_conted_5"
  top: "W_hc_h_5"
  param {
    name: "W_hc"
  }
  inner_product_param {
    num_output: 1024
    bias_term: false
    weight_filler {
      type: "xavier"
    }
    axis: 2
  }
}
layer {
  name: "lstm2_gate_input_6"
  type: "Eltwise"
  bottom: "W_hc_h_5"
  bottom: "W_xc_x_6"
  top: "gate_input_6"
  eltwise_param {
    operation: SUM
  }
}
layer {
  name: "lstm2_unit_6"
  type: "LSTMUnit"
  bottom: "c_5"
  bottom: "gate_input_6"
  bottom: "cont_6"
  top: "c_6"
  top: "h_6"
}
layer {
  name: "lstm2_h_conted_6"
  type: "Scale"
  bottom: "h_6"
  bottom: "cont_7"
  top: "h_conted_6"
  scale_param {
    axis: 0
  }
}
layer {
  name: "lstm2_transform_7"
  type: "InnerProduct"
  bottom: "h_conted_6"
  top: "W_hc_h_6"
  param {
    name: "W_hc"
  }
  inner_product_param {
    num_output: 1024
    bias_term: false
    weight_filler {
      type: "xavier"
    }
    axis: 2
  }
}
layer {
  name: "lstm2_gate_input_7"
  type: "Eltwise"
  bottom: "W_hc_h_6"
  bottom: "W_xc_x_7"
  top: "gate_input_7"
  eltwise_param {
    operation: SUM
  }
}
layer {
  name: "lstm2_unit_7"
  type: "LSTMUnit"
  bottom: "c_6"
  bottom: "gate_input_7"
  bottom: "cont_7"
  top: "c_7"
  top: "h_7"
}
layer {
  name: "lstm2_h_conted_7"
  type: "Scale"
  bottom: "h_7"
  bottom: "cont_8"
  top: "h_conted_7"
  scale_param {
    axis: 0
  }
}
layer {
  name: "lstm2_transform_8"
  type: "InnerProduct"
  bottom: "h_conted_7"
  top: "W_hc_h_7"
  param {
    name: "W_hc"
  }
  inner_product_param {
    num_output: 1024
    bias_term: false
    weight_filler {
      type: "xavier"
    }
    axis: 2
  }
}
layer {
  name: "lstm2_gate_input_8"
  type: "Eltwise"
  bottom: "W_hc_h_7"
  bottom: "W_xc_x_8"
  top: "gate_input_8"
  eltwise_param {
    operation: SUM
  }
}
layer {
  name: "lstm2_unit_8"
  type: "LSTMUnit"
  bottom: "c_7"
  bottom: "gate_input_8"
  bottom: "cont_8"
  top: "c_8"
  top: "h_8"
}
layer {
  name: "lstm2_h_conted_8"
  type: "Scale"
  bottom: "h_8"
  bottom: "cont_9"
  top: "h_conted_8"
  scale_param {
    axis: 0
  }
}
layer {
  name: "lstm2_transform_9"
  type: "InnerProduct"
  bottom: "h_conted_8"
  top: "W_hc_h_8"
  param {
    name: "W_hc"
  }
  inner_product_param {
    num_output: 1024
    bias_term: false
    weight_filler {
      type: "xavier"
    }
    axis: 2
  }
}
layer {
  name: "lstm2_gate_input_9"
  type: "Eltwise"
  bottom: "W_hc_h_8"
  bottom: "W_xc_x_9"
  top: "gate_input_9"
  eltwise_param {
    operation: SUM
  }
}
layer {
  name: "lstm2_unit_9"
  type: "LSTMUnit"
  bottom: "c_8"
  bottom: "gate_input_9"
  bottom: "cont_9"
  top: "c_9"
  top: "h_9"
}
layer {
  name: "lstm2_h_conted_9"
  type: "Scale"
  bottom: "h_9"
  bottom: "cont_10"
  top: "h_conted_9"
  scale_param {
    axis: 0
  }
}
layer {
  name: "lstm2_transform_10"
  type: "InnerProduct"
  bottom: "h_conted_9"
  top: "W_hc_h_9"
  param {
    name: "W_hc"
  }
  inner_product_param {
    num_output: 1024
    bias_term: false
    weight_filler {
      type: "xavier"
    }
    axis: 2
  }
}
layer {
  name: "lstm2_gate_input_10"
  type: "Eltwise"
  bottom: "W_hc_h_9"
  bottom: "W_xc_x_10"
  top: "gate_input_10"
  eltwise_param {
    operation: SUM
  }
}
layer {
  name: "lstm2_unit_10"
  type: "LSTMUnit"
  bottom: "c_9"
  bottom: "gate_input_10"
  bottom: "cont_10"
  top: "c_10"
  top: "h_10"
}
layer {
  name: "lstm2_h_conted_10"
  type: "Scale"
  bottom: "h_10"
  bottom: "cont_11"
  top: "h_conted_10"
  scale_param {
    axis: 0
  }
}
layer {
  name: "lstm2_transform_11"
  type: "InnerProduct"
  bottom: "h_conted_10"
  top: "W_hc_h_10"
  param {
    name: "W_hc"
  }
  inner_product_param {
    num_output: 1024
    bias_term: false
    weight_filler {
      type: "xavier"
    }
    axis: 2
  }
}
layer {
  name: "lstm2_gate_input_11"
  type: "Eltwise"
  bottom: "W_hc_h_10"
  bottom: "W_xc_x_11"
  top: "gate_input_11"
  eltwise_param {
    operation: SUM
  }
}
layer {
  name: "lstm2_unit_11"
  type: "LSTMUnit"
  bottom: "c_10"
  bottom: "gate_input_11"
  bottom: "cont_11"
  top: "c_11"
  top: "h_11"
}
layer {
  name: "lstm2_h_conted_11"
  type: "Scale"
  bottom: "h_11"
  bottom: "cont_12"
  top: "h_conted_11"
  scale_param {
    axis: 0
  }
}
layer {
  name: "lstm2_transform_12"
  type: "InnerProduct"
  bottom: "h_conted_11"
  top: "W_hc_h_11"
  param {
    name: "W_hc"
  }
  inner_product_param {
    num_output: 1024
    bias_term: false
    weight_filler {
      type: "xavier"
    }
    axis: 2
  }
}
layer {
  name: "lstm2_gate_input_12"
  type: "Eltwise"
  bottom: "W_hc_h_11"
  bottom: "W_xc_x_12"
  top: "gate_input_12"
  eltwise_param {
    operation: SUM
  }
}
layer {
  name: "lstm2_unit_12"
  type: "LSTMUnit"
  bottom: "c_11"
  bottom: "gate_input_12"
  bottom: "cont_12"
  top: "c_12"
  top: "h_12"
}
layer {
  name: "lstm2_h_conted_12"
  type: "Scale"
  bottom: "h_12"
  bottom: "cont_13"
  top: "h_conted_12"
  scale_param {
    axis: 0
  }
}
layer {
  name: "lstm2_transform_13"
  type: "InnerProduct"
  bottom: "h_conted_12"
  top: "W_hc_h_12"
  param {
    name: "W_hc"
  }
  inner_product_param {
    num_output: 1024
    bias_term: false
    weight_filler {
      type: "xavier"
    }
    axis: 2
  }
}
layer {
  name: "lstm2_gate_input_13"
  type: "Eltwise"
  bottom: "W_hc_h_12"
  bottom: "W_xc_x_13"
  top: "gate_input_13"
  eltwise_param {
    operation: SUM
  }
}
layer {
  name: "lstm2_unit_13"
  type: "LSTMUnit"
  bottom: "c_12"
  bottom: "gate_input_13"
  bottom: "cont_13"
  top: "c_13"
  top: "h_13"
}
layer {
  name: "lstm2_"
  type: "Split"
  bottom: "c_13"
  top: "c_T"
}
layer {
  name: "lstm2_h_concat"
  type: "Concat"
  bottom: "h_1"
  bottom: "h_2"
  bottom: "h_3"
  bottom: "h_4"
  bottom: "h_5"
  bottom: "h_6"
  bottom: "h_7"
  bottom: "h_8"
  bottom: "h_9"
  bottom: "h_10"
  bottom: "h_11"
  bottom: "h_12"
  bottom: "h_13"
  top: "h"
  concat_param {
    axis: 0
  }
}
layer {
  name: "h_pseudoloss"
  type: "Reduction"
  bottom: "h"
  top: "h_pseudoloss"
  loss_weight: 1
}
I0409 16:55:55.826232   759 layer_factory.hpp:77] Creating layer lstm2_
I0409 16:55:55.826244   759 net.cpp:86] Creating Layer lstm2_
I0409 16:55:55.826249   759 net.cpp:382] lstm2_ -> x
I0409 16:55:55.826257   759 net.cpp:382] lstm2_ -> cont
I0409 16:55:55.826310   759 net.cpp:124] Setting up lstm2_
I0409 16:55:55.826319   759 net.cpp:131] Top shape: 13 523 128 (870272)
I0409 16:55:55.826325   759 net.cpp:131] Top shape: 13 523 (6799)
I0409 16:55:55.826329   759 net.cpp:139] Memory required for data: 3508284
I0409 16:55:55.826336   759 layer_factory.hpp:77] Creating layer lstm2_
I0409 16:55:55.826344   759 net.cpp:86] Creating Layer lstm2_
I0409 16:55:55.826350   759 net.cpp:382] lstm2_ -> c_0
I0409 16:55:55.826360   759 net.cpp:382] lstm2_ -> h_0
I0409 16:55:55.826405   759 net.cpp:124] Setting up lstm2_
I0409 16:55:55.826413   759 net.cpp:131] Top shape: 1 523 256 (133888)
I0409 16:55:55.826418   759 net.cpp:131] Top shape: 1 523 256 (133888)
I0409 16:55:55.826421   759 net.cpp:139] Memory required for data: 4579388
I0409 16:55:55.826426   759 layer_factory.hpp:77] Creating layer lstm2_cont_slice
I0409 16:55:55.826436   759 net.cpp:86] Creating Layer lstm2_cont_slice
I0409 16:55:55.826442   759 net.cpp:408] lstm2_cont_slice <- cont
I0409 16:55:55.826449   759 net.cpp:382] lstm2_cont_slice -> cont_1
I0409 16:55:55.826460   759 net.cpp:382] lstm2_cont_slice -> cont_2
I0409 16:55:55.826467   759 net.cpp:382] lstm2_cont_slice -> cont_3
I0409 16:55:55.826473   759 net.cpp:382] lstm2_cont_slice -> cont_4
I0409 16:55:55.826483   759 net.cpp:382] lstm2_cont_slice -> cont_5
I0409 16:55:55.826493   759 net.cpp:382] lstm2_cont_slice -> cont_6
I0409 16:55:55.826501   759 net.cpp:382] lstm2_cont_slice -> cont_7
I0409 16:55:55.826508   759 net.cpp:382] lstm2_cont_slice -> cont_8
I0409 16:55:55.826514   759 net.cpp:382] lstm2_cont_slice -> cont_9
I0409 16:55:55.826519   759 net.cpp:382] lstm2_cont_slice -> cont_10
I0409 16:55:55.826525   759 net.cpp:382] lstm2_cont_slice -> cont_11
I0409 16:55:55.826530   759 net.cpp:382] lstm2_cont_slice -> cont_12
I0409 16:55:55.826536   759 net.cpp:382] lstm2_cont_slice -> cont_13
I0409 16:55:55.826697   759 net.cpp:124] Setting up lstm2_cont_slice
I0409 16:55:55.826707   759 net.cpp:131] Top shape: 1 523 (523)
I0409 16:55:55.826711   759 net.cpp:131] Top shape: 1 523 (523)
I0409 16:55:55.826714   759 net.cpp:131] Top shape: 1 523 (523)
I0409 16:55:55.826719   759 net.cpp:131] Top shape: 1 523 (523)
I0409 16:55:55.826725   759 net.cpp:131] Top shape: 1 523 (523)
I0409 16:55:55.826743   759 net.cpp:131] Top shape: 1 523 (523)
I0409 16:55:55.826747   759 net.cpp:131] Top shape: 1 523 (523)
I0409 16:55:55.826751   759 net.cpp:131] Top shape: 1 523 (523)
I0409 16:55:55.826756   759 net.cpp:131] Top shape: 1 523 (523)
I0409 16:55:55.826758   759 net.cpp:131] Top shape: 1 523 (523)
I0409 16:55:55.826762   759 net.cpp:131] Top shape: 1 523 (523)
I0409 16:55:55.826766   759 net.cpp:131] Top shape: 1 523 (523)
I0409 16:55:55.826769   759 net.cpp:131] Top shape: 1 523 (523)
I0409 16:55:55.826772   759 net.cpp:139] Memory required for data: 4606584
I0409 16:55:55.826776   759 layer_factory.hpp:77] Creating layer cont_1_lstm2_cont_slice_0_split
I0409 16:55:55.826782   759 net.cpp:86] Creating Layer cont_1_lstm2_cont_slice_0_split
I0409 16:55:55.826786   759 net.cpp:408] cont_1_lstm2_cont_slice_0_split <- cont_1
I0409 16:55:55.826793   759 net.cpp:382] cont_1_lstm2_cont_slice_0_split -> cont_1_lstm2_cont_slice_0_split_0
I0409 16:55:55.826800   759 net.cpp:382] cont_1_lstm2_cont_slice_0_split -> cont_1_lstm2_cont_slice_0_split_1
I0409 16:55:55.826838   759 net.cpp:124] Setting up cont_1_lstm2_cont_slice_0_split
I0409 16:55:55.826844   759 net.cpp:131] Top shape: 1 523 (523)
I0409 16:55:55.826848   759 net.cpp:131] Top shape: 1 523 (523)
I0409 16:55:55.826850   759 net.cpp:139] Memory required for data: 4610768
I0409 16:55:55.826854   759 layer_factory.hpp:77] Creating layer cont_2_lstm2_cont_slice_1_split
I0409 16:55:55.826865   759 net.cpp:86] Creating Layer cont_2_lstm2_cont_slice_1_split
I0409 16:55:55.826872   759 net.cpp:408] cont_2_lstm2_cont_slice_1_split <- cont_2
I0409 16:55:55.826881   759 net.cpp:382] cont_2_lstm2_cont_slice_1_split -> cont_2_lstm2_cont_slice_1_split_0
I0409 16:55:55.826892   759 net.cpp:382] cont_2_lstm2_cont_slice_1_split -> cont_2_lstm2_cont_slice_1_split_1
I0409 16:55:55.826930   759 net.cpp:124] Setting up cont_2_lstm2_cont_slice_1_split
I0409 16:55:55.826937   759 net.cpp:131] Top shape: 1 523 (523)
I0409 16:55:55.826941   759 net.cpp:131] Top shape: 1 523 (523)
I0409 16:55:55.826946   759 net.cpp:139] Memory required for data: 4614952
I0409 16:55:55.826951   759 layer_factory.hpp:77] Creating layer cont_3_lstm2_cont_slice_2_split
I0409 16:55:55.826957   759 net.cpp:86] Creating Layer cont_3_lstm2_cont_slice_2_split
I0409 16:55:55.826963   759 net.cpp:408] cont_3_lstm2_cont_slice_2_split <- cont_3
I0409 16:55:55.826974   759 net.cpp:382] cont_3_lstm2_cont_slice_2_split -> cont_3_lstm2_cont_slice_2_split_0
I0409 16:55:55.826983   759 net.cpp:382] cont_3_lstm2_cont_slice_2_split -> cont_3_lstm2_cont_slice_2_split_1
I0409 16:55:55.827024   759 net.cpp:124] Setting up cont_3_lstm2_cont_slice_2_split
I0409 16:55:55.827031   759 net.cpp:131] Top shape: 1 523 (523)
I0409 16:55:55.827037   759 net.cpp:131] Top shape: 1 523 (523)
I0409 16:55:55.827041   759 net.cpp:139] Memory required for data: 4619136
I0409 16:55:55.827045   759 layer_factory.hpp:77] Creating layer cont_4_lstm2_cont_slice_3_split
I0409 16:55:55.827052   759 net.cpp:86] Creating Layer cont_4_lstm2_cont_slice_3_split
I0409 16:55:55.827056   759 net.cpp:408] cont_4_lstm2_cont_slice_3_split <- cont_4
I0409 16:55:55.827062   759 net.cpp:382] cont_4_lstm2_cont_slice_3_split -> cont_4_lstm2_cont_slice_3_split_0
I0409 16:55:55.827069   759 net.cpp:382] cont_4_lstm2_cont_slice_3_split -> cont_4_lstm2_cont_slice_3_split_1
I0409 16:55:55.827098   759 net.cpp:124] Setting up cont_4_lstm2_cont_slice_3_split
I0409 16:55:55.827106   759 net.cpp:131] Top shape: 1 523 (523)
I0409 16:55:55.827111   759 net.cpp:131] Top shape: 1 523 (523)
I0409 16:55:55.827113   759 net.cpp:139] Memory required for data: 4623320
I0409 16:55:55.827116   759 layer_factory.hpp:77] Creating layer cont_5_lstm2_cont_slice_4_split
I0409 16:55:55.827124   759 net.cpp:86] Creating Layer cont_5_lstm2_cont_slice_4_split
I0409 16:55:55.827129   759 net.cpp:408] cont_5_lstm2_cont_slice_4_split <- cont_5
I0409 16:55:55.827136   759 net.cpp:382] cont_5_lstm2_cont_slice_4_split -> cont_5_lstm2_cont_slice_4_split_0
I0409 16:55:55.827147   759 net.cpp:382] cont_5_lstm2_cont_slice_4_split -> cont_5_lstm2_cont_slice_4_split_1
I0409 16:55:55.827194   759 net.cpp:124] Setting up cont_5_lstm2_cont_slice_4_split
I0409 16:55:55.827203   759 net.cpp:131] Top shape: 1 523 (523)
I0409 16:55:55.827206   759 net.cpp:131] Top shape: 1 523 (523)
I0409 16:55:55.827210   759 net.cpp:139] Memory required for data: 4627504
I0409 16:55:55.827216   759 layer_factory.hpp:77] Creating layer cont_6_lstm2_cont_slice_5_split
I0409 16:55:55.827225   759 net.cpp:86] Creating Layer cont_6_lstm2_cont_slice_5_split
I0409 16:55:55.827229   759 net.cpp:408] cont_6_lstm2_cont_slice_5_split <- cont_6
I0409 16:55:55.827234   759 net.cpp:382] cont_6_lstm2_cont_slice_5_split -> cont_6_lstm2_cont_slice_5_split_0
I0409 16:55:55.827241   759 net.cpp:382] cont_6_lstm2_cont_slice_5_split -> cont_6_lstm2_cont_slice_5_split_1
I0409 16:55:55.827275   759 net.cpp:124] Setting up cont_6_lstm2_cont_slice_5_split
I0409 16:55:55.827281   759 net.cpp:131] Top shape: 1 523 (523)
I0409 16:55:55.827286   759 net.cpp:131] Top shape: 1 523 (523)
I0409 16:55:55.827288   759 net.cpp:139] Memory required for data: 4631688
I0409 16:55:55.827292   759 layer_factory.hpp:77] Creating layer cont_7_lstm2_cont_slice_6_split
I0409 16:55:55.827299   759 net.cpp:86] Creating Layer cont_7_lstm2_cont_slice_6_split
I0409 16:55:55.827302   759 net.cpp:408] cont_7_lstm2_cont_slice_6_split <- cont_7
I0409 16:55:55.827308   759 net.cpp:382] cont_7_lstm2_cont_slice_6_split -> cont_7_lstm2_cont_slice_6_split_0
I0409 16:55:55.827316   759 net.cpp:382] cont_7_lstm2_cont_slice_6_split -> cont_7_lstm2_cont_slice_6_split_1
I0409 16:55:55.827347   759 net.cpp:124] Setting up cont_7_lstm2_cont_slice_6_split
I0409 16:55:55.827353   759 net.cpp:131] Top shape: 1 523 (523)
I0409 16:55:55.827358   759 net.cpp:131] Top shape: 1 523 (523)
I0409 16:55:55.827359   759 net.cpp:139] Memory required for data: 4635872
I0409 16:55:55.827363   759 layer_factory.hpp:77] Creating layer cont_8_lstm2_cont_slice_7_split
I0409 16:55:55.827371   759 net.cpp:86] Creating Layer cont_8_lstm2_cont_slice_7_split
I0409 16:55:55.827375   759 net.cpp:408] cont_8_lstm2_cont_slice_7_split <- cont_8
I0409 16:55:55.827380   759 net.cpp:382] cont_8_lstm2_cont_slice_7_split -> cont_8_lstm2_cont_slice_7_split_0
I0409 16:55:55.827386   759 net.cpp:382] cont_8_lstm2_cont_slice_7_split -> cont_8_lstm2_cont_slice_7_split_1
I0409 16:55:55.827419   759 net.cpp:124] Setting up cont_8_lstm2_cont_slice_7_split
I0409 16:55:55.827426   759 net.cpp:131] Top shape: 1 523 (523)
I0409 16:55:55.827430   759 net.cpp:131] Top shape: 1 523 (523)
I0409 16:55:55.827433   759 net.cpp:139] Memory required for data: 4640056
I0409 16:55:55.827436   759 layer_factory.hpp:77] Creating layer cont_9_lstm2_cont_slice_8_split
I0409 16:55:55.827445   759 net.cpp:86] Creating Layer cont_9_lstm2_cont_slice_8_split
I0409 16:55:55.827450   759 net.cpp:408] cont_9_lstm2_cont_slice_8_split <- cont_9
I0409 16:55:55.827458   759 net.cpp:382] cont_9_lstm2_cont_slice_8_split -> cont_9_lstm2_cont_slice_8_split_0
I0409 16:55:55.827467   759 net.cpp:382] cont_9_lstm2_cont_slice_8_split -> cont_9_lstm2_cont_slice_8_split_1
I0409 16:55:55.827503   759 net.cpp:124] Setting up cont_9_lstm2_cont_slice_8_split
I0409 16:55:55.827512   759 net.cpp:131] Top shape: 1 523 (523)
I0409 16:55:55.827515   759 net.cpp:131] Top shape: 1 523 (523)
I0409 16:55:55.827519   759 net.cpp:139] Memory required for data: 4644240
I0409 16:55:55.827527   759 layer_factory.hpp:77] Creating layer cont_10_lstm2_cont_slice_9_split
I0409 16:55:55.827533   759 net.cpp:86] Creating Layer cont_10_lstm2_cont_slice_9_split
I0409 16:55:55.827538   759 net.cpp:408] cont_10_lstm2_cont_slice_9_split <- cont_10
I0409 16:55:55.827545   759 net.cpp:382] cont_10_lstm2_cont_slice_9_split -> cont_10_lstm2_cont_slice_9_split_0
I0409 16:55:55.827555   759 net.cpp:382] cont_10_lstm2_cont_slice_9_split -> cont_10_lstm2_cont_slice_9_split_1
I0409 16:55:55.827591   759 net.cpp:124] Setting up cont_10_lstm2_cont_slice_9_split
I0409 16:55:55.827599   759 net.cpp:131] Top shape: 1 523 (523)
I0409 16:55:55.827613   759 net.cpp:131] Top shape: 1 523 (523)
I0409 16:55:55.827618   759 net.cpp:139] Memory required for data: 4648424
I0409 16:55:55.827623   759 layer_factory.hpp:77] Creating layer cont_11_lstm2_cont_slice_10_split
I0409 16:55:55.827630   759 net.cpp:86] Creating Layer cont_11_lstm2_cont_slice_10_split
I0409 16:55:55.827636   759 net.cpp:408] cont_11_lstm2_cont_slice_10_split <- cont_11
I0409 16:55:55.827646   759 net.cpp:382] cont_11_lstm2_cont_slice_10_split -> cont_11_lstm2_cont_slice_10_split_0
I0409 16:55:55.827656   759 net.cpp:382] cont_11_lstm2_cont_slice_10_split -> cont_11_lstm2_cont_slice_10_split_1
I0409 16:55:55.827692   759 net.cpp:124] Setting up cont_11_lstm2_cont_slice_10_split
I0409 16:55:55.827699   759 net.cpp:131] Top shape: 1 523 (523)
I0409 16:55:55.827704   759 net.cpp:131] Top shape: 1 523 (523)
I0409 16:55:55.827709   759 net.cpp:139] Memory required for data: 4652608
I0409 16:55:55.827714   759 layer_factory.hpp:77] Creating layer cont_12_lstm2_cont_slice_11_split
I0409 16:55:55.827721   759 net.cpp:86] Creating Layer cont_12_lstm2_cont_slice_11_split
I0409 16:55:55.827728   759 net.cpp:408] cont_12_lstm2_cont_slice_11_split <- cont_12
I0409 16:55:55.827733   759 net.cpp:382] cont_12_lstm2_cont_slice_11_split -> cont_12_lstm2_cont_slice_11_split_0
I0409 16:55:55.827742   759 net.cpp:382] cont_12_lstm2_cont_slice_11_split -> cont_12_lstm2_cont_slice_11_split_1
I0409 16:55:55.827780   759 net.cpp:124] Setting up cont_12_lstm2_cont_slice_11_split
I0409 16:55:55.827787   759 net.cpp:131] Top shape: 1 523 (523)
I0409 16:55:55.827791   759 net.cpp:131] Top shape: 1 523 (523)
I0409 16:55:55.827796   759 net.cpp:139] Memory required for data: 4656792
I0409 16:55:55.827801   759 layer_factory.hpp:77] Creating layer cont_13_lstm2_cont_slice_12_split
I0409 16:55:55.827808   759 net.cpp:86] Creating Layer cont_13_lstm2_cont_slice_12_split
I0409 16:55:55.827813   759 net.cpp:408] cont_13_lstm2_cont_slice_12_split <- cont_13
I0409 16:55:55.827823   759 net.cpp:382] cont_13_lstm2_cont_slice_12_split -> cont_13_lstm2_cont_slice_12_split_0
I0409 16:55:55.827832   759 net.cpp:382] cont_13_lstm2_cont_slice_12_split -> cont_13_lstm2_cont_slice_12_split_1
I0409 16:55:55.827869   759 net.cpp:124] Setting up cont_13_lstm2_cont_slice_12_split
I0409 16:55:55.827877   759 net.cpp:131] Top shape: 1 523 (523)
I0409 16:55:55.827881   759 net.cpp:131] Top shape: 1 523 (523)
I0409 16:55:55.827885   759 net.cpp:139] Memory required for data: 4660976
I0409 16:55:55.827893   759 layer_factory.hpp:77] Creating layer lstm2_x_transform
I0409 16:55:55.827903   759 net.cpp:86] Creating Layer lstm2_x_transform
I0409 16:55:55.827908   759 net.cpp:408] lstm2_x_transform <- x
I0409 16:55:55.827920   759 net.cpp:382] lstm2_x_transform -> W_xc_x
I0409 16:55:55.828753   759 net.cpp:124] Setting up lstm2_x_transform
I0409 16:55:55.828763   759 net.cpp:131] Top shape: 13 523 1024 (6962176)
I0409 16:55:55.828766   759 net.cpp:139] Memory required for data: 32509680
I0409 16:55:55.828778   759 layer_factory.hpp:77] Creating layer lstm2_W_xc_x_slice
I0409 16:55:55.828791   759 net.cpp:86] Creating Layer lstm2_W_xc_x_slice
I0409 16:55:55.828799   759 net.cpp:408] lstm2_W_xc_x_slice <- W_xc_x
I0409 16:55:55.828805   759 net.cpp:382] lstm2_W_xc_x_slice -> W_xc_x_1
I0409 16:55:55.828816   759 net.cpp:382] lstm2_W_xc_x_slice -> W_xc_x_2
I0409 16:55:55.828826   759 net.cpp:382] lstm2_W_xc_x_slice -> W_xc_x_3
I0409 16:55:55.828835   759 net.cpp:382] lstm2_W_xc_x_slice -> W_xc_x_4
I0409 16:55:55.828845   759 net.cpp:382] lstm2_W_xc_x_slice -> W_xc_x_5
I0409 16:55:55.828855   759 net.cpp:382] lstm2_W_xc_x_slice -> W_xc_x_6
I0409 16:55:55.828866   759 net.cpp:382] lstm2_W_xc_x_slice -> W_xc_x_7
I0409 16:55:55.828873   759 net.cpp:382] lstm2_W_xc_x_slice -> W_xc_x_8
I0409 16:55:55.828881   759 net.cpp:382] lstm2_W_xc_x_slice -> W_xc_x_9
I0409 16:55:55.828891   759 net.cpp:382] lstm2_W_xc_x_slice -> W_xc_x_10
I0409 16:55:55.828899   759 net.cpp:382] lstm2_W_xc_x_slice -> W_xc_x_11
I0409 16:55:55.828909   759 net.cpp:382] lstm2_W_xc_x_slice -> W_xc_x_12
I0409 16:55:55.828927   759 net.cpp:382] lstm2_W_xc_x_slice -> W_xc_x_13
I0409 16:55:55.829077   759 net.cpp:124] Setting up lstm2_W_xc_x_slice
I0409 16:55:55.829087   759 net.cpp:131] Top shape: 1 523 1024 (535552)
I0409 16:55:55.829092   759 net.cpp:131] Top shape: 1 523 1024 (535552)
I0409 16:55:55.829098   759 net.cpp:131] Top shape: 1 523 1024 (535552)
I0409 16:55:55.829104   759 net.cpp:131] Top shape: 1 523 1024 (535552)
I0409 16:55:55.829111   759 net.cpp:131] Top shape: 1 523 1024 (535552)
I0409 16:55:55.829118   759 net.cpp:131] Top shape: 1 523 1024 (535552)
I0409 16:55:55.829124   759 net.cpp:131] Top shape: 1 523 1024 (535552)
I0409 16:55:55.829131   759 net.cpp:131] Top shape: 1 523 1024 (535552)
I0409 16:55:55.829138   759 net.cpp:131] Top shape: 1 523 1024 (535552)
I0409 16:55:55.829144   759 net.cpp:131] Top shape: 1 523 1024 (535552)
I0409 16:55:55.829150   759 net.cpp:131] Top shape: 1 523 1024 (535552)
I0409 16:55:55.829156   759 net.cpp:131] Top shape: 1 523 1024 (535552)
I0409 16:55:55.829164   759 net.cpp:131] Top shape: 1 523 1024 (535552)
I0409 16:55:55.829169   759 net.cpp:139] Memory required for data: 60358384
I0409 16:55:55.829174   759 layer_factory.hpp:77] Creating layer lstm2_h_conted_0
I0409 16:55:55.829181   759 net.cpp:86] Creating Layer lstm2_h_conted_0
I0409 16:55:55.829190   759 net.cpp:408] lstm2_h_conted_0 <- h_0
I0409 16:55:55.829195   759 net.cpp:408] lstm2_h_conted_0 <- cont_1_lstm2_cont_slice_0_split_0
I0409 16:55:55.829203   759 net.cpp:382] lstm2_h_conted_0 -> h_conted_0
I0409 16:55:55.829262   759 net.cpp:124] Setting up lstm2_h_conted_0
I0409 16:55:55.829272   759 net.cpp:131] Top shape: 1 523 256 (133888)
I0409 16:55:55.829277   759 net.cpp:139] Memory required for data: 60893936
I0409 16:55:55.829282   759 layer_factory.hpp:77] Creating layer lstm2_transform_1
I0409 16:55:55.829289   759 net.cpp:86] Creating Layer lstm2_transform_1
I0409 16:55:55.829295   759 net.cpp:408] lstm2_transform_1 <- h_conted_0
I0409 16:55:55.829305   759 net.cpp:382] lstm2_transform_1 -> W_hc_h_0
I0409 16:55:55.831276   759 net.cpp:124] Setting up lstm2_transform_1
I0409 16:55:55.831292   759 net.cpp:131] Top shape: 1 523 1024 (535552)
I0409 16:55:55.831297   759 net.cpp:139] Memory required for data: 63036144
I0409 16:55:55.831308   759 layer_factory.hpp:77] Creating layer lstm2_gate_input_1
I0409 16:55:55.831318   759 net.cpp:86] Creating Layer lstm2_gate_input_1
I0409 16:55:55.831323   759 net.cpp:408] lstm2_gate_input_1 <- W_hc_h_0
I0409 16:55:55.831331   759 net.cpp:408] lstm2_gate_input_1 <- W_xc_x_1
I0409 16:55:55.831343   759 net.cpp:382] lstm2_gate_input_1 -> gate_input_1
I0409 16:55:55.831374   759 net.cpp:124] Setting up lstm2_gate_input_1
I0409 16:55:55.831384   759 net.cpp:131] Top shape: 1 523 1024 (535552)
I0409 16:55:55.831390   759 net.cpp:139] Memory required for data: 65178352
I0409 16:55:55.831396   759 layer_factory.hpp:77] Creating layer lstm2_unit_1
I0409 16:55:55.831403   759 net.cpp:86] Creating Layer lstm2_unit_1
I0409 16:55:55.831408   759 net.cpp:408] lstm2_unit_1 <- c_0
I0409 16:55:55.831416   759 net.cpp:408] lstm2_unit_1 <- gate_input_1
I0409 16:55:55.831423   759 net.cpp:408] lstm2_unit_1 <- cont_1_lstm2_cont_slice_0_split_1
I0409 16:55:55.831430   759 net.cpp:382] lstm2_unit_1 -> c_1
I0409 16:55:55.831439   759 net.cpp:382] lstm2_unit_1 -> h_1
I0409 16:55:55.831491   759 net.cpp:124] Setting up lstm2_unit_1
I0409 16:55:55.831499   759 net.cpp:131] Top shape: 1 523 256 (133888)
I0409 16:55:55.831506   759 net.cpp:131] Top shape: 1 523 256 (133888)
I0409 16:55:55.831511   759 net.cpp:139] Memory required for data: 66249456
I0409 16:55:55.831516   759 layer_factory.hpp:77] Creating layer h_1_lstm2_unit_1_1_split
I0409 16:55:55.831524   759 net.cpp:86] Creating Layer h_1_lstm2_unit_1_1_split
I0409 16:55:55.831529   759 net.cpp:408] h_1_lstm2_unit_1_1_split <- h_1
I0409 16:55:55.831537   759 net.cpp:382] h_1_lstm2_unit_1_1_split -> h_1_lstm2_unit_1_1_split_0
I0409 16:55:55.831548   759 net.cpp:382] h_1_lstm2_unit_1_1_split -> h_1_lstm2_unit_1_1_split_1
I0409 16:55:55.831601   759 net.cpp:124] Setting up h_1_lstm2_unit_1_1_split
I0409 16:55:55.831610   759 net.cpp:131] Top shape: 1 523 256 (133888)
I0409 16:55:55.831616   759 net.cpp:131] Top shape: 1 523 256 (133888)
I0409 16:55:55.831622   759 net.cpp:139] Memory required for data: 67320560
I0409 16:55:55.831627   759 layer_factory.hpp:77] Creating layer lstm2_h_conted_1
I0409 16:55:55.831640   759 net.cpp:86] Creating Layer lstm2_h_conted_1
I0409 16:55:55.831645   759 net.cpp:408] lstm2_h_conted_1 <- h_1_lstm2_unit_1_1_split_0
I0409 16:55:55.831653   759 net.cpp:408] lstm2_h_conted_1 <- cont_2_lstm2_cont_slice_1_split_0
I0409 16:55:55.831662   759 net.cpp:382] lstm2_h_conted_1 -> h_conted_1
I0409 16:55:55.831727   759 net.cpp:124] Setting up lstm2_h_conted_1
I0409 16:55:55.831737   759 net.cpp:131] Top shape: 1 523 256 (133888)
I0409 16:55:55.831742   759 net.cpp:139] Memory required for data: 67856112
I0409 16:55:55.831746   759 layer_factory.hpp:77] Creating layer lstm2_transform_2
I0409 16:55:55.831758   759 net.cpp:86] Creating Layer lstm2_transform_2
I0409 16:55:55.831763   759 net.cpp:408] lstm2_transform_2 <- h_conted_1
I0409 16:55:55.831773   759 net.cpp:382] lstm2_transform_2 -> W_hc_h_1
I0409 16:55:55.833731   759 net.cpp:124] Setting up lstm2_transform_2
I0409 16:55:55.833747   759 net.cpp:131] Top shape: 1 523 1024 (535552)
I0409 16:55:55.833755   759 net.cpp:139] Memory required for data: 69998320
I0409 16:55:55.833761   759 net.cpp:467] Sharing parameters 'W_hc' owned by layer 'lstm2_transform_1', param index 0
I0409 16:55:55.833767   759 layer_factory.hpp:77] Creating layer lstm2_gate_input_2
I0409 16:55:55.833777   759 net.cpp:86] Creating Layer lstm2_gate_input_2
I0409 16:55:55.833782   759 net.cpp:408] lstm2_gate_input_2 <- W_hc_h_1
I0409 16:55:55.833791   759 net.cpp:408] lstm2_gate_input_2 <- W_xc_x_2
I0409 16:55:55.833798   759 net.cpp:382] lstm2_gate_input_2 -> gate_input_2
I0409 16:55:55.833832   759 net.cpp:124] Setting up lstm2_gate_input_2
I0409 16:55:55.833840   759 net.cpp:131] Top shape: 1 523 1024 (535552)
I0409 16:55:55.833845   759 net.cpp:139] Memory required for data: 72140528
I0409 16:55:55.833850   759 layer_factory.hpp:77] Creating layer lstm2_unit_2
I0409 16:55:55.833858   759 net.cpp:86] Creating Layer lstm2_unit_2
I0409 16:55:55.833864   759 net.cpp:408] lstm2_unit_2 <- c_1
I0409 16:55:55.833871   759 net.cpp:408] lstm2_unit_2 <- gate_input_2
I0409 16:55:55.833878   759 net.cpp:408] lstm2_unit_2 <- cont_2_lstm2_cont_slice_1_split_1
I0409 16:55:55.833886   759 net.cpp:382] lstm2_unit_2 -> c_2
I0409 16:55:55.833895   759 net.cpp:382] lstm2_unit_2 -> h_2
I0409 16:55:55.833948   759 net.cpp:124] Setting up lstm2_unit_2
I0409 16:55:55.833956   759 net.cpp:131] Top shape: 1 523 256 (133888)
I0409 16:55:55.833962   759 net.cpp:131] Top shape: 1 523 256 (133888)
I0409 16:55:55.833967   759 net.cpp:139] Memory required for data: 73211632
I0409 16:55:55.833973   759 layer_factory.hpp:77] Creating layer h_2_lstm2_unit_2_1_split
I0409 16:55:55.833981   759 net.cpp:86] Creating Layer h_2_lstm2_unit_2_1_split
I0409 16:55:55.833986   759 net.cpp:408] h_2_lstm2_unit_2_1_split <- h_2
I0409 16:55:55.833994   759 net.cpp:382] h_2_lstm2_unit_2_1_split -> h_2_lstm2_unit_2_1_split_0
I0409 16:55:55.834005   759 net.cpp:382] h_2_lstm2_unit_2_1_split -> h_2_lstm2_unit_2_1_split_1
I0409 16:55:55.834044   759 net.cpp:124] Setting up h_2_lstm2_unit_2_1_split
I0409 16:55:55.834053   759 net.cpp:131] Top shape: 1 523 256 (133888)
I0409 16:55:55.834058   759 net.cpp:131] Top shape: 1 523 256 (133888)
I0409 16:55:55.834064   759 net.cpp:139] Memory required for data: 74282736
I0409 16:55:55.834069   759 layer_factory.hpp:77] Creating layer lstm2_h_conted_2
I0409 16:55:55.834077   759 net.cpp:86] Creating Layer lstm2_h_conted_2
I0409 16:55:55.834082   759 net.cpp:408] lstm2_h_conted_2 <- h_2_lstm2_unit_2_1_split_0
I0409 16:55:55.834090   759 net.cpp:408] lstm2_h_conted_2 <- cont_3_lstm2_cont_slice_2_split_0
I0409 16:55:55.834101   759 net.cpp:382] lstm2_h_conted_2 -> h_conted_2
I0409 16:55:55.834163   759 net.cpp:124] Setting up lstm2_h_conted_2
I0409 16:55:55.834184   759 net.cpp:131] Top shape: 1 523 256 (133888)
I0409 16:55:55.834189   759 net.cpp:139] Memory required for data: 74818288
I0409 16:55:55.834194   759 layer_factory.hpp:77] Creating layer lstm2_transform_3
I0409 16:55:55.834208   759 net.cpp:86] Creating Layer lstm2_transform_3
I0409 16:55:55.834214   759 net.cpp:408] lstm2_transform_3 <- h_conted_2
I0409 16:55:55.834223   759 net.cpp:382] lstm2_transform_3 -> W_hc_h_2
I0409 16:55:55.836406   759 net.cpp:124] Setting up lstm2_transform_3
I0409 16:55:55.836421   759 net.cpp:131] Top shape: 1 523 1024 (535552)
I0409 16:55:55.836424   759 net.cpp:139] Memory required for data: 76960496
I0409 16:55:55.836434   759 net.cpp:467] Sharing parameters 'W_hc' owned by layer 'lstm2_transform_1', param index 0
I0409 16:55:55.836441   759 layer_factory.hpp:77] Creating layer lstm2_gate_input_3
I0409 16:55:55.836452   759 net.cpp:86] Creating Layer lstm2_gate_input_3
I0409 16:55:55.836459   759 net.cpp:408] lstm2_gate_input_3 <- W_hc_h_2
I0409 16:55:55.836467   759 net.cpp:408] lstm2_gate_input_3 <- W_xc_x_3
I0409 16:55:55.836474   759 net.cpp:382] lstm2_gate_input_3 -> gate_input_3
I0409 16:55:55.836504   759 net.cpp:124] Setting up lstm2_gate_input_3
I0409 16:55:55.836513   759 net.cpp:131] Top shape: 1 523 1024 (535552)
I0409 16:55:55.836517   759 net.cpp:139] Memory required for data: 79102704
I0409 16:55:55.836522   759 layer_factory.hpp:77] Creating layer lstm2_unit_3
I0409 16:55:55.836534   759 net.cpp:86] Creating Layer lstm2_unit_3
I0409 16:55:55.836539   759 net.cpp:408] lstm2_unit_3 <- c_2
I0409 16:55:55.836546   759 net.cpp:408] lstm2_unit_3 <- gate_input_3
I0409 16:55:55.836552   759 net.cpp:408] lstm2_unit_3 <- cont_3_lstm2_cont_slice_2_split_1
I0409 16:55:55.836560   759 net.cpp:382] lstm2_unit_3 -> c_3
I0409 16:55:55.836570   759 net.cpp:382] lstm2_unit_3 -> h_3
I0409 16:55:55.836621   759 net.cpp:124] Setting up lstm2_unit_3
I0409 16:55:55.836628   759 net.cpp:131] Top shape: 1 523 256 (133888)
I0409 16:55:55.836634   759 net.cpp:131] Top shape: 1 523 256 (133888)
I0409 16:55:55.836639   759 net.cpp:139] Memory required for data: 80173808
I0409 16:55:55.836645   759 layer_factory.hpp:77] Creating layer h_3_lstm2_unit_3_1_split
I0409 16:55:55.836661   759 net.cpp:86] Creating Layer h_3_lstm2_unit_3_1_split
I0409 16:55:55.836668   759 net.cpp:408] h_3_lstm2_unit_3_1_split <- h_3
I0409 16:55:55.836674   759 net.cpp:382] h_3_lstm2_unit_3_1_split -> h_3_lstm2_unit_3_1_split_0
I0409 16:55:55.836685   759 net.cpp:382] h_3_lstm2_unit_3_1_split -> h_3_lstm2_unit_3_1_split_1
I0409 16:55:55.836722   759 net.cpp:124] Setting up h_3_lstm2_unit_3_1_split
I0409 16:55:55.836730   759 net.cpp:131] Top shape: 1 523 256 (133888)
I0409 16:55:55.836735   759 net.cpp:131] Top shape: 1 523 256 (133888)
I0409 16:55:55.836742   759 net.cpp:139] Memory required for data: 81244912
I0409 16:55:55.836747   759 layer_factory.hpp:77] Creating layer lstm2_h_conted_3
I0409 16:55:55.836755   759 net.cpp:86] Creating Layer lstm2_h_conted_3
I0409 16:55:55.836760   759 net.cpp:408] lstm2_h_conted_3 <- h_3_lstm2_unit_3_1_split_0
I0409 16:55:55.836768   759 net.cpp:408] lstm2_h_conted_3 <- cont_4_lstm2_cont_slice_3_split_0
I0409 16:55:55.836779   759 net.cpp:382] lstm2_h_conted_3 -> h_conted_3
I0409 16:55:55.836839   759 net.cpp:124] Setting up lstm2_h_conted_3
I0409 16:55:55.836848   759 net.cpp:131] Top shape: 1 523 256 (133888)
I0409 16:55:55.836853   759 net.cpp:139] Memory required for data: 81780464
I0409 16:55:55.836858   759 layer_factory.hpp:77] Creating layer lstm2_transform_4
I0409 16:55:55.836869   759 net.cpp:86] Creating Layer lstm2_transform_4
I0409 16:55:55.836874   759 net.cpp:408] lstm2_transform_4 <- h_conted_3
I0409 16:55:55.836884   759 net.cpp:382] lstm2_transform_4 -> W_hc_h_3
I0409 16:55:55.839042   759 net.cpp:124] Setting up lstm2_transform_4
I0409 16:55:55.839056   759 net.cpp:131] Top shape: 1 523 1024 (535552)
I0409 16:55:55.839061   759 net.cpp:139] Memory required for data: 83922672
I0409 16:55:55.839068   759 net.cpp:467] Sharing parameters 'W_hc' owned by layer 'lstm2_transform_1', param index 0
I0409 16:55:55.839088   759 layer_factory.hpp:77] Creating layer lstm2_gate_input_4
I0409 16:55:55.839097   759 net.cpp:86] Creating Layer lstm2_gate_input_4
I0409 16:55:55.839103   759 net.cpp:408] lstm2_gate_input_4 <- W_hc_h_3
I0409 16:55:55.839112   759 net.cpp:408] lstm2_gate_input_4 <- W_xc_x_4
I0409 16:55:55.839123   759 net.cpp:382] lstm2_gate_input_4 -> gate_input_4
I0409 16:55:55.839154   759 net.cpp:124] Setting up lstm2_gate_input_4
I0409 16:55:55.839162   759 net.cpp:131] Top shape: 1 523 1024 (535552)
I0409 16:55:55.839167   759 net.cpp:139] Memory required for data: 86064880
I0409 16:55:55.839172   759 layer_factory.hpp:77] Creating layer lstm2_unit_4
I0409 16:55:55.839179   759 net.cpp:86] Creating Layer lstm2_unit_4
I0409 16:55:55.839184   759 net.cpp:408] lstm2_unit_4 <- c_3
I0409 16:55:55.839188   759 net.cpp:408] lstm2_unit_4 <- gate_input_4
I0409 16:55:55.839192   759 net.cpp:408] lstm2_unit_4 <- cont_4_lstm2_cont_slice_3_split_1
I0409 16:55:55.839200   759 net.cpp:382] lstm2_unit_4 -> c_4
I0409 16:55:55.839206   759 net.cpp:382] lstm2_unit_4 -> h_4
I0409 16:55:55.839251   759 net.cpp:124] Setting up lstm2_unit_4
I0409 16:55:55.839257   759 net.cpp:131] Top shape: 1 523 256 (133888)
I0409 16:55:55.839262   759 net.cpp:131] Top shape: 1 523 256 (133888)
I0409 16:55:55.839263   759 net.cpp:139] Memory required for data: 87135984
I0409 16:55:55.839267   759 layer_factory.hpp:77] Creating layer h_4_lstm2_unit_4_1_split
I0409 16:55:55.839272   759 net.cpp:86] Creating Layer h_4_lstm2_unit_4_1_split
I0409 16:55:55.839275   759 net.cpp:408] h_4_lstm2_unit_4_1_split <- h_4
I0409 16:55:55.839280   759 net.cpp:382] h_4_lstm2_unit_4_1_split -> h_4_lstm2_unit_4_1_split_0
I0409 16:55:55.839289   759 net.cpp:382] h_4_lstm2_unit_4_1_split -> h_4_lstm2_unit_4_1_split_1
I0409 16:55:55.839318   759 net.cpp:124] Setting up h_4_lstm2_unit_4_1_split
I0409 16:55:55.839323   759 net.cpp:131] Top shape: 1 523 256 (133888)
I0409 16:55:55.839327   759 net.cpp:131] Top shape: 1 523 256 (133888)
I0409 16:55:55.839331   759 net.cpp:139] Memory required for data: 88207088
I0409 16:55:55.839334   759 layer_factory.hpp:77] Creating layer lstm2_h_conted_4
I0409 16:55:55.839341   759 net.cpp:86] Creating Layer lstm2_h_conted_4
I0409 16:55:55.839345   759 net.cpp:408] lstm2_h_conted_4 <- h_4_lstm2_unit_4_1_split_0
I0409 16:55:55.839350   759 net.cpp:408] lstm2_h_conted_4 <- cont_5_lstm2_cont_slice_4_split_0
I0409 16:55:55.839354   759 net.cpp:382] lstm2_h_conted_4 -> h_conted_4
I0409 16:55:55.839411   759 net.cpp:124] Setting up lstm2_h_conted_4
I0409 16:55:55.839417   759 net.cpp:131] Top shape: 1 523 256 (133888)
I0409 16:55:55.839421   759 net.cpp:139] Memory required for data: 88742640
I0409 16:55:55.839424   759 layer_factory.hpp:77] Creating layer lstm2_transform_5
I0409 16:55:55.839429   759 net.cpp:86] Creating Layer lstm2_transform_5
I0409 16:55:55.839433   759 net.cpp:408] lstm2_transform_5 <- h_conted_4
I0409 16:55:55.839438   759 net.cpp:382] lstm2_transform_5 -> W_hc_h_4
I0409 16:55:55.841591   759 net.cpp:124] Setting up lstm2_transform_5
I0409 16:55:55.841603   759 net.cpp:131] Top shape: 1 523 1024 (535552)
I0409 16:55:55.841606   759 net.cpp:139] Memory required for data: 90884848
I0409 16:55:55.841611   759 net.cpp:467] Sharing parameters 'W_hc' owned by layer 'lstm2_transform_1', param index 0
I0409 16:55:55.841615   759 layer_factory.hpp:77] Creating layer lstm2_gate_input_5
I0409 16:55:55.841626   759 net.cpp:86] Creating Layer lstm2_gate_input_5
I0409 16:55:55.841630   759 net.cpp:408] lstm2_gate_input_5 <- W_hc_h_4
I0409 16:55:55.841636   759 net.cpp:408] lstm2_gate_input_5 <- W_xc_x_5
I0409 16:55:55.841641   759 net.cpp:382] lstm2_gate_input_5 -> gate_input_5
I0409 16:55:55.841665   759 net.cpp:124] Setting up lstm2_gate_input_5
I0409 16:55:55.841671   759 net.cpp:131] Top shape: 1 523 1024 (535552)
I0409 16:55:55.841675   759 net.cpp:139] Memory required for data: 93027056
I0409 16:55:55.841678   759 layer_factory.hpp:77] Creating layer lstm2_unit_5
I0409 16:55:55.841697   759 net.cpp:86] Creating Layer lstm2_unit_5
I0409 16:55:55.841701   759 net.cpp:408] lstm2_unit_5 <- c_4
I0409 16:55:55.841706   759 net.cpp:408] lstm2_unit_5 <- gate_input_5
I0409 16:55:55.841711   759 net.cpp:408] lstm2_unit_5 <- cont_5_lstm2_cont_slice_4_split_1
I0409 16:55:55.841715   759 net.cpp:382] lstm2_unit_5 -> c_5
I0409 16:55:55.841722   759 net.cpp:382] lstm2_unit_5 -> h_5
I0409 16:55:55.841768   759 net.cpp:124] Setting up lstm2_unit_5
I0409 16:55:55.841773   759 net.cpp:131] Top shape: 1 523 256 (133888)
I0409 16:55:55.841778   759 net.cpp:131] Top shape: 1 523 256 (133888)
I0409 16:55:55.841780   759 net.cpp:139] Memory required for data: 94098160
I0409 16:55:55.841784   759 layer_factory.hpp:77] Creating layer h_5_lstm2_unit_5_1_split
I0409 16:55:55.841789   759 net.cpp:86] Creating Layer h_5_lstm2_unit_5_1_split
I0409 16:55:55.841792   759 net.cpp:408] h_5_lstm2_unit_5_1_split <- h_5
I0409 16:55:55.841799   759 net.cpp:382] h_5_lstm2_unit_5_1_split -> h_5_lstm2_unit_5_1_split_0
I0409 16:55:55.841806   759 net.cpp:382] h_5_lstm2_unit_5_1_split -> h_5_lstm2_unit_5_1_split_1
I0409 16:55:55.841838   759 net.cpp:124] Setting up h_5_lstm2_unit_5_1_split
I0409 16:55:55.841845   759 net.cpp:131] Top shape: 1 523 256 (133888)
I0409 16:55:55.841848   759 net.cpp:131] Top shape: 1 523 256 (133888)
I0409 16:55:55.841851   759 net.cpp:139] Memory required for data: 95169264
I0409 16:55:55.841854   759 layer_factory.hpp:77] Creating layer lstm2_h_conted_5
I0409 16:55:55.841859   759 net.cpp:86] Creating Layer lstm2_h_conted_5
I0409 16:55:55.841863   759 net.cpp:408] lstm2_h_conted_5 <- h_5_lstm2_unit_5_1_split_0
I0409 16:55:55.841868   759 net.cpp:408] lstm2_h_conted_5 <- cont_6_lstm2_cont_slice_5_split_0
I0409 16:55:55.841873   759 net.cpp:382] lstm2_h_conted_5 -> h_conted_5
I0409 16:55:55.841933   759 net.cpp:124] Setting up lstm2_h_conted_5
I0409 16:55:55.841938   759 net.cpp:131] Top shape: 1 523 256 (133888)
I0409 16:55:55.841943   759 net.cpp:139] Memory required for data: 95704816
I0409 16:55:55.841945   759 layer_factory.hpp:77] Creating layer lstm2_transform_6
I0409 16:55:55.841951   759 net.cpp:86] Creating Layer lstm2_transform_6
I0409 16:55:55.841955   759 net.cpp:408] lstm2_transform_6 <- h_conted_5
I0409 16:55:55.841964   759 net.cpp:382] lstm2_transform_6 -> W_hc_h_5
I0409 16:55:55.844110   759 net.cpp:124] Setting up lstm2_transform_6
I0409 16:55:55.844122   759 net.cpp:131] Top shape: 1 523 1024 (535552)
I0409 16:55:55.844125   759 net.cpp:139] Memory required for data: 97847024
I0409 16:55:55.844131   759 net.cpp:467] Sharing parameters 'W_hc' owned by layer 'lstm2_transform_1', param index 0
I0409 16:55:55.844135   759 layer_factory.hpp:77] Creating layer lstm2_gate_input_6
I0409 16:55:55.844141   759 net.cpp:86] Creating Layer lstm2_gate_input_6
I0409 16:55:55.844146   759 net.cpp:408] lstm2_gate_input_6 <- W_hc_h_5
I0409 16:55:55.844151   759 net.cpp:408] lstm2_gate_input_6 <- W_xc_x_6
I0409 16:55:55.844156   759 net.cpp:382] lstm2_gate_input_6 -> gate_input_6
I0409 16:55:55.844182   759 net.cpp:124] Setting up lstm2_gate_input_6
I0409 16:55:55.844189   759 net.cpp:131] Top shape: 1 523 1024 (535552)
I0409 16:55:55.844193   759 net.cpp:139] Memory required for data: 99989232
I0409 16:55:55.844197   759 layer_factory.hpp:77] Creating layer lstm2_unit_6
I0409 16:55:55.844202   759 net.cpp:86] Creating Layer lstm2_unit_6
I0409 16:55:55.844204   759 net.cpp:408] lstm2_unit_6 <- c_5
I0409 16:55:55.844210   759 net.cpp:408] lstm2_unit_6 <- gate_input_6
I0409 16:55:55.844214   759 net.cpp:408] lstm2_unit_6 <- cont_6_lstm2_cont_slice_5_split_1
I0409 16:55:55.844219   759 net.cpp:382] lstm2_unit_6 -> c_6
I0409 16:55:55.844225   759 net.cpp:382] lstm2_unit_6 -> h_6
I0409 16:55:55.844269   759 net.cpp:124] Setting up lstm2_unit_6
I0409 16:55:55.844275   759 net.cpp:131] Top shape: 1 523 256 (133888)
I0409 16:55:55.844281   759 net.cpp:131] Top shape: 1 523 256 (133888)
I0409 16:55:55.844285   759 net.cpp:139] Memory required for data: 101060336
I0409 16:55:55.844300   759 layer_factory.hpp:77] Creating layer h_6_lstm2_unit_6_1_split
I0409 16:55:55.844305   759 net.cpp:86] Creating Layer h_6_lstm2_unit_6_1_split
I0409 16:55:55.844310   759 net.cpp:408] h_6_lstm2_unit_6_1_split <- h_6
I0409 16:55:55.844314   759 net.cpp:382] h_6_lstm2_unit_6_1_split -> h_6_lstm2_unit_6_1_split_0
I0409 16:55:55.844321   759 net.cpp:382] h_6_lstm2_unit_6_1_split -> h_6_lstm2_unit_6_1_split_1
I0409 16:55:55.844357   759 net.cpp:124] Setting up h_6_lstm2_unit_6_1_split
I0409 16:55:55.844362   759 net.cpp:131] Top shape: 1 523 256 (133888)
I0409 16:55:55.844367   759 net.cpp:131] Top shape: 1 523 256 (133888)
I0409 16:55:55.844370   759 net.cpp:139] Memory required for data: 102131440
I0409 16:55:55.844374   759 layer_factory.hpp:77] Creating layer lstm2_h_conted_6
I0409 16:55:55.844379   759 net.cpp:86] Creating Layer lstm2_h_conted_6
I0409 16:55:55.844383   759 net.cpp:408] lstm2_h_conted_6 <- h_6_lstm2_unit_6_1_split_0
I0409 16:55:55.844388   759 net.cpp:408] lstm2_h_conted_6 <- cont_7_lstm2_cont_slice_6_split_0
I0409 16:55:55.844395   759 net.cpp:382] lstm2_h_conted_6 -> h_conted_6
I0409 16:55:55.844450   759 net.cpp:124] Setting up lstm2_h_conted_6
I0409 16:55:55.844456   759 net.cpp:131] Top shape: 1 523 256 (133888)
I0409 16:55:55.844460   759 net.cpp:139] Memory required for data: 102666992
I0409 16:55:55.844463   759 layer_factory.hpp:77] Creating layer lstm2_transform_7
I0409 16:55:55.844473   759 net.cpp:86] Creating Layer lstm2_transform_7
I0409 16:55:55.844476   759 net.cpp:408] lstm2_transform_7 <- h_conted_6
I0409 16:55:55.844482   759 net.cpp:382] lstm2_transform_7 -> W_hc_h_6
I0409 16:55:55.846643   759 net.cpp:124] Setting up lstm2_transform_7
I0409 16:55:55.846662   759 net.cpp:131] Top shape: 1 523 1024 (535552)
I0409 16:55:55.846665   759 net.cpp:139] Memory required for data: 104809200
I0409 16:55:55.846673   759 net.cpp:467] Sharing parameters 'W_hc' owned by layer 'lstm2_transform_1', param index 0
I0409 16:55:55.846676   759 layer_factory.hpp:77] Creating layer lstm2_gate_input_7
I0409 16:55:55.846684   759 net.cpp:86] Creating Layer lstm2_gate_input_7
I0409 16:55:55.846688   759 net.cpp:408] lstm2_gate_input_7 <- W_hc_h_6
I0409 16:55:55.846694   759 net.cpp:408] lstm2_gate_input_7 <- W_xc_x_7
I0409 16:55:55.846699   759 net.cpp:382] lstm2_gate_input_7 -> gate_input_7
I0409 16:55:55.846724   759 net.cpp:124] Setting up lstm2_gate_input_7
I0409 16:55:55.846730   759 net.cpp:131] Top shape: 1 523 1024 (535552)
I0409 16:55:55.846735   759 net.cpp:139] Memory required for data: 106951408
I0409 16:55:55.846737   759 layer_factory.hpp:77] Creating layer lstm2_unit_7
I0409 16:55:55.846742   759 net.cpp:86] Creating Layer lstm2_unit_7
I0409 16:55:55.846745   759 net.cpp:408] lstm2_unit_7 <- c_6
I0409 16:55:55.846750   759 net.cpp:408] lstm2_unit_7 <- gate_input_7
I0409 16:55:55.846755   759 net.cpp:408] lstm2_unit_7 <- cont_7_lstm2_cont_slice_6_split_1
I0409 16:55:55.846761   759 net.cpp:382] lstm2_unit_7 -> c_7
I0409 16:55:55.846768   759 net.cpp:382] lstm2_unit_7 -> h_7
I0409 16:55:55.846812   759 net.cpp:124] Setting up lstm2_unit_7
I0409 16:55:55.846818   759 net.cpp:131] Top shape: 1 523 256 (133888)
I0409 16:55:55.846822   759 net.cpp:131] Top shape: 1 523 256 (133888)
I0409 16:55:55.846825   759 net.cpp:139] Memory required for data: 108022512
I0409 16:55:55.846829   759 layer_factory.hpp:77] Creating layer h_7_lstm2_unit_7_1_split
I0409 16:55:55.846834   759 net.cpp:86] Creating Layer h_7_lstm2_unit_7_1_split
I0409 16:55:55.846837   759 net.cpp:408] h_7_lstm2_unit_7_1_split <- h_7
I0409 16:55:55.846844   759 net.cpp:382] h_7_lstm2_unit_7_1_split -> h_7_lstm2_unit_7_1_split_0
I0409 16:55:55.846851   759 net.cpp:382] h_7_lstm2_unit_7_1_split -> h_7_lstm2_unit_7_1_split_1
I0409 16:55:55.846880   759 net.cpp:124] Setting up h_7_lstm2_unit_7_1_split
I0409 16:55:55.846885   759 net.cpp:131] Top shape: 1 523 256 (133888)
I0409 16:55:55.846889   759 net.cpp:131] Top shape: 1 523 256 (133888)
I0409 16:55:55.846894   759 net.cpp:139] Memory required for data: 109093616
I0409 16:55:55.846909   759 layer_factory.hpp:77] Creating layer lstm2_h_conted_7
I0409 16:55:55.846916   759 net.cpp:86] Creating Layer lstm2_h_conted_7
I0409 16:55:55.846920   759 net.cpp:408] lstm2_h_conted_7 <- h_7_lstm2_unit_7_1_split_0
I0409 16:55:55.846925   759 net.cpp:408] lstm2_h_conted_7 <- cont_8_lstm2_cont_slice_7_split_0
I0409 16:55:55.846930   759 net.cpp:382] lstm2_h_conted_7 -> h_conted_7
I0409 16:55:55.846989   759 net.cpp:124] Setting up lstm2_h_conted_7
I0409 16:55:55.846995   759 net.cpp:131] Top shape: 1 523 256 (133888)
I0409 16:55:55.846999   759 net.cpp:139] Memory required for data: 109629168
I0409 16:55:55.847002   759 layer_factory.hpp:77] Creating layer lstm2_transform_8
I0409 16:55:55.847008   759 net.cpp:86] Creating Layer lstm2_transform_8
I0409 16:55:55.847012   759 net.cpp:408] lstm2_transform_8 <- h_conted_7
I0409 16:55:55.847018   759 net.cpp:382] lstm2_transform_8 -> W_hc_h_7
I0409 16:55:55.849161   759 net.cpp:124] Setting up lstm2_transform_8
I0409 16:55:55.849172   759 net.cpp:131] Top shape: 1 523 1024 (535552)
I0409 16:55:55.849175   759 net.cpp:139] Memory required for data: 111771376
I0409 16:55:55.849181   759 net.cpp:467] Sharing parameters 'W_hc' owned by layer 'lstm2_transform_1', param index 0
I0409 16:55:55.849185   759 layer_factory.hpp:77] Creating layer lstm2_gate_input_8
I0409 16:55:55.849193   759 net.cpp:86] Creating Layer lstm2_gate_input_8
I0409 16:55:55.849197   759 net.cpp:408] lstm2_gate_input_8 <- W_hc_h_7
I0409 16:55:55.849203   759 net.cpp:408] lstm2_gate_input_8 <- W_xc_x_8
I0409 16:55:55.849208   759 net.cpp:382] lstm2_gate_input_8 -> gate_input_8
I0409 16:55:55.849232   759 net.cpp:124] Setting up lstm2_gate_input_8
I0409 16:55:55.849238   759 net.cpp:131] Top shape: 1 523 1024 (535552)
I0409 16:55:55.849241   759 net.cpp:139] Memory required for data: 113913584
I0409 16:55:55.849244   759 layer_factory.hpp:77] Creating layer lstm2_unit_8
I0409 16:55:55.849252   759 net.cpp:86] Creating Layer lstm2_unit_8
I0409 16:55:55.849256   759 net.cpp:408] lstm2_unit_8 <- c_7
I0409 16:55:55.849261   759 net.cpp:408] lstm2_unit_8 <- gate_input_8
I0409 16:55:55.849265   759 net.cpp:408] lstm2_unit_8 <- cont_8_lstm2_cont_slice_7_split_1
I0409 16:55:55.849270   759 net.cpp:382] lstm2_unit_8 -> c_8
I0409 16:55:55.849277   759 net.cpp:382] lstm2_unit_8 -> h_8
I0409 16:55:55.849319   759 net.cpp:124] Setting up lstm2_unit_8
I0409 16:55:55.849324   759 net.cpp:131] Top shape: 1 523 256 (133888)
I0409 16:55:55.849328   759 net.cpp:131] Top shape: 1 523 256 (133888)
I0409 16:55:55.849331   759 net.cpp:139] Memory required for data: 114984688
I0409 16:55:55.849335   759 layer_factory.hpp:77] Creating layer h_8_lstm2_unit_8_1_split
I0409 16:55:55.849340   759 net.cpp:86] Creating Layer h_8_lstm2_unit_8_1_split
I0409 16:55:55.849344   759 net.cpp:408] h_8_lstm2_unit_8_1_split <- h_8
I0409 16:55:55.849350   759 net.cpp:382] h_8_lstm2_unit_8_1_split -> h_8_lstm2_unit_8_1_split_0
I0409 16:55:55.849357   759 net.cpp:382] h_8_lstm2_unit_8_1_split -> h_8_lstm2_unit_8_1_split_1
I0409 16:55:55.849390   759 net.cpp:124] Setting up h_8_lstm2_unit_8_1_split
I0409 16:55:55.849395   759 net.cpp:131] Top shape: 1 523 256 (133888)
I0409 16:55:55.849400   759 net.cpp:131] Top shape: 1 523 256 (133888)
I0409 16:55:55.849402   759 net.cpp:139] Memory required for data: 116055792
I0409 16:55:55.849406   759 layer_factory.hpp:77] Creating layer lstm2_h_conted_8
I0409 16:55:55.849411   759 net.cpp:86] Creating Layer lstm2_h_conted_8
I0409 16:55:55.849414   759 net.cpp:408] lstm2_h_conted_8 <- h_8_lstm2_unit_8_1_split_0
I0409 16:55:55.849419   759 net.cpp:408] lstm2_h_conted_8 <- cont_9_lstm2_cont_slice_8_split_0
I0409 16:55:55.849424   759 net.cpp:382] lstm2_h_conted_8 -> h_conted_8
I0409 16:55:55.849479   759 net.cpp:124] Setting up lstm2_h_conted_8
I0409 16:55:55.849485   759 net.cpp:131] Top shape: 1 523 256 (133888)
I0409 16:55:55.849489   759 net.cpp:139] Memory required for data: 116591344
I0409 16:55:55.849493   759 layer_factory.hpp:77] Creating layer lstm2_transform_9
I0409 16:55:55.849498   759 net.cpp:86] Creating Layer lstm2_transform_9
I0409 16:55:55.849512   759 net.cpp:408] lstm2_transform_9 <- h_conted_8
I0409 16:55:55.849521   759 net.cpp:382] lstm2_transform_9 -> W_hc_h_8
I0409 16:55:55.851686   759 net.cpp:124] Setting up lstm2_transform_9
I0409 16:55:55.851698   759 net.cpp:131] Top shape: 1 523 1024 (535552)
I0409 16:55:55.851701   759 net.cpp:139] Memory required for data: 118733552
I0409 16:55:55.851706   759 net.cpp:467] Sharing parameters 'W_hc' owned by layer 'lstm2_transform_1', param index 0
I0409 16:55:55.851711   759 layer_factory.hpp:77] Creating layer lstm2_gate_input_9
I0409 16:55:55.851716   759 net.cpp:86] Creating Layer lstm2_gate_input_9
I0409 16:55:55.851721   759 net.cpp:408] lstm2_gate_input_9 <- W_hc_h_8
I0409 16:55:55.851727   759 net.cpp:408] lstm2_gate_input_9 <- W_xc_x_9
I0409 16:55:55.851732   759 net.cpp:382] lstm2_gate_input_9 -> gate_input_9
I0409 16:55:55.851758   759 net.cpp:124] Setting up lstm2_gate_input_9
I0409 16:55:55.851764   759 net.cpp:131] Top shape: 1 523 1024 (535552)
I0409 16:55:55.851768   759 net.cpp:139] Memory required for data: 120875760
I0409 16:55:55.851771   759 layer_factory.hpp:77] Creating layer lstm2_unit_9
I0409 16:55:55.851776   759 net.cpp:86] Creating Layer lstm2_unit_9
I0409 16:55:55.851779   759 net.cpp:408] lstm2_unit_9 <- c_8
I0409 16:55:55.851785   759 net.cpp:408] lstm2_unit_9 <- gate_input_9
I0409 16:55:55.851789   759 net.cpp:408] lstm2_unit_9 <- cont_9_lstm2_cont_slice_8_split_1
I0409 16:55:55.851794   759 net.cpp:382] lstm2_unit_9 -> c_9
I0409 16:55:55.851800   759 net.cpp:382] lstm2_unit_9 -> h_9
I0409 16:55:55.851843   759 net.cpp:124] Setting up lstm2_unit_9
I0409 16:55:55.851850   759 net.cpp:131] Top shape: 1 523 256 (133888)
I0409 16:55:55.851855   759 net.cpp:131] Top shape: 1 523 256 (133888)
I0409 16:55:55.851860   759 net.cpp:139] Memory required for data: 121946864
I0409 16:55:55.851862   759 layer_factory.hpp:77] Creating layer h_9_lstm2_unit_9_1_split
I0409 16:55:55.851867   759 net.cpp:86] Creating Layer h_9_lstm2_unit_9_1_split
I0409 16:55:55.851871   759 net.cpp:408] h_9_lstm2_unit_9_1_split <- h_9
I0409 16:55:55.851876   759 net.cpp:382] h_9_lstm2_unit_9_1_split -> h_9_lstm2_unit_9_1_split_0
I0409 16:55:55.851882   759 net.cpp:382] h_9_lstm2_unit_9_1_split -> h_9_lstm2_unit_9_1_split_1
I0409 16:55:55.851917   759 net.cpp:124] Setting up h_9_lstm2_unit_9_1_split
I0409 16:55:55.851922   759 net.cpp:131] Top shape: 1 523 256 (133888)
I0409 16:55:55.851927   759 net.cpp:131] Top shape: 1 523 256 (133888)
I0409 16:55:55.851930   759 net.cpp:139] Memory required for data: 123017968
I0409 16:55:55.851933   759 layer_factory.hpp:77] Creating layer lstm2_h_conted_9
I0409 16:55:55.851938   759 net.cpp:86] Creating Layer lstm2_h_conted_9
I0409 16:55:55.851941   759 net.cpp:408] lstm2_h_conted_9 <- h_9_lstm2_unit_9_1_split_0
I0409 16:55:55.851946   759 net.cpp:408] lstm2_h_conted_9 <- cont_10_lstm2_cont_slice_9_split_0
I0409 16:55:55.851954   759 net.cpp:382] lstm2_h_conted_9 -> h_conted_9
I0409 16:55:55.852012   759 net.cpp:124] Setting up lstm2_h_conted_9
I0409 16:55:55.852020   759 net.cpp:131] Top shape: 1 523 256 (133888)
I0409 16:55:55.852023   759 net.cpp:139] Memory required for data: 123553520
I0409 16:55:55.852026   759 layer_factory.hpp:77] Creating layer lstm2_transform_10
I0409 16:55:55.852036   759 net.cpp:86] Creating Layer lstm2_transform_10
I0409 16:55:55.852039   759 net.cpp:408] lstm2_transform_10 <- h_conted_9
I0409 16:55:55.852046   759 net.cpp:382] lstm2_transform_10 -> W_hc_h_9
I0409 16:55:55.854188   759 net.cpp:124] Setting up lstm2_transform_10
I0409 16:55:55.854200   759 net.cpp:131] Top shape: 1 523 1024 (535552)
I0409 16:55:55.854203   759 net.cpp:139] Memory required for data: 125695728
I0409 16:55:55.854208   759 net.cpp:467] Sharing parameters 'W_hc' owned by layer 'lstm2_transform_1', param index 0
I0409 16:55:55.854212   759 layer_factory.hpp:77] Creating layer lstm2_gate_input_10
I0409 16:55:55.854218   759 net.cpp:86] Creating Layer lstm2_gate_input_10
I0409 16:55:55.854223   759 net.cpp:408] lstm2_gate_input_10 <- W_hc_h_9
I0409 16:55:55.854240   759 net.cpp:408] lstm2_gate_input_10 <- W_xc_x_10
I0409 16:55:55.854246   759 net.cpp:382] lstm2_gate_input_10 -> gate_input_10
I0409 16:55:55.854274   759 net.cpp:124] Setting up lstm2_gate_input_10
I0409 16:55:55.854280   759 net.cpp:131] Top shape: 1 523 1024 (535552)
I0409 16:55:55.854285   759 net.cpp:139] Memory required for data: 127837936
I0409 16:55:55.854288   759 layer_factory.hpp:77] Creating layer lstm2_unit_10
I0409 16:55:55.854293   759 net.cpp:86] Creating Layer lstm2_unit_10
I0409 16:55:55.854296   759 net.cpp:408] lstm2_unit_10 <- c_9
I0409 16:55:55.854302   759 net.cpp:408] lstm2_unit_10 <- gate_input_10
I0409 16:55:55.854306   759 net.cpp:408] lstm2_unit_10 <- cont_10_lstm2_cont_slice_9_split_1
I0409 16:55:55.854311   759 net.cpp:382] lstm2_unit_10 -> c_10
I0409 16:55:55.854317   759 net.cpp:382] lstm2_unit_10 -> h_10
I0409 16:55:55.854363   759 net.cpp:124] Setting up lstm2_unit_10
I0409 16:55:55.854369   759 net.cpp:131] Top shape: 1 523 256 (133888)
I0409 16:55:55.854373   759 net.cpp:131] Top shape: 1 523 256 (133888)
I0409 16:55:55.854377   759 net.cpp:139] Memory required for data: 128909040
I0409 16:55:55.854380   759 layer_factory.hpp:77] Creating layer h_10_lstm2_unit_10_1_split
I0409 16:55:55.854385   759 net.cpp:86] Creating Layer h_10_lstm2_unit_10_1_split
I0409 16:55:55.854388   759 net.cpp:408] h_10_lstm2_unit_10_1_split <- h_10
I0409 16:55:55.854393   759 net.cpp:382] h_10_lstm2_unit_10_1_split -> h_10_lstm2_unit_10_1_split_0
I0409 16:55:55.854400   759 net.cpp:382] h_10_lstm2_unit_10_1_split -> h_10_lstm2_unit_10_1_split_1
I0409 16:55:55.854434   759 net.cpp:124] Setting up h_10_lstm2_unit_10_1_split
I0409 16:55:55.854439   759 net.cpp:131] Top shape: 1 523 256 (133888)
I0409 16:55:55.854444   759 net.cpp:131] Top shape: 1 523 256 (133888)
I0409 16:55:55.854447   759 net.cpp:139] Memory required for data: 129980144
I0409 16:55:55.854450   759 layer_factory.hpp:77] Creating layer lstm2_h_conted_10
I0409 16:55:55.854455   759 net.cpp:86] Creating Layer lstm2_h_conted_10
I0409 16:55:55.854460   759 net.cpp:408] lstm2_h_conted_10 <- h_10_lstm2_unit_10_1_split_0
I0409 16:55:55.854465   759 net.cpp:408] lstm2_h_conted_10 <- cont_11_lstm2_cont_slice_10_split_0
I0409 16:55:55.854472   759 net.cpp:382] lstm2_h_conted_10 -> h_conted_10
I0409 16:55:55.854534   759 net.cpp:124] Setting up lstm2_h_conted_10
I0409 16:55:55.854540   759 net.cpp:131] Top shape: 1 523 256 (133888)
I0409 16:55:55.854544   759 net.cpp:139] Memory required for data: 130515696
I0409 16:55:55.854547   759 layer_factory.hpp:77] Creating layer lstm2_transform_11
I0409 16:55:55.854557   759 net.cpp:86] Creating Layer lstm2_transform_11
I0409 16:55:55.854560   759 net.cpp:408] lstm2_transform_11 <- h_conted_10
I0409 16:55:55.854565   759 net.cpp:382] lstm2_transform_11 -> W_hc_h_10
I0409 16:55:55.856725   759 net.cpp:124] Setting up lstm2_transform_11
I0409 16:55:55.856737   759 net.cpp:131] Top shape: 1 523 1024 (535552)
I0409 16:55:55.856741   759 net.cpp:139] Memory required for data: 132657904
I0409 16:55:55.856746   759 net.cpp:467] Sharing parameters 'W_hc' owned by layer 'lstm2_transform_1', param index 0
I0409 16:55:55.856750   759 layer_factory.hpp:77] Creating layer lstm2_gate_input_11
I0409 16:55:55.856757   759 net.cpp:86] Creating Layer lstm2_gate_input_11
I0409 16:55:55.856760   759 net.cpp:408] lstm2_gate_input_11 <- W_hc_h_10
I0409 16:55:55.856766   759 net.cpp:408] lstm2_gate_input_11 <- W_xc_x_11
I0409 16:55:55.856771   759 net.cpp:382] lstm2_gate_input_11 -> gate_input_11
I0409 16:55:55.856801   759 net.cpp:124] Setting up lstm2_gate_input_11
I0409 16:55:55.856806   759 net.cpp:131] Top shape: 1 523 1024 (535552)
I0409 16:55:55.856811   759 net.cpp:139] Memory required for data: 134800112
I0409 16:55:55.856813   759 layer_factory.hpp:77] Creating layer lstm2_unit_11
I0409 16:55:55.856819   759 net.cpp:86] Creating Layer lstm2_unit_11
I0409 16:55:55.856822   759 net.cpp:408] lstm2_unit_11 <- c_10
I0409 16:55:55.856827   759 net.cpp:408] lstm2_unit_11 <- gate_input_11
I0409 16:55:55.856844   759 net.cpp:408] lstm2_unit_11 <- cont_11_lstm2_cont_slice_10_split_1
I0409 16:55:55.856850   759 net.cpp:382] lstm2_unit_11 -> c_11
I0409 16:55:55.856856   759 net.cpp:382] lstm2_unit_11 -> h_11
I0409 16:55:55.856905   759 net.cpp:124] Setting up lstm2_unit_11
I0409 16:55:55.856911   759 net.cpp:131] Top shape: 1 523 256 (133888)
I0409 16:55:55.856917   759 net.cpp:131] Top shape: 1 523 256 (133888)
I0409 16:55:55.856920   759 net.cpp:139] Memory required for data: 135871216
I0409 16:55:55.856926   759 layer_factory.hpp:77] Creating layer h_11_lstm2_unit_11_1_split
I0409 16:55:55.856931   759 net.cpp:86] Creating Layer h_11_lstm2_unit_11_1_split
I0409 16:55:55.856935   759 net.cpp:408] h_11_lstm2_unit_11_1_split <- h_11
I0409 16:55:55.856940   759 net.cpp:382] h_11_lstm2_unit_11_1_split -> h_11_lstm2_unit_11_1_split_0
I0409 16:55:55.856947   759 net.cpp:382] h_11_lstm2_unit_11_1_split -> h_11_lstm2_unit_11_1_split_1
I0409 16:55:55.856981   759 net.cpp:124] Setting up h_11_lstm2_unit_11_1_split
I0409 16:55:55.856986   759 net.cpp:131] Top shape: 1 523 256 (133888)
I0409 16:55:55.856990   759 net.cpp:131] Top shape: 1 523 256 (133888)
I0409 16:55:55.856994   759 net.cpp:139] Memory required for data: 136942320
I0409 16:55:55.856997   759 layer_factory.hpp:77] Creating layer lstm2_h_conted_11
I0409 16:55:55.857002   759 net.cpp:86] Creating Layer lstm2_h_conted_11
I0409 16:55:55.857007   759 net.cpp:408] lstm2_h_conted_11 <- h_11_lstm2_unit_11_1_split_0
I0409 16:55:55.857012   759 net.cpp:408] lstm2_h_conted_11 <- cont_12_lstm2_cont_slice_11_split_0
I0409 16:55:55.857018   759 net.cpp:382] lstm2_h_conted_11 -> h_conted_11
I0409 16:55:55.857081   759 net.cpp:124] Setting up lstm2_h_conted_11
I0409 16:55:55.857087   759 net.cpp:131] Top shape: 1 523 256 (133888)
I0409 16:55:55.857091   759 net.cpp:139] Memory required for data: 137477872
I0409 16:55:55.857095   759 layer_factory.hpp:77] Creating layer lstm2_transform_12
I0409 16:55:55.857102   759 net.cpp:86] Creating Layer lstm2_transform_12
I0409 16:55:55.857106   759 net.cpp:408] lstm2_transform_12 <- h_conted_11
I0409 16:55:55.857112   759 net.cpp:382] lstm2_transform_12 -> W_hc_h_11
I0409 16:55:55.859277   759 net.cpp:124] Setting up lstm2_transform_12
I0409 16:55:55.859288   759 net.cpp:131] Top shape: 1 523 1024 (535552)
I0409 16:55:55.859292   759 net.cpp:139] Memory required for data: 139620080
I0409 16:55:55.859297   759 net.cpp:467] Sharing parameters 'W_hc' owned by layer 'lstm2_transform_1', param index 0
I0409 16:55:55.859300   759 layer_factory.hpp:77] Creating layer lstm2_gate_input_12
I0409 16:55:55.859306   759 net.cpp:86] Creating Layer lstm2_gate_input_12
I0409 16:55:55.859310   759 net.cpp:408] lstm2_gate_input_12 <- W_hc_h_11
I0409 16:55:55.859316   759 net.cpp:408] lstm2_gate_input_12 <- W_xc_x_12
I0409 16:55:55.859323   759 net.cpp:382] lstm2_gate_input_12 -> gate_input_12
I0409 16:55:55.859349   759 net.cpp:124] Setting up lstm2_gate_input_12
I0409 16:55:55.859355   759 net.cpp:131] Top shape: 1 523 1024 (535552)
I0409 16:55:55.859359   759 net.cpp:139] Memory required for data: 141762288
I0409 16:55:55.859362   759 layer_factory.hpp:77] Creating layer lstm2_unit_12
I0409 16:55:55.859367   759 net.cpp:86] Creating Layer lstm2_unit_12
I0409 16:55:55.859370   759 net.cpp:408] lstm2_unit_12 <- c_11
I0409 16:55:55.859375   759 net.cpp:408] lstm2_unit_12 <- gate_input_12
I0409 16:55:55.859380   759 net.cpp:408] lstm2_unit_12 <- cont_12_lstm2_cont_slice_11_split_1
I0409 16:55:55.859390   759 net.cpp:382] lstm2_unit_12 -> c_12
I0409 16:55:55.859396   759 net.cpp:382] lstm2_unit_12 -> h_12
I0409 16:55:55.859442   759 net.cpp:124] Setting up lstm2_unit_12
I0409 16:55:55.859448   759 net.cpp:131] Top shape: 1 523 256 (133888)
I0409 16:55:55.859452   759 net.cpp:131] Top shape: 1 523 256 (133888)
I0409 16:55:55.859455   759 net.cpp:139] Memory required for data: 142833392
I0409 16:55:55.859459   759 layer_factory.hpp:77] Creating layer h_12_lstm2_unit_12_1_split
I0409 16:55:55.859464   759 net.cpp:86] Creating Layer h_12_lstm2_unit_12_1_split
I0409 16:55:55.859479   759 net.cpp:408] h_12_lstm2_unit_12_1_split <- h_12
I0409 16:55:55.859485   759 net.cpp:382] h_12_lstm2_unit_12_1_split -> h_12_lstm2_unit_12_1_split_0
I0409 16:55:55.859495   759 net.cpp:382] h_12_lstm2_unit_12_1_split -> h_12_lstm2_unit_12_1_split_1
I0409 16:55:55.859527   759 net.cpp:124] Setting up h_12_lstm2_unit_12_1_split
I0409 16:55:55.859534   759 net.cpp:131] Top shape: 1 523 256 (133888)
I0409 16:55:55.859537   759 net.cpp:131] Top shape: 1 523 256 (133888)
I0409 16:55:55.859541   759 net.cpp:139] Memory required for data: 143904496
I0409 16:55:55.859544   759 layer_factory.hpp:77] Creating layer lstm2_h_conted_12
I0409 16:55:55.859552   759 net.cpp:86] Creating Layer lstm2_h_conted_12
I0409 16:55:55.859556   759 net.cpp:408] lstm2_h_conted_12 <- h_12_lstm2_unit_12_1_split_0
I0409 16:55:55.859561   759 net.cpp:408] lstm2_h_conted_12 <- cont_13_lstm2_cont_slice_12_split_0
I0409 16:55:55.859566   759 net.cpp:382] lstm2_h_conted_12 -> h_conted_12
I0409 16:55:55.859627   759 net.cpp:124] Setting up lstm2_h_conted_12
I0409 16:55:55.859632   759 net.cpp:131] Top shape: 1 523 256 (133888)
I0409 16:55:55.859637   759 net.cpp:139] Memory required for data: 144440048
I0409 16:55:55.859639   759 layer_factory.hpp:77] Creating layer lstm2_transform_13
I0409 16:55:55.859645   759 net.cpp:86] Creating Layer lstm2_transform_13
I0409 16:55:55.859649   759 net.cpp:408] lstm2_transform_13 <- h_conted_12
I0409 16:55:55.859655   759 net.cpp:382] lstm2_transform_13 -> W_hc_h_12
I0409 16:55:55.861804   759 net.cpp:124] Setting up lstm2_transform_13
I0409 16:55:55.861816   759 net.cpp:131] Top shape: 1 523 1024 (535552)
I0409 16:55:55.861819   759 net.cpp:139] Memory required for data: 146582256
I0409 16:55:55.861825   759 net.cpp:467] Sharing parameters 'W_hc' owned by layer 'lstm2_transform_1', param index 0
I0409 16:55:55.861829   759 layer_factory.hpp:77] Creating layer lstm2_gate_input_13
I0409 16:55:55.861837   759 net.cpp:86] Creating Layer lstm2_gate_input_13
I0409 16:55:55.861841   759 net.cpp:408] lstm2_gate_input_13 <- W_hc_h_12
I0409 16:55:55.861846   759 net.cpp:408] lstm2_gate_input_13 <- W_xc_x_13
I0409 16:55:55.861851   759 net.cpp:382] lstm2_gate_input_13 -> gate_input_13
I0409 16:55:55.861876   759 net.cpp:124] Setting up lstm2_gate_input_13
I0409 16:55:55.861882   759 net.cpp:131] Top shape: 1 523 1024 (535552)
I0409 16:55:55.861886   759 net.cpp:139] Memory required for data: 148724464
I0409 16:55:55.861889   759 layer_factory.hpp:77] Creating layer lstm2_unit_13
I0409 16:55:55.861896   759 net.cpp:86] Creating Layer lstm2_unit_13
I0409 16:55:55.861901   759 net.cpp:408] lstm2_unit_13 <- c_12
I0409 16:55:55.861905   759 net.cpp:408] lstm2_unit_13 <- gate_input_13
I0409 16:55:55.861909   759 net.cpp:408] lstm2_unit_13 <- cont_13_lstm2_cont_slice_12_split_1
I0409 16:55:55.861914   759 net.cpp:382] lstm2_unit_13 -> c_13
I0409 16:55:55.861920   759 net.cpp:382] lstm2_unit_13 -> h_13
I0409 16:55:55.861965   759 net.cpp:124] Setting up lstm2_unit_13
I0409 16:55:55.861970   759 net.cpp:131] Top shape: 1 523 256 (133888)
I0409 16:55:55.861975   759 net.cpp:131] Top shape: 1 523 256 (133888)
I0409 16:55:55.861977   759 net.cpp:139] Memory required for data: 149795568
I0409 16:55:55.861981   759 layer_factory.hpp:77] Creating layer lstm2_
I0409 16:55:55.861986   759 net.cpp:86] Creating Layer lstm2_
I0409 16:55:55.861989   759 net.cpp:408] lstm2_ <- c_13
I0409 16:55:55.861999   759 net.cpp:382] lstm2_ -> c_T
I0409 16:55:55.862020   759 net.cpp:124] Setting up lstm2_
I0409 16:55:55.862026   759 net.cpp:131] Top shape: 1 523 256 (133888)
I0409 16:55:55.862030   759 net.cpp:139] Memory required for data: 150331120
I0409 16:55:55.862032   759 layer_factory.hpp:77] Creating layer lstm2_h_concat
I0409 16:55:55.862040   759 net.cpp:86] Creating Layer lstm2_h_concat
I0409 16:55:55.862043   759 net.cpp:408] lstm2_h_concat <- h_1_lstm2_unit_1_1_split_1
I0409 16:55:55.862049   759 net.cpp:408] lstm2_h_concat <- h_2_lstm2_unit_2_1_split_1
…
I0409 16:55:55.867295   759 net.cpp:202] lstm2_ does not need backward computation.
I0409 16:55:55.867298   759 net.cpp:244] This network produces output c_T
I0409 16:55:55.867303   759 net.cpp:244] This network produces output h_pseudoloss
I0409 16:55:55.870442   759 net.cpp:257] Network initialization done.
I0409 16:55:55.870579   759 recurrent_layer.cpp:150] Adding parameter 0: W_xc
I0409 16:55:55.870584   759 recurrent_layer.cpp:150] Adding parameter 1: b_c
I0409 16:55:55.870589   759 recurrent_layer.cpp:150] Adding parameter 2: W_hc
I0409 16:55:55.872526   759 net.cpp:124] Setting up lstm2
I0409 16:55:55.872539   759 net.cpp:131] Top shape: 13 523 256 (1740544)
I0409 16:55:55.872543   759 net.cpp:139] Memory required for data: 3358827336
I0409 16:55:55.872552   759 layer_factory.hpp:77] Creating layer fc1
I0409 16:55:55.872560   759 net.cpp:86] Creating Layer fc1
I0409 16:55:55.872565   759 net.cpp:408] fc1 <- lstm2
I0409 16:55:55.872571   759 net.cpp:382] fc1 -> fc1
I0409 16:55:55.872710   759 net.cpp:124] Setting up fc1
I0409 16:55:55.872717   759 net.cpp:131] Top shape: 13 523 11 (74789)
I0409 16:55:55.872720   759 net.cpp:139] Memory required for data: 3359126492
I0409 16:55:55.872727   759 layer_factory.hpp:77] Creating layer fc1_fc1_0_split
I0409 16:55:55.872733   759 net.cpp:86] Creating Layer fc1_fc1_0_split
I0409 16:55:55.872737   759 net.cpp:408] fc1_fc1_0_split <- fc1
I0409 16:55:55.872742   759 net.cpp:382] fc1_fc1_0_split -> fc1_fc1_0_split_0
I0409 16:55:55.872748   759 net.cpp:382] fc1_fc1_0_split -> fc1_fc1_0_split_1
I0409 16:55:55.872782   759 net.cpp:124] Setting up fc1_fc1_0_split
I0409 16:55:55.872788   759 net.cpp:131] Top shape: 13 523 11 (74789)
I0409 16:55:55.872792   759 net.cpp:131] Top shape: 13 523 11 (74789)
I0409 16:55:55.872795   759 net.cpp:139] Memory required for data: 3359724804
I0409 16:55:55.872799   759 layer_factory.hpp:77] Creating layer ctc_loss
I0409 16:55:55.872807   759 net.cpp:86] Creating Layer ctc_loss
I0409 16:55:55.872810   759 net.cpp:408] ctc_loss <- fc1_fc1_0_split_0
I0409 16:55:55.872814   759 net.cpp:408] ctc_loss <- label_data_1_split_0
I0409 16:55:55.872820   759 net.cpp:382] ctc_loss -> ctc_loss
I0409 16:55:55.872848   759 net.cpp:124] Setting up ctc_loss
I0409 16:55:55.872854   759 net.cpp:131] Top shape: (1)
I0409 16:55:55.872858   759 net.cpp:134]     with loss weight 1
I0409 16:55:55.872864   759 net.cpp:139] Memory required for data: 3359724808
I0409 16:55:55.872867   759 layer_factory.hpp:77] Creating layer permute_fc
I0409 16:55:55.872874   759 net.cpp:86] Creating Layer permute_fc
I0409 16:55:55.872877   759 net.cpp:408] permute_fc <- fc1_fc1_0_split_1
I0409 16:55:55.872884   759 net.cpp:382] permute_fc -> premuted_fc
I0409 16:55:55.872974   759 net.cpp:124] Setting up permute_fc
I0409 16:55:55.872982   759 net.cpp:131] Top shape: 523 13 11 (74789)
I0409 16:55:55.872984   759 net.cpp:139] Memory required for data: 3360023964
I0409 16:55:55.873000   759 layer_factory.hpp:77] Creating layer accuracy
I0409 16:55:55.873008   759 net.cpp:86] Creating Layer accuracy
I0409 16:55:55.873010   759 net.cpp:408] accuracy <- premuted_fc
I0409 16:55:55.873015   759 net.cpp:408] accuracy <- label_data_1_split_1
I0409 16:55:55.873023   759 net.cpp:382] accuracy -> accuracy
…
