…
I0409 11:11:51.687743 46620 net.cpp:296] The NetState phase (0) differed from the phase (1) specified by a rule in layer bn_conv5
I0409 11:11:51.687749 46620 net.cpp:296] The NetState phase (0) differed from the phase (1) specified by a rule in layer bn_conv6
I0409 11:11:51.687989 46620 net.cpp:53] Initializing net from parameters: 
name: "crnn"
state {
  phase: TRAIN
  level: 0
  stage: ""
}
layer {
  name: "data"
  type: "HDF5Data"
  top: "data"
  top: "label"
  include {
    phase: TRAIN
  }
  hdf5_data_param {
    source: "./data/captcha/trainning.list"
    batch_size: 523
  }
}
layer {
  name: "conv0"
  type: "Convolution"
  bottom: "data"
  top: "conv0"
  param {
    lr_mult: 1
  }
  param {
    lr_mult: 2
  }
  convolution_param {
    num_output: 64
    pad: 1
    kernel_size: 3
    stride: 2
    weight_filler {
      type: "xavier"
    }
    bias_filler {
      type: "constant"
    }
  }
}
layer {
  name: "bn_conv0"
  type: "BatchNorm"
  bottom: "conv0"
  top: "conv0"
  include {
    phase: TRAIN
  }
  batch_norm_param {
    use_global_stats: false
  }
}
layer {
  name: "scale_conv0"
  type: "Scale"
  bottom: "conv0"
  top: "conv0"
  scale_param {
    bias_term: true
  }
}
layer {
  name: "relu0"
  type: "ReLU"
  bottom: "conv0"
  top: "conv0"
}
layer {
  name: "conv1"
  type: "Convolution"
  bottom: "conv0"
  top: "conv1"
  param {
    lr_mult: 1
  }
  param {
    lr_mult: 2
  }
  convolution_param {
    num_output: 128
    pad: 1
    kernel_size: 3
    stride: 1
    weight_filler {
      type: "xavier"
    }
    bias_filler {
      type: "constant"
    }
  }
}
layer {
  name: "bn_conv1"
  type: "BatchNorm"
  bottom: "conv1"
  top: "conv1"
  include {
    phase: TRAIN
  }
  batch_norm_param {
    use_global_stats: false
  }
}
layer {
  name: "scale_conv1"
  type: "Scale"
  bottom: "conv1"
  top: "conv1"
  scale_param {
    bias_term: true
  }
}
layer {
  name: "relu1"
  type: "ReLU"
  bottom: "conv1"
  top: "conv1"
}
layer {
  name: "pool1"
  type: "Pooling"
  bottom: "conv1"
  top: "pool1"
  pooling_param {
    pool: MAX
    kernel_size: 2
    stride: 2
  }
}
layer {
  name: "conv2"
  type: "Convolution"
  bottom: "pool1"
  top: "conv2"
  param {
    lr_mult: 1
  }
  param {
    lr_mult: 2
  }
  convolution_param {
    num_output: 256
    pad: 1
    kernel_size: 3
    stride: 1
    weight_filler {
      type: "xavier"
    }
    bias_filler {
      type: "constant"
    }
  }
}
layer {
  name: "bn_conv2"
  type: "BatchNorm"
  bottom: "conv2"
  top: "conv2"
  include {
    phase: TRAIN
  }
  batch_norm_param {
    use_global_stats: false
  }
}
layer {
  name: "scale_conv2"
  type: "Scale"
  bottom: "conv2"
  top: "conv2"
  scale_param {
    bias_term: true
  }
}
layer {
  name: "relu2"
  type: "ReLU"
  bottom: "conv2"
  top: "conv2"
}
layer {
  name: "conv3"
  type: "Convolution"
  bottom: "conv2"
  top: "conv3"
  param {
    lr_mult: 1
  }
  param {
    lr_mult: 2
  }
  convolution_param {
    num_output: 256
    pad: 1
    kernel_size: 3
    stride: 1
    weight_filler {
      type: "xavier"
    }
    bias_filler {
      type: "constant"
    }
  }
}
layer {
  name: "bn_conv3"
  type: "BatchNorm"
  bottom: "conv3"
  top: "conv3"
  include {
    phase: TRAIN
  }
  batch_norm_param {
    use_global_stats: false
  }
}
layer {
  name: "scale_conv3"
  type: "Scale"
  bottom: "conv3"
  top: "conv3"
  scale_param {
    bias_term: true
  }
}
layer {
  name: "relu3"
  type: "ReLU"
  bottom: "conv3"
  top: "conv3"
}
layer {
  name: "pool2"
  type: "Pooling"
  bottom: "conv3"
  top: "pool2"
  pooling_param {
    pool: MAX
    kernel_size: 2
    stride: 2
  }
}
layer {
  name: "conv4"
  type: "Convolution"
  bottom: "pool2"
  top: "conv4"
  param {
    lr_mult: 1
  }
  param {
    lr_mult: 2
  }
  convolution_param {
    num_output: 512
    pad: 1
    kernel_size: 3
    stride: 1
    weight_filler {
      type: "xavier"
    }
    bias_filler {
      type: "constant"
    }
  }
}
layer {
  name: "bn_conv4"
  type: "BatchNorm"
  bottom: "conv4"
  top: "conv4"
  include {
    phase: TRAIN
  }
  batch_norm_param {
    use_global_stats: false
  }
}
layer {
  name: "scale_conv4"
  type: "Scale"
  bottom: "conv4"
  top: "conv4"
  scale_param {
    bias_term: true
  }
}
layer {
  name: "relu4"
  type: "ReLU"
  bottom: "conv4"
  top: "conv4"
}
layer {
  name: "conv5"
  type: "Convolution"
  bottom: "conv4"
  top: "conv5"
  param {
    lr_mult: 1
  }
  param {
    lr_mult: 2
  }
  convolution_param {
    num_output: 512
    kernel_size: 3
    stride: 1
    weight_filler {
      type: "xavier"
    }
    bias_filler {
      type: "constant"
    }
  }
}
layer {
  name: "bn_conv5"
  type: "BatchNorm"
  bottom: "conv5"
  top: "conv5"
  include {
    phase: TRAIN
  }
  batch_norm_param {
    use_global_stats: false
  }
}
layer {
  name: "scale_conv5"
  type: "Scale"
  bottom: "conv5"
  top: "conv5"
  scale_param {
    bias_term: true
  }
}
layer {
  name: "relu5"
  type: "ReLU"
  bottom: "conv5"
  top: "conv5"
}
layer {
  name: "conv6"
  type: "Convolution"
  bottom: "conv5"
  top: "conv6"
  param {
    lr_mult: 1
  }
  param {
    lr_mult: 2
  }
  convolution_param {
    num_output: 512
    kernel_size: 2
    stride: 1
    weight_filler {
      type: "xavier"
    }
    bias_filler {
      type: "constant"
    }
  }
}
layer {
  name: "bn_conv6"
  type: "BatchNorm"
  bottom: "conv6"
  top: "conv6"
  include {
    phase: TRAIN
  }
  batch_norm_param {
    use_global_stats: false
  }
}
layer {
  name: "scale_conv6"
  type: "Scale"
  bottom: "conv6"
  top: "conv6"
  scale_param {
    bias_term: true
  }
}
layer {
  name: "relu6"
  type: "ReLU"
  bottom: "conv6"
  top: "conv6"
}
layer {
  name: "reshape"
  type: "Reshape"
  bottom: "conv6"
  top: "reshape"
  reshape_param {
    shape {
      dim: 523
      dim: 512
      dim: 13
    }
  }
}
layer {
  name: "permuted_data"
  type: "Permute"
  bottom: "reshape"
  top: "permuted_data"
  permute_param {
    order: 2
    order: 0
    order: 1
  }
}
layer {
  name: "indicator"
  type: "ContinuationIndicator"
  top: "indicator"
  continuation_indicator_param {
    time_step: 13
    batch_size: 523
  }
}
layer {
  name: "lstm1"
  type: "LSTM"
  bottom: "permuted_data"
  bottom: "indicator"
  top: "lstm1"
  recurrent_param {
    num_output: 128
    weight_filler {
      type: "xavier"
    }
    bias_filler {
      type: "constant"
      value: 0
    }
  }
}
layer {
  name: "lstm2"
  type: "LSTM"
  bottom: "lstm1"
  bottom: "indicator"
  top: "lstm2"
  recurrent_param {
    num_output: 256
    weight_filler {
      type: "xavier"
    }
    bias_filler {
      type: "constant"
      value: 0
    }
  }
}
layer {
  name: "fc1"
  type: "InnerProduct"
  bottom: "lstm2"
  top: "fc1"
  param {
    lr_mult: 1
    decay_mult: 1
  }
  param {
    lr_mult: 2
    decay_mult: 0
  }
  inner_product_param {
    num_output: 11
    weight_filler {
      type: "xavier"
    }
    bias_filler {
      type: "constant"
      value: 0
    }
    axis: 2
  }
}
layer {
  name: "ctc_loss"
  type: "CtcLoss"
  bottom: "fc1"
  bottom: "label"
  top: "ctc_loss"
  loss_weight: 1
  ctc_loss_param {
    alphabet_size: 11
    time_step: 13
    blank_label: 10
  }
}
layer {
  name: "permute_fc"
  type: "Permute"
  bottom: "fc1"
  top: "premuted_fc"
  permute_param {
    order: 1
    order: 0
    order: 2
  }
}
layer {
  name: "accuracy"
  type: "LabelsequenceAccuracy"
  bottom: "premuted_fc"
  bottom: "label"
  top: "accuracy"
  labelsequence_accuracy_param {
    blank_label: 10
  }
}
I0409 11:11:51.688223 46620 layer_factory.hpp:77] Creating layer data
I0409 11:11:51.688242 46620 net.cpp:86] Creating Layer data
I0409 11:11:51.688251 46620 net.cpp:382] data -> data
I0409 11:11:51.688280 46620 net.cpp:382] data -> label
I0409 11:11:51.688294 46620 hdf5_data_layer.cpp:79] Loading list of HDF5 filenames from: ./data/captcha/trainning.list
I0409 11:11:51.688336 46620 hdf5_data_layer.cpp:93] Number of HDF5 files: 4
I0409 11:11:51.689713 46620 hdf5.cpp:32] Datatype class: H5T_FLOAT
I0409 11:11:52.667841 46620 net.cpp:124] Setting up data
I0409 11:11:52.667891 46620 net.cpp:131] Top shape: 523 3 32 128 (6426624)
I0409 11:11:52.667897 46620 net.cpp:131] Top shape: 523 5 (2615)
I0409 11:11:52.667901 46620 net.cpp:139] Memory required for data: 25716956
I0409 11:11:52.667912 46620 layer_factory.hpp:77] Creating layer label_data_1_split
I0409 11:11:52.667929 46620 net.cpp:86] Creating Layer label_data_1_split
I0409 11:11:52.667939 46620 net.cpp:408] label_data_1_split <- label
I0409 11:11:52.667956 46620 net.cpp:382] label_data_1_split -> label_data_1_split_0
I0409 11:11:52.667969 46620 net.cpp:382] label_data_1_split -> label_data_1_split_1
I0409 11:11:52.668007 46620 net.cpp:124] Setting up label_data_1_split
I0409 11:11:52.668015 46620 net.cpp:131] Top shape: 523 5 (2615)
I0409 11:11:52.668020 46620 net.cpp:131] Top shape: 523 5 (2615)
I0409 11:11:52.668025 46620 net.cpp:139] Memory required for data: 25737876
I0409 11:11:52.668028 46620 layer_factory.hpp:77] Creating layer conv0
I0409 11:11:52.668061 46620 net.cpp:86] Creating Layer conv0
I0409 11:11:52.668066 46620 net.cpp:408] conv0 <- data
I0409 11:11:52.668073 46620 net.cpp:382] conv0 -> conv0
I0409 11:11:52.669744 46620 net.cpp:124] Setting up conv0
I0409 11:11:52.669759 46620 net.cpp:131] Top shape: 523 64 16 64 (34275328)
I0409 11:11:52.669764 46620 net.cpp:139] Memory required for data: 162839188
I0409 11:11:52.669790 46620 layer_factory.hpp:77] Creating layer bn_conv0
I0409 11:11:52.669801 46620 net.cpp:86] Creating Layer bn_conv0
I0409 11:11:52.669806 46620 net.cpp:408] bn_conv0 <- conv0
I0409 11:11:52.669811 46620 net.cpp:369] bn_conv0 -> conv0 (in-place)
I0409 11:11:52.669965 46620 net.cpp:124] Setting up bn_conv0
I0409 11:11:52.669975 46620 net.cpp:131] Top shape: 523 64 16 64 (34275328)
I0409 11:11:52.669978 46620 net.cpp:139] Memory required for data: 299940500
I0409 11:11:52.669989 46620 layer_factory.hpp:77] Creating layer scale_conv0
I0409 11:11:52.669997 46620 net.cpp:86] Creating Layer scale_conv0
I0409 11:11:52.670002 46620 net.cpp:408] scale_conv0 <- conv0
I0409 11:11:52.670007 46620 net.cpp:369] scale_conv0 -> conv0 (in-place)
I0409 11:11:52.670047 46620 layer_factory.hpp:77] Creating layer scale_conv0
I0409 11:11:52.670142 46620 net.cpp:124] Setting up scale_conv0
I0409 11:11:52.670150 46620 net.cpp:131] Top shape: 523 64 16 64 (34275328)
I0409 11:11:52.670155 46620 net.cpp:139] Memory required for data: 437041812
I0409 11:11:52.670161 46620 layer_factory.hpp:77] Creating layer relu0
I0409 11:11:52.670166 46620 net.cpp:86] Creating Layer relu0
I0409 11:11:52.670171 46620 net.cpp:408] relu0 <- conv0
I0409 11:11:52.670176 46620 net.cpp:369] relu0 -> conv0 (in-place)
I0409 11:11:52.670181 46620 net.cpp:124] Setting up relu0
I0409 11:11:52.670186 46620 net.cpp:131] Top shape: 523 64 16 64 (34275328)
I0409 11:11:52.670189 46620 net.cpp:139] Memory required for data: 574143124
I0409 11:11:52.670217 46620 layer_factory.hpp:77] Creating layer conv1
I0409 11:11:52.670226 46620 net.cpp:86] Creating Layer conv1
I0409 11:11:52.670230 46620 net.cpp:408] conv1 <- conv0
I0409 11:11:52.670236 46620 net.cpp:382] conv1 -> conv1
I0409 11:11:52.670855 46620 net.cpp:124] Setting up conv1
I0409 11:11:52.670866 46620 net.cpp:131] Top shape: 523 128 16 64 (68550656)
I0409 11:11:52.670868 46620 net.cpp:139] Memory required for data: 848345748
I0409 11:11:52.670877 46620 layer_factory.hpp:77] Creating layer bn_conv1
I0409 11:11:52.670883 46620 net.cpp:86] Creating Layer bn_conv1
I0409 11:11:52.670887 46620 net.cpp:408] bn_conv1 <- conv1
I0409 11:11:52.670892 46620 net.cpp:369] bn_conv1 -> conv1 (in-place)
I0409 11:11:52.671030 46620 net.cpp:124] Setting up bn_conv1
I0409 11:11:52.671038 46620 net.cpp:131] Top shape: 523 128 16 64 (68550656)
I0409 11:11:52.671042 46620 net.cpp:139] Memory required for data: 1122548372
I0409 11:11:52.671049 46620 layer_factory.hpp:77] Creating layer scale_conv1
I0409 11:11:52.671056 46620 net.cpp:86] Creating Layer scale_conv1
I0409 11:11:52.671061 46620 net.cpp:408] scale_conv1 <- conv1
I0409 11:11:52.671066 46620 net.cpp:369] scale_conv1 -> conv1 (in-place)
I0409 11:11:52.671094 46620 layer_factory.hpp:77] Creating layer scale_conv1
I0409 11:11:52.671178 46620 net.cpp:124] Setting up scale_conv1
I0409 11:11:52.671185 46620 net.cpp:131] Top shape: 523 128 16 64 (68550656)
I0409 11:11:52.671188 46620 net.cpp:139] Memory required for data: 1396750996
I0409 11:11:52.671195 46620 layer_factory.hpp:77] Creating layer relu1
I0409 11:11:52.671200 46620 net.cpp:86] Creating Layer relu1
I0409 11:11:52.671203 46620 net.cpp:408] relu1 <- conv1
I0409 11:11:52.671208 46620 net.cpp:369] relu1 -> conv1 (in-place)
I0409 11:11:52.671213 46620 net.cpp:124] Setting up relu1
I0409 11:11:52.671218 46620 net.cpp:131] Top shape: 523 128 16 64 (68550656)
I0409 11:11:52.671221 46620 net.cpp:139] Memory required for data: 1670953620
I0409 11:11:52.671226 46620 layer_factory.hpp:77] Creating layer pool1
I0409 11:11:52.671231 46620 net.cpp:86] Creating Layer pool1
I0409 11:11:52.671234 46620 net.cpp:408] pool1 <- conv1
I0409 11:11:52.671239 46620 net.cpp:382] pool1 -> pool1
I0409 11:11:52.671283 46620 net.cpp:124] Setting up pool1
I0409 11:11:52.671289 46620 net.cpp:131] Top shape: 523 128 8 32 (17137664)
I0409 11:11:52.671293 46620 net.cpp:139] Memory required for data: 1739504276
I0409 11:11:52.671298 46620 layer_factory.hpp:77] Creating layer conv2
I0409 11:11:52.671305 46620 net.cpp:86] Creating Layer conv2
I0409 11:11:52.671308 46620 net.cpp:408] conv2 <- pool1
I0409 11:11:52.671314 46620 net.cpp:382] conv2 -> conv2
I0409 11:11:52.673930 46620 net.cpp:124] Setting up conv2
I0409 11:11:52.673945 46620 net.cpp:131] Top shape: 523 256 8 32 (34275328)
I0409 11:11:52.673949 46620 net.cpp:139] Memory required for data: 1876605588
I0409 11:11:52.673957 46620 layer_factory.hpp:77] Creating layer bn_conv2
I0409 11:11:52.673965 46620 net.cpp:86] Creating Layer bn_conv2
I0409 11:11:52.673969 46620 net.cpp:408] bn_conv2 <- conv2
I0409 11:11:52.673974 46620 net.cpp:369] bn_conv2 -> conv2 (in-place)
I0409 11:11:52.674108 46620 net.cpp:124] Setting up bn_conv2
I0409 11:11:52.674116 46620 net.cpp:131] Top shape: 523 256 8 32 (34275328)
I0409 11:11:52.674120 46620 net.cpp:139] Memory required for data: 2013706900
I0409 11:11:52.674130 46620 layer_factory.hpp:77] Creating layer scale_conv2
I0409 11:11:52.674137 46620 net.cpp:86] Creating Layer scale_conv2
I0409 11:11:52.674140 46620 net.cpp:408] scale_conv2 <- conv2
I0409 11:11:52.674146 46620 net.cpp:369] scale_conv2 -> conv2 (in-place)
I0409 11:11:52.674176 46620 layer_factory.hpp:77] Creating layer scale_conv2
I0409 11:11:52.674263 46620 net.cpp:124] Setting up scale_conv2
I0409 11:11:52.674270 46620 net.cpp:131] Top shape: 523 256 8 32 (34275328)
I0409 11:11:52.674274 46620 net.cpp:139] Memory required for data: 2150808212
I0409 11:11:52.674280 46620 layer_factory.hpp:77] Creating layer relu2
I0409 11:11:52.674286 46620 net.cpp:86] Creating Layer relu2
I0409 11:11:52.674302 46620 net.cpp:408] relu2 <- conv2
I0409 11:11:52.674307 46620 net.cpp:369] relu2 -> conv2 (in-place)
I0409 11:11:52.674314 46620 net.cpp:124] Setting up relu2
I0409 11:11:52.674319 46620 net.cpp:131] Top shape: 523 256 8 32 (34275328)
I0409 11:11:52.674321 46620 net.cpp:139] Memory required for data: 2287909524
I0409 11:11:52.674325 46620 layer_factory.hpp:77] Creating layer conv3
I0409 11:11:52.674333 46620 net.cpp:86] Creating Layer conv3
I0409 11:11:52.674338 46620 net.cpp:408] conv3 <- conv2
I0409 11:11:52.674343 46620 net.cpp:382] conv3 -> conv3
I0409 11:11:52.679174 46620 net.cpp:124] Setting up conv3
I0409 11:11:52.679189 46620 net.cpp:131] Top shape: 523 256 8 32 (34275328)
I0409 11:11:52.679194 46620 net.cpp:139] Memory required for data: 2425010836
I0409 11:11:52.679201 46620 layer_factory.hpp:77] Creating layer bn_conv3
I0409 11:11:52.679209 46620 net.cpp:86] Creating Layer bn_conv3
I0409 11:11:52.679214 46620 net.cpp:408] bn_conv3 <- conv3
I0409 11:11:52.679220 46620 net.cpp:369] bn_conv3 -> conv3 (in-place)
I0409 11:11:52.679363 46620 net.cpp:124] Setting up bn_conv3
I0409 11:11:52.679371 46620 net.cpp:131] Top shape: 523 256 8 32 (34275328)
I0409 11:11:52.679374 46620 net.cpp:139] Memory required for data: 2562112148
I0409 11:11:52.679383 46620 layer_factory.hpp:77] Creating layer scale_conv3
I0409 11:11:52.679388 46620 net.cpp:86] Creating Layer scale_conv3
I0409 11:11:52.679392 46620 net.cpp:408] scale_conv3 <- conv3
I0409 11:11:52.679397 46620 net.cpp:369] scale_conv3 -> conv3 (in-place)
I0409 11:11:52.679430 46620 layer_factory.hpp:77] Creating layer scale_conv3
I0409 11:11:52.679512 46620 net.cpp:124] Setting up scale_conv3
I0409 11:11:52.679519 46620 net.cpp:131] Top shape: 523 256 8 32 (34275328)
I0409 11:11:52.679522 46620 net.cpp:139] Memory required for data: 2699213460
I0409 11:11:52.679529 46620 layer_factory.hpp:77] Creating layer relu3
I0409 11:11:52.679534 46620 net.cpp:86] Creating Layer relu3
I0409 11:11:52.679538 46620 net.cpp:408] relu3 <- conv3
I0409 11:11:52.679543 46620 net.cpp:369] relu3 -> conv3 (in-place)
I0409 11:11:52.679548 46620 net.cpp:124] Setting up relu3
I0409 11:11:52.679553 46620 net.cpp:131] Top shape: 523 256 8 32 (34275328)
I0409 11:11:52.679556 46620 net.cpp:139] Memory required for data: 2836314772
I0409 11:11:52.679559 46620 layer_factory.hpp:77] Creating layer pool2
I0409 11:11:52.679565 46620 net.cpp:86] Creating Layer pool2
I0409 11:11:52.679569 46620 net.cpp:408] pool2 <- conv3
I0409 11:11:52.679574 46620 net.cpp:382] pool2 -> pool2
I0409 11:11:52.679603 46620 net.cpp:124] Setting up pool2
I0409 11:11:52.679611 46620 net.cpp:131] Top shape: 523 256 4 16 (8568832)
I0409 11:11:52.679615 46620 net.cpp:139] Memory required for data: 2870590100
I0409 11:11:52.679617 46620 layer_factory.hpp:77] Creating layer conv4
I0409 11:11:52.679625 46620 net.cpp:86] Creating Layer conv4
I0409 11:11:52.679630 46620 net.cpp:408] conv4 <- pool2
I0409 11:11:52.679636 46620 net.cpp:382] conv4 -> conv4
I0409 11:11:52.689098 46620 net.cpp:124] Setting up conv4
I0409 11:11:52.689115 46620 net.cpp:131] Top shape: 523 512 4 16 (17137664)
I0409 11:11:52.689119 46620 net.cpp:139] Memory required for data: 2939140756
I0409 11:11:52.689126 46620 layer_factory.hpp:77] Creating layer bn_conv4
I0409 11:11:52.689133 46620 net.cpp:86] Creating Layer bn_conv4
I0409 11:11:52.689138 46620 net.cpp:408] bn_conv4 <- conv4
I0409 11:11:52.689144 46620 net.cpp:369] bn_conv4 -> conv4 (in-place)
I0409 11:11:52.689296 46620 net.cpp:124] Setting up bn_conv4
I0409 11:11:52.689304 46620 net.cpp:131] Top shape: 523 512 4 16 (17137664)
I0409 11:11:52.689307 46620 net.cpp:139] Memory required for data: 3007691412
I0409 11:11:52.689318 46620 layer_factory.hpp:77] Creating layer scale_conv4
I0409 11:11:52.689327 46620 net.cpp:86] Creating Layer scale_conv4
I0409 11:11:52.689332 46620 net.cpp:408] scale_conv4 <- conv4
I0409 11:11:52.689337 46620 net.cpp:369] scale_conv4 -> conv4 (in-place)
I0409 11:11:52.689371 46620 layer_factory.hpp:77] Creating layer scale_conv4
I0409 11:11:52.689465 46620 net.cpp:124] Setting up scale_conv4
I0409 11:11:52.689486 46620 net.cpp:131] Top shape: 523 512 4 16 (17137664)
I0409 11:11:52.689489 46620 net.cpp:139] Memory required for data: 3076242068
I0409 11:11:52.689497 46620 layer_factory.hpp:77] Creating layer relu4
I0409 11:11:52.689504 46620 net.cpp:86] Creating Layer relu4
I0409 11:11:52.689508 46620 net.cpp:408] relu4 <- conv4
I0409 11:11:52.689515 46620 net.cpp:369] relu4 -> conv4 (in-place)
I0409 11:11:52.689522 46620 net.cpp:124] Setting up relu4
I0409 11:11:52.689527 46620 net.cpp:131] Top shape: 523 512 4 16 (17137664)
I0409 11:11:52.689530 46620 net.cpp:139] Memory required for data: 3144792724
I0409 11:11:52.689533 46620 layer_factory.hpp:77] Creating layer conv5
I0409 11:11:52.689543 46620 net.cpp:86] Creating Layer conv5
I0409 11:11:52.689546 46620 net.cpp:408] conv5 <- conv4
I0409 11:11:52.689554 46620 net.cpp:382] conv5 -> conv5
I0409 11:11:52.708132 46620 net.cpp:124] Setting up conv5
I0409 11:11:52.708148 46620 net.cpp:131] Top shape: 523 512 2 14 (7497728)
I0409 11:11:52.708151 46620 net.cpp:139] Memory required for data: 3174783636
I0409 11:11:52.708158 46620 layer_factory.hpp:77] Creating layer bn_conv5
I0409 11:11:52.708165 46620 net.cpp:86] Creating Layer bn_conv5
I0409 11:11:52.708173 46620 net.cpp:408] bn_conv5 <- conv5
I0409 11:11:52.708178 46620 net.cpp:369] bn_conv5 -> conv5 (in-place)
I0409 11:11:52.708343 46620 net.cpp:124] Setting up bn_conv5
I0409 11:11:52.708351 46620 net.cpp:131] Top shape: 523 512 2 14 (7497728)
I0409 11:11:52.708356 46620 net.cpp:139] Memory required for data: 3204774548
I0409 11:11:52.708364 46620 layer_factory.hpp:77] Creating layer scale_conv5
I0409 11:11:52.708370 46620 net.cpp:86] Creating Layer scale_conv5
I0409 11:11:52.708374 46620 net.cpp:408] scale_conv5 <- conv5
I0409 11:11:52.708380 46620 net.cpp:369] scale_conv5 -> conv5 (in-place)
I0409 11:11:52.708415 46620 layer_factory.hpp:77] Creating layer scale_conv5
I0409 11:11:52.708520 46620 net.cpp:124] Setting up scale_conv5
I0409 11:11:52.708528 46620 net.cpp:131] Top shape: 523 512 2 14 (7497728)
I0409 11:11:52.708533 46620 net.cpp:139] Memory required for data: 3234765460
I0409 11:11:52.708539 46620 layer_factory.hpp:77] Creating layer relu5
I0409 11:11:52.708544 46620 net.cpp:86] Creating Layer relu5
I0409 11:11:52.708547 46620 net.cpp:408] relu5 <- conv5
I0409 11:11:52.708555 46620 net.cpp:369] relu5 -> conv5 (in-place)
I0409 11:11:52.708560 46620 net.cpp:124] Setting up relu5
I0409 11:11:52.708565 46620 net.cpp:131] Top shape: 523 512 2 14 (7497728)
I0409 11:11:52.708568 46620 net.cpp:139] Memory required for data: 3264756372
I0409 11:11:52.708572 46620 layer_factory.hpp:77] Creating layer conv6
I0409 11:11:52.708582 46620 net.cpp:86] Creating Layer conv6
I0409 11:11:52.708586 46620 net.cpp:408] conv6 <- conv5
I0409 11:11:52.708592 46620 net.cpp:382] conv6 -> conv6
I0409 11:11:52.717041 46620 net.cpp:124] Setting up conv6
I0409 11:11:52.717056 46620 net.cpp:131] Top shape: 523 512 1 13 (3481088)
I0409 11:11:52.717061 46620 net.cpp:139] Memory required for data: 3278680724
I0409 11:11:52.717067 46620 layer_factory.hpp:77] Creating layer bn_conv6
I0409 11:11:52.717077 46620 net.cpp:86] Creating Layer bn_conv6
I0409 11:11:52.717082 46620 net.cpp:408] bn_conv6 <- conv6
I0409 11:11:52.717087 46620 net.cpp:369] bn_conv6 -> conv6 (in-place)
I0409 11:11:52.717250 46620 net.cpp:124] Setting up bn_conv6
I0409 11:11:52.717259 46620 net.cpp:131] Top shape: 523 512 1 13 (3481088)
I0409 11:11:52.717262 46620 net.cpp:139] Memory required for data: 3292605076
I0409 11:11:52.717270 46620 layer_factory.hpp:77] Creating layer scale_conv6
I0409 11:11:52.717275 46620 net.cpp:86] Creating Layer scale_conv6
I0409 11:11:52.717279 46620 net.cpp:408] scale_conv6 <- conv6
I0409 11:11:52.717288 46620 net.cpp:369] scale_conv6 -> conv6 (in-place)
I0409 11:11:52.717320 46620 layer_factory.hpp:77] Creating layer scale_conv6
I0409 11:11:52.717417 46620 net.cpp:124] Setting up scale_conv6
I0409 11:11:52.717425 46620 net.cpp:131] Top shape: 523 512 1 13 (3481088)
I0409 11:11:52.717429 46620 net.cpp:139] Memory required for data: 3306529428
I0409 11:11:52.717447 46620 layer_factory.hpp:77] Creating layer relu6
I0409 11:11:52.717455 46620 net.cpp:86] Creating Layer relu6
I0409 11:11:52.717459 46620 net.cpp:408] relu6 <- conv6
I0409 11:11:52.717464 46620 net.cpp:369] relu6 -> conv6 (in-place)
I0409 11:11:52.717469 46620 net.cpp:124] Setting up relu6
I0409 11:11:52.717474 46620 net.cpp:131] Top shape: 523 512 1 13 (3481088)
I0409 11:11:52.717478 46620 net.cpp:139] Memory required for data: 3320453780
I0409 11:11:52.717481 46620 layer_factory.hpp:77] Creating layer reshape
I0409 11:11:52.717494 46620 net.cpp:86] Creating Layer reshape
I0409 11:11:52.717499 46620 net.cpp:408] reshape <- conv6
I0409 11:11:52.717505 46620 net.cpp:382] reshape -> reshape
I0409 11:11:52.717537 46620 net.cpp:124] Setting up reshape
I0409 11:11:52.717545 46620 net.cpp:131] Top shape: 523 512 13 (3481088)
I0409 11:11:52.717547 46620 net.cpp:139] Memory required for data: 3334378132
I0409 11:11:52.717551 46620 layer_factory.hpp:77] Creating layer permuted_data
I0409 11:11:52.717561 46620 net.cpp:86] Creating Layer permuted_data
I0409 11:11:52.717563 46620 net.cpp:408] permuted_data <- reshape
I0409 11:11:52.717568 46620 net.cpp:382] permuted_data -> permuted_data
I0409 11:11:52.717656 46620 net.cpp:124] Setting up permuted_data
I0409 11:11:52.717664 46620 net.cpp:131] Top shape: 13 523 512 (3481088)
I0409 11:11:52.717667 46620 net.cpp:139] Memory required for data: 3348302484
I0409 11:11:52.717670 46620 layer_factory.hpp:77] Creating layer indicator
I0409 11:11:52.717682 46620 net.cpp:86] Creating Layer indicator
I0409 11:11:52.717686 46620 net.cpp:382] indicator -> indicator
I0409 11:11:52.717711 46620 net.cpp:124] Setting up indicator
I0409 11:11:52.717718 46620 net.cpp:131] Top shape: 13 523 (6799)
I0409 11:11:52.717722 46620 net.cpp:139] Memory required for data: 3348329680
I0409 11:11:52.717725 46620 layer_factory.hpp:77] Creating layer indicator_indicator_0_split
I0409 11:11:52.717731 46620 net.cpp:86] Creating Layer indicator_indicator_0_split
I0409 11:11:52.717734 46620 net.cpp:408] indicator_indicator_0_split <- indicator
I0409 11:11:52.717744 46620 net.cpp:382] indicator_indicator_0_split -> indicator_indicator_0_split_0
I0409 11:11:52.717756 46620 net.cpp:382] indicator_indicator_0_split -> indicator_indicator_0_split_1
I0409 11:11:52.717784 46620 net.cpp:124] Setting up indicator_indicator_0_split
I0409 11:11:52.717792 46620 net.cpp:131] Top shape: 13 523 (6799)
I0409 11:11:52.717797 46620 net.cpp:131] Top shape: 13 523 (6799)
I0409 11:11:52.717799 46620 net.cpp:139] Memory required for data: 3348384072
I0409 11:11:52.717803 46620 layer_factory.hpp:77] Creating layer lstm1
I0409 11:11:52.717813 46620 net.cpp:86] Creating Layer lstm1
I0409 11:11:52.717818 46620 net.cpp:408] lstm1 <- permuted_data
I0409 11:11:52.717821 46620 net.cpp:408] lstm1 <- indicator_indicator_0_split_0
I0409 11:11:52.717828 46620 net.cpp:382] lstm1 -> lstm1
I0409 11:11:52.717835 46620 recurrent_layer.cpp:20] Initializing recurrent layer: assuming input batch contains 13 timesteps of 523 independent streams.
I0409 11:11:52.718405 46620 net.cpp:53] Initializing net from parameters: 
layer {
  name: "lstm1_"
  type: "Input"
  top: "x"
  top: "cont"
  input_param {
    shape {
      dim: 13
      dim: 523
      dim: 512
    }
    shape {
      dim: 13
      dim: 523
    }
  }
}
layer {
  name: "lstm1_"
  type: "Input"
  top: "c_0"
  top: "h_0"
  input_param {
    shape {
      dim: 1
      dim: 523
      dim: 128
    }
    shape {
      dim: 1
      dim: 523
      dim: 128
    }
  }
}
layer {
  name: "lstm1_cont_slice"
  type: "Slice"
  bottom: "cont"
  top: "cont_1"
  top: "cont_2"
  top: "cont_3"
  top: "cont_4"
  top: "cont_5"
  top: "cont_6"
  top: "cont_7"
  top: "cont_8"
  top: "cont_9"
  top: "cont_10"
  top: "cont_11"
  top: "cont_12"
  top: "cont_13"
  slice_param {
    axis: 0
  }
}
layer {
  name: "lstm1_x_transform"
  type: "InnerProduct"
  bottom: "x"
  top: "W_xc_x"
  param {
    name: "W_xc"
  }
  param {
    name: "b_c"
  }
  propagate_down: true
  inner_product_param {
    num_output: 512
    bias_term: true
    weight_filler {
      type: "xavier"
    }
    bias_filler {
      type: "constant"
      value: 0
    }
    axis: 2
  }
}
layer {
  name: "lstm1_W_xc_x_slice"
  type: "Slice"
  bottom: "W_xc_x"
  top: "W_xc_x_1"
  top: "W_xc_x_2"
  top: "W_xc_x_3"
  top: "W_xc_x_4"
  top: "W_xc_x_5"
  top: "W_xc_x_6"
  top: "W_xc_x_7"
  top: "W_xc_x_8"
  top: "W_xc_x_9"
  top: "W_xc_x_10"
  top: "W_xc_x_11"
  top: "W_xc_x_12"
  top: "W_xc_x_13"
  slice_param {
    axis: 0
  }
}
layer {
  name: "lstm1_h_conted_0"
  type: "Scale"
  bottom: "h_0"
  bottom: "cont_1"
  top: "h_conted_0"
  scale_param {
    axis: 0
  }
}
layer {
  name: "lstm1_transform_1"
  type: "InnerProduct"
  bottom: "h_conted_0"
  top: "W_hc_h_0"
  param {
    name: "W_hc"
  }
  inner_product_param {
    num_output: 512
    bias_term: false
    weight_filler {
      type: "xavier"
    }
    axis: 2
  }
}
layer {
  name: "lstm1_gate_input_1"
  type: "Eltwise"
  bottom: "W_hc_h_0"
  bottom: "W_xc_x_1"
  top: "gate_input_1"
  eltwise_param {
    operation: SUM
  }
}
layer {
  name: "lstm1_unit_1"
  type: "LSTMUnit"
  bottom: "c_0"
  bottom: "gate_input_1"
  bottom: "cont_1"
  top: "c_1"
  top: "h_1"
}
layer {
  name: "lstm1_h_conted_1"
  type: "Scale"
  bottom: "h_1"
  bottom: "cont_2"
  top: "h_conted_1"
  scale_param {
    axis: 0
  }
}
layer {
  name: "lstm1_transform_2"
  type: "InnerProduct"
  bottom: "h_conted_1"
  top: "W_hc_h_1"
  param {
    name: "W_hc"
  }
  inner_product_param {
    num_output: 512
    bias_term: false
    weight_filler {
      type: "xavier"
    }
    axis: 2
  }
}
layer {
  name: "lstm1_gate_input_2"
  type: "Eltwise"
  bottom: "W_hc_h_1"
  bottom: "W_xc_x_2"
  top: "gate_input_2"
  eltwise_param {
    operation: SUM
  }
}
layer {
  name: "lstm1_unit_2"
  type: "LSTMUnit"
  bottom: "c_1"
  bottom: "gate_input_2"
  bottom: "cont_2"
  top: "c_2"
  top: "h_2"
}
layer {
  name: "lstm1_h_conted_2"
  type: "Scale"
  bottom: "h_2"
  bottom: "cont_3"
  top: "h_conted_2"
  scale_param {
    axis: 0
  }
}
layer {
  name: "lstm1_transform_3"
  type: "InnerProduct"
  bottom: "h_conted_2"
  top: "W_hc_h_2"
  param {
    name: "W_hc"
  }
  inner_product_param {
    num_output: 512
    bias_term: false
    weight_filler {
      type: "xavier"
    }
    axis: 2
  }
}
layer {
  name: "lstm1_gate_input_3"
  type: "Eltwise"
  bottom: "W_hc_h_2"
  bottom: "W_xc_x_3"
  top: "gate_input_3"
  eltwise_param {
    operation: SUM
  }
}
layer {
  name: "lstm1_unit_3"
  type: "LSTMUnit"
  bottom: "c_2"
  bottom: "gate_input_3"
  bottom: "cont_3"
  top: "c_3"
  top: "h_3"
}
layer {
  name: "lstm1_h_conted_3"
  type: "Scale"
  bottom: "h_3"
  bottom: "cont_4"
  top: "h_conted_3"
  scale_param {
    axis: 0
  }
}
layer {
  name: "lstm1_transform_4"
  type: "InnerProduct"
  bottom: "h_conted_3"
  top: "W_hc_h_3"
  param {
    name: "W_hc"
  }
  inner_product_param {
    num_output: 512
    bias_term: false
    weight_filler {
      type: "xavier"
    }
    axis: 2
  }
}
layer {
  name: "lstm1_gate_input_4"
  type: "Eltwise"
  bottom: "W_hc_h_3"
  bottom: "W_xc_x_4"
  top: "gate_input_4"
  eltwise_param {
    operation: SUM
  }
}
layer {
  name: "lstm1_unit_4"
  type: "LSTMUnit"
  bottom: "c_3"
  bottom: "gate_input_4"
  bottom: "cont_4"
  top: "c_4"
  top: "h_4"
}
layer {
  name: "lstm1_h_conted_4"
  type: "Scale"
  bottom: "h_4"
  bottom: "cont_5"
  top: "h_conted_4"
  scale_param {
    axis: 0
  }
}
layer {
  name: "lstm1_transform_5"
  type: "InnerProduct"
  bottom: "h_conted_4"
  top: "W_hc_h_4"
  param {
    name: "W_hc"
  }
  inner_product_param {
    num_output: 512
    bias_term: false
    weight_filler {
      type: "xavier"
    }
    axis: 2
  }
}
layer {
  name: "lstm1_gate_input_5"
  type: "Eltwise"
  bottom: "W_hc_h_4"
  bottom: "W_xc_x_5"
  top: "gate_input_5"
  eltwise_param {
    operation: SUM
  }
}
layer {
  name: "lstm1_unit_5"
  type: "LSTMUnit"
  bottom: "c_4"
  bottom: "gate_input_5"
  bottom: "cont_5"
  top: "c_5"
  top: "h_5"
}
layer {
  name: "lstm1_h_conted_5"
  type: "Scale"
  bottom: "h_5"
  bottom: "cont_6"
  top: "h_conted_5"
  scale_param {
    axis: 0
  }
}
layer {
  name: "lstm1_transform_6"
  type: "InnerProduct"
  bottom: "h_conted_5"
  top: "W_hc_h_5"
  param {
    name: "W_hc"
  }
  inner_product_param {
    num_output: 512
    bias_term: false
    weight_filler {
      type: "xavier"
    }
    axis: 2
  }
}
layer {
  name: "lstm1_gate_input_6"
  type: "Eltwise"
  bottom: "W_hc_h_5"
  bottom: "W_xc_x_6"
  top: "gate_input_6"
  eltwise_param {
    operation: SUM
  }
}
layer {
  name: "lstm1_unit_6"
  type: "LSTMUnit"
  bottom: "c_5"
  bottom: "gate_input_6"
  bottom: "cont_6"
  top: "c_6"
  top: "h_6"
}
layer {
  name: "lstm1_h_conted_6"
  type: "Scale"
  bottom: "h_6"
  bottom: "cont_7"
  top: "h_conted_6"
  scale_param {
    axis: 0
  }
}
layer {
  name: "lstm1_transform_7"
  type: "InnerProduct"
  bottom: "h_conted_6"
  top: "W_hc_h_6"
  param {
    name: "W_hc"
  }
  inner_product_param {
    num_output: 512
    bias_term: false
    weight_filler {
      type: "xavier"
    }
    axis: 2
  }
}
layer {
  name: "lstm1_gate_input_7"
  type: "Eltwise"
  bottom: "W_hc_h_6"
  bottom: "W_xc_x_7"
  top: "gate_input_7"
  eltwise_param {
    operation: SUM
  }
}
layer {
  name: "lstm1_unit_7"
  type: "LSTMUnit"
  bottom: "c_6"
  bottom: "gate_input_7"
  bottom: "cont_7"
  top: "c_7"
  top: "h_7"
}
layer {
  name: "lstm1_h_conted_7"
  type: "Scale"
  bottom: "h_7"
  bottom: "cont_8"
  top: "h_conted_7"
  scale_param {
    axis: 0
  }
}
layer {
  name: "lstm1_transform_8"
  type: "InnerProduct"
  bottom: "h_conted_7"
  top: "W_hc_h_7"
  param {
    name: "W_hc"
  }
  inner_product_param {
    num_output: 512
    bias_term: false
    weight_filler {
      type: "xavier"
    }
    axis: 2
  }
}
layer {
  name: "lstm1_gate_input_8"
  type: "Eltwise"
  bottom: "W_hc_h_7"
  bottom: "W_xc_x_8"
  top: "gate_input_8"
  eltwise_param {
    operation: SUM
  }
}
layer {
  name: "lstm1_unit_8"
  type: "LSTMUnit"
  bottom: "c_7"
  bottom: "gate_input_8"
  bottom: "cont_8"
  top: "c_8"
  top: "h_8"
}
layer {
  name: "lstm1_h_conted_8"
  type: "Scale"
  bottom: "h_8"
  bottom: "cont_9"
  top: "h_conted_8"
  scale_param {
    axis: 0
  }
}
layer {
  name: "lstm1_transform_9"
  type: "InnerProduct"
  bottom: "h_conted_8"
  top: "W_hc_h_8"
  param {
    name: "W_hc"
  }
  inner_product_param {
    num_output: 512
    bias_term: false
    weight_filler {
      type: "xavier"
    }
    axis: 2
  }
}
layer {
  name: "lstm1_gate_input_9"
  type: "Eltwise"
  bottom: "W_hc_h_8"
  bottom: "W_xc_x_9"
  top: "gate_input_9"
  eltwise_param {
    operation: SUM
  }
}
layer {
  name: "lstm1_unit_9"
  type: "LSTMUnit"
  bottom: "c_8"
  bottom: "gate_input_9"
  bottom: "cont_9"
  top: "c_9"
  top: "h_9"
}
layer {
  name: "lstm1_h_conted_9"
  type: "Scale"
  bottom: "h_9"
  bottom: "cont_10"
  top: "h_conted_9"
  scale_param {
    axis: 0
  }
}
layer {
  name: "lstm1_transform_10"
  type: "InnerProduct"
  bottom: "h_conted_9"
  top: "W_hc_h_9"
  param {
    name: "W_hc"
  }
  inner_product_param {
    num_output: 512
    bias_term: false
    weight_filler {
      type: "xavier"
    }
    axis: 2
  }
}
layer {
  name: "lstm1_gate_input_10"
  type: "Eltwise"
  bottom: "W_hc_h_9"
  bottom: "W_xc_x_10"
  top: "gate_input_10"
  eltwise_param {
    operation: SUM
  }
}
layer {
  name: "lstm1_unit_10"
  type: "LSTMUnit"
  bottom: "c_9"
  bottom: "gate_input_10"
  bottom: "cont_10"
  top: "c_10"
  top: "h_10"
}
layer {
  name: "lstm1_h_conted_10"
  type: "Scale"
  bottom: "h_10"
  bottom: "cont_11"
  top: "h_conted_10"
  scale_param {
    axis: 0
  }
}
layer {
  name: "lstm1_transform_11"
  type: "InnerProduct"
  bottom: "h_conted_10"
  top: "W_hc_h_10"
  param {
    name: "W_hc"
  }
  inner_product_param {
    num_output: 512
    bias_term: false
    weight_filler {
      type: "xavier"
    }
    axis: 2
  }
}
layer {
  name: "lstm1_gate_input_11"
  type: "Eltwise"
  bottom: "W_hc_h_10"
  bottom: "W_xc_x_11"
  top: "gate_input_11"
  eltwise_param {
    operation: SUM
  }
}
layer {
  name: "lstm1_unit_11"
  type: "LSTMUnit"
  bottom: "c_10"
  bottom: "gate_input_11"
  bottom: "cont_11"
  top: "c_11"
  top: "h_11"
}
layer {
  name: "lstm1_h_conted_11"
  type: "Scale"
  bottom: "h_11"
  bottom: "cont_12"
  top: "h_conted_11"
  scale_param {
    axis: 0
  }
}
layer {
  name: "lstm1_transform_12"
  type: "InnerProduct"
  bottom: "h_conted_11"
  top: "W_hc_h_11"
  param {
    name: "W_hc"
  }
  inner_product_param {
    num_output: 512
    bias_term: false
    weight_filler {
      type: "xavier"
    }
    axis: 2
  }
}
layer {
  name: "lstm1_gate_input_12"
  type: "Eltwise"
  bottom: "W_hc_h_11"
  bottom: "W_xc_x_12"
  top: "gate_input_12"
  eltwise_param {
    operation: SUM
  }
}
layer {
  name: "lstm1_unit_12"
  type: "LSTMUnit"
  bottom: "c_11"
  bottom: "gate_input_12"
  bottom: "cont_12"
  top: "c_12"
  top: "h_12"
}
layer {
  name: "lstm1_h_conted_12"
  type: "Scale"
  bottom: "h_12"
  bottom: "cont_13"
  top: "h_conted_12"
  scale_param {
    axis: 0
  }
}
layer {
  name: "lstm1_transform_13"
  type: "InnerProduct"
  bottom: "h_conted_12"
  top: "W_hc_h_12"
  param {
    name: "W_hc"
  }
  inner_product_param {
    num_output: 512
    bias_term: false
    weight_filler {
      type: "xavier"
    }
    axis: 2
  }
}
layer {
  name: "lstm1_gate_input_13"
  type: "Eltwise"
  bottom: "W_hc_h_12"
  bottom: "W_xc_x_13"
  top: "gate_input_13"
  eltwise_param {
    operation: SUM
  }
}
layer {
  name: "lstm1_unit_13"
  type: "LSTMUnit"
  bottom: "c_12"
  bottom: "gate_input_13"
  bottom: "cont_13"
  top: "c_13"
  top: "h_13"
}
layer {
  name: "lstm1_"
  type: "Split"
  bottom: "c_13"
  top: "c_T"
}
layer {
  name: "lstm1_h_concat"
  type: "Concat"
  bottom: "h_1"
  bottom: "h_2"
  bottom: "h_3"
  bottom: "h_4"
  bottom: "h_5"
  bottom: "h_6"
  bottom: "h_7"
  bottom: "h_8"
  bottom: "h_9"
  bottom: "h_10"
  bottom: "h_11"
  bottom: "h_12"
  bottom: "h_13"
  top: "h"
  concat_param {
    axis: 0
  }
}
layer {
  name: "h_pseudoloss"
  type: "Reduction"
  bottom: "h"
  top: "h_pseudoloss"
  loss_weight: 1
}
I0409 11:11:52.718856 46620 layer_factory.hpp:77] Creating layer lstm1_
I0409 11:11:52.718868 46620 net.cpp:86] Creating Layer lstm1_
I0409 11:11:52.718873 46620 net.cpp:382] lstm1_ -> x
I0409 11:11:52.718885 46620 net.cpp:382] lstm1_ -> cont
I0409 11:11:52.718928 46620 net.cpp:124] Setting up lstm1_
I0409 11:11:52.718935 46620 net.cpp:131] Top shape: 13 523 512 (3481088)
I0409 11:11:52.718940 46620 net.cpp:131] Top shape: 13 523 (6799)
I0409 11:11:52.718943 46620 net.cpp:139] Memory required for data: 13951548
I0409 11:11:52.718947 46620 layer_factory.hpp:77] Creating layer lstm1_
I0409 11:11:52.718953 46620 net.cpp:86] Creating Layer lstm1_
I0409 11:11:52.718957 46620 net.cpp:382] lstm1_ -> c_0
I0409 11:11:52.718966 46620 net.cpp:382] lstm1_ -> h_0
I0409 11:11:52.718994 46620 net.cpp:124] Setting up lstm1_
I0409 11:11:52.719000 46620 net.cpp:131] Top shape: 1 523 128 (66944)
I0409 11:11:52.719004 46620 net.cpp:131] Top shape: 1 523 128 (66944)
I0409 11:11:52.719008 46620 net.cpp:139] Memory required for data: 14487100
I0409 11:11:52.719012 46620 layer_factory.hpp:77] Creating layer lstm1_cont_slice
I0409 11:11:52.719018 46620 net.cpp:86] Creating Layer lstm1_cont_slice
I0409 11:11:52.719022 46620 net.cpp:408] lstm1_cont_slice <- cont
I0409 11:11:52.719029 46620 net.cpp:382] lstm1_cont_slice -> cont_1
I0409 11:11:52.719038 46620 net.cpp:382] lstm1_cont_slice -> cont_2
I0409 11:11:52.719043 46620 net.cpp:382] lstm1_cont_slice -> cont_3
I0409 11:11:52.719049 46620 net.cpp:382] lstm1_cont_slice -> cont_4
I0409 11:11:52.719055 46620 net.cpp:382] lstm1_cont_slice -> cont_5
I0409 11:11:52.719065 46620 net.cpp:382] lstm1_cont_slice -> cont_6
I0409 11:11:52.719071 46620 net.cpp:382] lstm1_cont_slice -> cont_7
I0409 11:11:52.719076 46620 net.cpp:382] lstm1_cont_slice -> cont_8
I0409 11:11:52.719084 46620 net.cpp:382] lstm1_cont_slice -> cont_9
I0409 11:11:52.719089 46620 net.cpp:382] lstm1_cont_slice -> cont_10
I0409 11:11:52.719094 46620 net.cpp:382] lstm1_cont_slice -> cont_11
I0409 11:11:52.719102 46620 net.cpp:382] lstm1_cont_slice -> cont_12
I0409 11:11:52.719110 46620 net.cpp:382] lstm1_cont_slice -> cont_13
I0409 11:11:52.719272 46620 net.cpp:124] Setting up lstm1_cont_slice
I0409 11:11:52.719280 46620 net.cpp:131] Top shape: 1 523 (523)
I0409 11:11:52.719283 46620 net.cpp:131] Top shape: 1 523 (523)
I0409 11:11:52.719288 46620 net.cpp:131] Top shape: 1 523 (523)
I0409 11:11:52.719292 46620 net.cpp:131] Top shape: 1 523 (523)
I0409 11:11:52.719296 46620 net.cpp:131] Top shape: 1 523 (523)
I0409 11:11:52.719300 46620 net.cpp:131] Top shape: 1 523 (523)
I0409 11:11:52.719305 46620 net.cpp:131] Top shape: 1 523 (523)
I0409 11:11:52.719308 46620 net.cpp:131] Top shape: 1 523 (523)
I0409 11:11:52.719312 46620 net.cpp:131] Top shape: 1 523 (523)
I0409 11:11:52.719316 46620 net.cpp:131] Top shape: 1 523 (523)
I0409 11:11:52.719321 46620 net.cpp:131] Top shape: 1 523 (523)
I0409 11:11:52.719324 46620 net.cpp:131] Top shape: 1 523 (523)
I0409 11:11:52.719328 46620 net.cpp:131] Top shape: 1 523 (523)
I0409 11:11:52.719331 46620 net.cpp:139] Memory required for data: 14514296
I0409 11:11:52.719336 46620 layer_factory.hpp:77] Creating layer cont_1_lstm1_cont_slice_0_split
I0409 11:11:52.719341 46620 net.cpp:86] Creating Layer cont_1_lstm1_cont_slice_0_split
I0409 11:11:52.719346 46620 net.cpp:408] cont_1_lstm1_cont_slice_0_split <- cont_1
I0409 11:11:52.719352 46620 net.cpp:382] cont_1_lstm1_cont_slice_0_split -> cont_1_lstm1_cont_slice_0_split_0
I0409 11:11:52.719360 46620 net.cpp:382] cont_1_lstm1_cont_slice_0_split -> cont_1_lstm1_cont_slice_0_split_1
I0409 11:11:52.719388 46620 net.cpp:124] Setting up cont_1_lstm1_cont_slice_0_split
I0409 11:11:52.719393 46620 net.cpp:131] Top shape: 1 523 (523)
I0409 11:11:52.719396 46620 net.cpp:131] Top shape: 1 523 (523)
I0409 11:11:52.719400 46620 net.cpp:139] Memory required for data: 14518480
I0409 11:11:52.719403 46620 layer_factory.hpp:77] Creating layer cont_2_lstm1_cont_slice_1_split
I0409 11:11:52.719411 46620 net.cpp:86] Creating Layer cont_2_lstm1_cont_slice_1_split
I0409 11:11:52.719414 46620 net.cpp:408] cont_2_lstm1_cont_slice_1_split <- cont_2
I0409 11:11:52.719420 46620 net.cpp:382] cont_2_lstm1_cont_slice_1_split -> cont_2_lstm1_cont_slice_1_split_0
I0409 11:11:52.719426 46620 net.cpp:382] cont_2_lstm1_cont_slice_1_split -> cont_2_lstm1_cont_slice_1_split_1
I0409 11:11:52.719457 46620 net.cpp:124] Setting up cont_2_lstm1_cont_slice_1_split
I0409 11:11:52.719465 46620 net.cpp:131] Top shape: 1 523 (523)
I0409 11:11:52.719470 46620 net.cpp:131] Top shape: 1 523 (523)
I0409 11:11:52.719472 46620 net.cpp:139] Memory required for data: 14522664
I0409 11:11:52.719476 46620 layer_factory.hpp:77] Creating layer cont_3_lstm1_cont_slice_2_split
I0409 11:11:52.719480 46620 net.cpp:86] Creating Layer cont_3_lstm1_cont_slice_2_split
I0409 11:11:52.719485 46620 net.cpp:408] cont_3_lstm1_cont_slice_2_split <- cont_3
I0409 11:11:52.719492 46620 net.cpp:382] cont_3_lstm1_cont_slice_2_split -> cont_3_lstm1_cont_slice_2_split_0
I0409 11:11:52.719498 46620 net.cpp:382] cont_3_lstm1_cont_slice_2_split -> cont_3_lstm1_cont_slice_2_split_1
I0409 11:11:52.719527 46620 net.cpp:124] Setting up cont_3_lstm1_cont_slice_2_split
I0409 11:11:52.719533 46620 net.cpp:131] Top shape: 1 523 (523)
I0409 11:11:52.719537 46620 net.cpp:131] Top shape: 1 523 (523)
I0409 11:11:52.719540 46620 net.cpp:139] Memory required for data: 14526848
I0409 11:11:52.719543 46620 layer_factory.hpp:77] Creating layer cont_4_lstm1_cont_slice_3_split
I0409 11:11:52.719550 46620 net.cpp:86] Creating Layer cont_4_lstm1_cont_slice_3_split
I0409 11:11:52.719554 46620 net.cpp:408] cont_4_lstm1_cont_slice_3_split <- cont_4
I0409 11:11:52.719560 46620 net.cpp:382] cont_4_lstm1_cont_slice_3_split -> cont_4_lstm1_cont_slice_3_split_0
I0409 11:11:52.719566 46620 net.cpp:382] cont_4_lstm1_cont_slice_3_split -> cont_4_lstm1_cont_slice_3_split_1
I0409 11:11:52.719595 46620 net.cpp:124] Setting up cont_4_lstm1_cont_slice_3_split
I0409 11:11:52.719606 46620 net.cpp:131] Top shape: 1 523 (523)
I0409 11:11:52.719610 46620 net.cpp:131] Top shape: 1 523 (523)
I0409 11:11:52.719614 46620 net.cpp:139] Memory required for data: 14531032
I0409 11:11:52.719625 46620 layer_factory.hpp:77] Creating layer cont_5_lstm1_cont_slice_4_split
I0409 11:11:52.719630 46620 net.cpp:86] Creating Layer cont_5_lstm1_cont_slice_4_split
I0409 11:11:52.719633 46620 net.cpp:408] cont_5_lstm1_cont_slice_4_split <- cont_5
I0409 11:11:52.719638 46620 net.cpp:382] cont_5_lstm1_cont_slice_4_split -> cont_5_lstm1_cont_slice_4_split_0
I0409 11:11:52.719647 46620 net.cpp:382] cont_5_lstm1_cont_slice_4_split -> cont_5_lstm1_cont_slice_4_split_1
I0409 11:11:52.719674 46620 net.cpp:124] Setting up cont_5_lstm1_cont_slice_4_split
I0409 11:11:52.719681 46620 net.cpp:131] Top shape: 1 523 (523)
I0409 11:11:52.719684 46620 net.cpp:131] Top shape: 1 523 (523)
I0409 11:11:52.719688 46620 net.cpp:139] Memory required for data: 14535216
I0409 11:11:52.719691 46620 layer_factory.hpp:77] Creating layer cont_6_lstm1_cont_slice_5_split
I0409 11:11:52.719698 46620 net.cpp:86] Creating Layer cont_6_lstm1_cont_slice_5_split
I0409 11:11:52.719702 46620 net.cpp:408] cont_6_lstm1_cont_slice_5_split <- cont_6
I0409 11:11:52.719708 46620 net.cpp:382] cont_6_lstm1_cont_slice_5_split -> cont_6_lstm1_cont_slice_5_split_0
I0409 11:11:52.719714 46620 net.cpp:382] cont_6_lstm1_cont_slice_5_split -> cont_6_lstm1_cont_slice_5_split_1
I0409 11:11:52.719743 46620 net.cpp:124] Setting up cont_6_lstm1_cont_slice_5_split
I0409 11:11:52.719748 46620 net.cpp:131] Top shape: 1 523 (523)
I0409 11:11:52.719753 46620 net.cpp:131] Top shape: 1 523 (523)
I0409 11:11:52.719756 46620 net.cpp:139] Memory required for data: 14539400
I0409 11:11:52.719759 46620 layer_factory.hpp:77] Creating layer cont_7_lstm1_cont_slice_6_split
I0409 11:11:52.719763 46620 net.cpp:86] Creating Layer cont_7_lstm1_cont_slice_6_split
I0409 11:11:52.719768 46620 net.cpp:408] cont_7_lstm1_cont_slice_6_split <- cont_7
I0409 11:11:52.719774 46620 net.cpp:382] cont_7_lstm1_cont_slice_6_split -> cont_7_lstm1_cont_slice_6_split_0
I0409 11:11:52.719780 46620 net.cpp:382] cont_7_lstm1_cont_slice_6_split -> cont_7_lstm1_cont_slice_6_split_1
I0409 11:11:52.719805 46620 net.cpp:124] Setting up cont_7_lstm1_cont_slice_6_split
I0409 11:11:52.719812 46620 net.cpp:131] Top shape: 1 523 (523)
I0409 11:11:52.719816 46620 net.cpp:131] Top shape: 1 523 (523)
I0409 11:11:52.719820 46620 net.cpp:139] Memory required for data: 14543584
I0409 11:11:52.719823 46620 layer_factory.hpp:77] Creating layer cont_8_lstm1_cont_slice_7_split
I0409 11:11:52.719830 46620 net.cpp:86] Creating Layer cont_8_lstm1_cont_slice_7_split
I0409 11:11:52.719833 46620 net.cpp:408] cont_8_lstm1_cont_slice_7_split <- cont_8
I0409 11:11:52.719838 46620 net.cpp:382] cont_8_lstm1_cont_slice_7_split -> cont_8_lstm1_cont_slice_7_split_0
I0409 11:11:52.719843 46620 net.cpp:382] cont_8_lstm1_cont_slice_7_split -> cont_8_lstm1_cont_slice_7_split_1
I0409 11:11:52.719875 46620 net.cpp:124] Setting up cont_8_lstm1_cont_slice_7_split
I0409 11:11:52.719882 46620 net.cpp:131] Top shape: 1 523 (523)
I0409 11:11:52.719887 46620 net.cpp:131] Top shape: 1 523 (523)
I0409 11:11:52.719895 46620 net.cpp:139] Memory required for data: 14547768
I0409 11:11:52.719899 46620 layer_factory.hpp:77] Creating layer cont_9_lstm1_cont_slice_8_split
I0409 11:11:52.719907 46620 net.cpp:86] Creating Layer cont_9_lstm1_cont_slice_8_split
I0409 11:11:52.719909 46620 net.cpp:408] cont_9_lstm1_cont_slice_8_split <- cont_9
I0409 11:11:52.719914 46620 net.cpp:382] cont_9_lstm1_cont_slice_8_split -> cont_9_lstm1_cont_slice_8_split_0
I0409 11:11:52.719921 46620 net.cpp:382] cont_9_lstm1_cont_slice_8_split -> cont_9_lstm1_cont_slice_8_split_1
I0409 11:11:52.719949 46620 net.cpp:124] Setting up cont_9_lstm1_cont_slice_8_split
I0409 11:11:52.719955 46620 net.cpp:131] Top shape: 1 523 (523)
I0409 11:11:52.719959 46620 net.cpp:131] Top shape: 1 523 (523)
I0409 11:11:52.719964 46620 net.cpp:139] Memory required for data: 14551952
I0409 11:11:52.719966 46620 layer_factory.hpp:77] Creating layer cont_10_lstm1_cont_slice_9_split
I0409 11:11:52.719971 46620 net.cpp:86] Creating Layer cont_10_lstm1_cont_slice_9_split
I0409 11:11:52.719982 46620 net.cpp:408] cont_10_lstm1_cont_slice_9_split <- cont_10
I0409 11:11:52.719988 46620 net.cpp:382] cont_10_lstm1_cont_slice_9_split -> cont_10_lstm1_cont_slice_9_split_0
I0409 11:11:52.719995 46620 net.cpp:382] cont_10_lstm1_cont_slice_9_split -> cont_10_lstm1_cont_slice_9_split_1
I0409 11:11:52.720024 46620 net.cpp:124] Setting up cont_10_lstm1_cont_slice_9_split
I0409 11:11:52.720031 46620 net.cpp:131] Top shape: 1 523 (523)
I0409 11:11:52.720036 46620 net.cpp:131] Top shape: 1 523 (523)
I0409 11:11:52.720039 46620 net.cpp:139] Memory required for data: 14556136
I0409 11:11:52.720042 46620 layer_factory.hpp:77] Creating layer cont_11_lstm1_cont_slice_10_split
I0409 11:11:52.720046 46620 net.cpp:86] Creating Layer cont_11_lstm1_cont_slice_10_split
I0409 11:11:52.720052 46620 net.cpp:408] cont_11_lstm1_cont_slice_10_split <- cont_11
I0409 11:11:52.720057 46620 net.cpp:382] cont_11_lstm1_cont_slice_10_split -> cont_11_lstm1_cont_slice_10_split_0
I0409 11:11:52.720063 46620 net.cpp:382] cont_11_lstm1_cont_slice_10_split -> cont_11_lstm1_cont_slice_10_split_1
I0409 11:11:52.720093 46620 net.cpp:124] Setting up cont_11_lstm1_cont_slice_10_split
I0409 11:11:52.720099 46620 net.cpp:131] Top shape: 1 523 (523)
I0409 11:11:52.720103 46620 net.cpp:131] Top shape: 1 523 (523)
I0409 11:11:52.720106 46620 net.cpp:139] Memory required for data: 14560320
I0409 11:11:52.720109 46620 layer_factory.hpp:77] Creating layer cont_12_lstm1_cont_slice_11_split
I0409 11:11:52.720114 46620 net.cpp:86] Creating Layer cont_12_lstm1_cont_slice_11_split
I0409 11:11:52.720118 46620 net.cpp:408] cont_12_lstm1_cont_slice_11_split <- cont_12
I0409 11:11:52.720124 46620 net.cpp:382] cont_12_lstm1_cont_slice_11_split -> cont_12_lstm1_cont_slice_11_split_0
I0409 11:11:52.720129 46620 net.cpp:382] cont_12_lstm1_cont_slice_11_split -> cont_12_lstm1_cont_slice_11_split_1
I0409 11:11:52.720157 46620 net.cpp:124] Setting up cont_12_lstm1_cont_slice_11_split
I0409 11:11:52.720165 46620 net.cpp:131] Top shape: 1 523 (523)
I0409 11:11:52.720168 46620 net.cpp:131] Top shape: 1 523 (523)
I0409 11:11:52.720171 46620 net.cpp:139] Memory required for data: 14564504
I0409 11:11:52.720175 46620 layer_factory.hpp:77] Creating layer cont_13_lstm1_cont_slice_12_split
I0409 11:11:52.720180 46620 net.cpp:86] Creating Layer cont_13_lstm1_cont_slice_12_split
I0409 11:11:52.720183 46620 net.cpp:408] cont_13_lstm1_cont_slice_12_split <- cont_13
I0409 11:11:52.720191 46620 net.cpp:382] cont_13_lstm1_cont_slice_12_split -> cont_13_lstm1_cont_slice_12_split_0
I0409 11:11:52.720196 46620 net.cpp:382] cont_13_lstm1_cont_slice_12_split -> cont_13_lstm1_cont_slice_12_split_1
I0409 11:11:52.720227 46620 net.cpp:124] Setting up cont_13_lstm1_cont_slice_12_split
I0409 11:11:52.720232 46620 net.cpp:131] Top shape: 1 523 (523)
I0409 11:11:52.720237 46620 net.cpp:131] Top shape: 1 523 (523)
I0409 11:11:52.720240 46620 net.cpp:139] Memory required for data: 14568688
I0409 11:11:52.720243 46620 layer_factory.hpp:77] Creating layer lstm1_x_transform
I0409 11:11:52.720252 46620 net.cpp:86] Creating Layer lstm1_x_transform
I0409 11:11:52.720255 46620 net.cpp:408] lstm1_x_transform <- x
I0409 11:11:52.720263 46620 net.cpp:382] lstm1_x_transform -> W_xc_x
I0409 11:11:52.723201 46620 net.cpp:124] Setting up lstm1_x_transform
I0409 11:11:52.723217 46620 net.cpp:131] Top shape: 13 523 512 (3481088)
I0409 11:11:52.723222 46620 net.cpp:139] Memory required for data: 28493040
I0409 11:11:52.723232 46620 layer_factory.hpp:77] Creating layer lstm1_W_xc_x_slice
I0409 11:11:52.723238 46620 net.cpp:86] Creating Layer lstm1_W_xc_x_slice
I0409 11:11:52.723242 46620 net.cpp:408] lstm1_W_xc_x_slice <- W_xc_x
I0409 11:11:52.723251 46620 net.cpp:382] lstm1_W_xc_x_slice -> W_xc_x_1
I0409 11:11:52.723261 46620 net.cpp:382] lstm1_W_xc_x_slice -> W_xc_x_2
I0409 11:11:52.723268 46620 net.cpp:382] lstm1_W_xc_x_slice -> W_xc_x_3
I0409 11:11:52.723273 46620 net.cpp:382] lstm1_W_xc_x_slice -> W_xc_x_4
I0409 11:11:52.723279 46620 net.cpp:382] lstm1_W_xc_x_slice -> W_xc_x_5
I0409 11:11:52.723286 46620 net.cpp:382] lstm1_W_xc_x_slice -> W_xc_x_6
I0409 11:11:52.723309 46620 net.cpp:382] lstm1_W_xc_x_slice -> W_xc_x_7
I0409 11:11:52.723315 46620 net.cpp:382] lstm1_W_xc_x_slice -> W_xc_x_8
I0409 11:11:52.723320 46620 net.cpp:382] lstm1_W_xc_x_slice -> W_xc_x_9
I0409 11:11:52.723330 46620 net.cpp:382] lstm1_W_xc_x_slice -> W_xc_x_10
I0409 11:11:52.723335 46620 net.cpp:382] lstm1_W_xc_x_slice -> W_xc_x_11
I0409 11:11:52.723341 46620 net.cpp:382] lstm1_W_xc_x_slice -> W_xc_x_12
I0409 11:11:52.723347 46620 net.cpp:382] lstm1_W_xc_x_slice -> W_xc_x_13
I0409 11:11:52.723498 46620 net.cpp:124] Setting up lstm1_W_xc_x_slice
I0409 11:11:52.723506 46620 net.cpp:131] Top shape: 1 523 512 (267776)
I0409 11:11:52.723510 46620 net.cpp:131] Top shape: 1 523 512 (267776)
I0409 11:11:52.723515 46620 net.cpp:131] Top shape: 1 523 512 (267776)
I0409 11:11:52.723520 46620 net.cpp:131] Top shape: 1 523 512 (267776)
I0409 11:11:52.723523 46620 net.cpp:131] Top shape: 1 523 512 (267776)
I0409 11:11:52.723526 46620 net.cpp:131] Top shape: 1 523 512 (267776)
I0409 11:11:52.723531 46620 net.cpp:131] Top shape: 1 523 512 (267776)
I0409 11:11:52.723536 46620 net.cpp:131] Top shape: 1 523 512 (267776)
I0409 11:11:52.723539 46620 net.cpp:131] Top shape: 1 523 512 (267776)
I0409 11:11:52.723543 46620 net.cpp:131] Top shape: 1 523 512 (267776)
I0409 11:11:52.723547 46620 net.cpp:131] Top shape: 1 523 512 (267776)
I0409 11:11:52.723551 46620 net.cpp:131] Top shape: 1 523 512 (267776)
I0409 11:11:52.723556 46620 net.cpp:131] Top shape: 1 523 512 (267776)
I0409 11:11:52.723558 46620 net.cpp:139] Memory required for data: 42417392
I0409 11:11:52.723562 46620 layer_factory.hpp:77] Creating layer lstm1_h_conted_0
I0409 11:11:52.723572 46620 net.cpp:86] Creating Layer lstm1_h_conted_0
I0409 11:11:52.723574 46620 net.cpp:408] lstm1_h_conted_0 <- h_0
I0409 11:11:52.723580 46620 net.cpp:408] lstm1_h_conted_0 <- cont_1_lstm1_cont_slice_0_split_0
I0409 11:11:52.723587 46620 net.cpp:382] lstm1_h_conted_0 -> h_conted_0
I0409 11:11:52.723642 46620 net.cpp:124] Setting up lstm1_h_conted_0
I0409 11:11:52.723650 46620 net.cpp:131] Top shape: 1 523 128 (66944)
I0409 11:11:52.723654 46620 net.cpp:139] Memory required for data: 42685168
I0409 11:11:52.723657 46620 layer_factory.hpp:77] Creating layer lstm1_transform_1
I0409 11:11:52.723667 46620 net.cpp:86] Creating Layer lstm1_transform_1
I0409 11:11:52.723670 46620 net.cpp:408] lstm1_transform_1 <- h_conted_0
I0409 11:11:52.723676 46620 net.cpp:382] lstm1_transform_1 -> W_hc_h_0
I0409 11:11:52.724777 46620 net.cpp:124] Setting up lstm1_transform_1
I0409 11:11:52.724792 46620 net.cpp:131] Top shape: 1 523 512 (267776)
I0409 11:11:52.724797 46620 net.cpp:139] Memory required for data: 43756272
I0409 11:11:52.724803 46620 layer_factory.hpp:77] Creating layer lstm1_gate_input_1
I0409 11:11:52.724812 46620 net.cpp:86] Creating Layer lstm1_gate_input_1
I0409 11:11:52.724817 46620 net.cpp:408] lstm1_gate_input_1 <- W_hc_h_0
I0409 11:11:52.724822 46620 net.cpp:408] lstm1_gate_input_1 <- W_xc_x_1
I0409 11:11:52.724828 46620 net.cpp:382] lstm1_gate_input_1 -> gate_input_1
I0409 11:11:52.724853 46620 net.cpp:124] Setting up lstm1_gate_input_1
I0409 11:11:52.724861 46620 net.cpp:131] Top shape: 1 523 512 (267776)
I0409 11:11:52.724865 46620 net.cpp:139] Memory required for data: 44827376
I0409 11:11:52.724869 46620 layer_factory.hpp:77] Creating layer lstm1_unit_1
I0409 11:11:52.724875 46620 net.cpp:86] Creating Layer lstm1_unit_1
I0409 11:11:52.724880 46620 net.cpp:408] lstm1_unit_1 <- c_0
I0409 11:11:52.724884 46620 net.cpp:408] lstm1_unit_1 <- gate_input_1
I0409 11:11:52.724889 46620 net.cpp:408] lstm1_unit_1 <- cont_1_lstm1_cont_slice_0_split_1
I0409 11:11:52.724895 46620 net.cpp:382] lstm1_unit_1 -> c_1
I0409 11:11:52.724901 46620 net.cpp:382] lstm1_unit_1 -> h_1
I0409 11:11:52.724942 46620 net.cpp:124] Setting up lstm1_unit_1
I0409 11:11:52.724949 46620 net.cpp:131] Top shape: 1 523 128 (66944)
I0409 11:11:52.724956 46620 net.cpp:131] Top shape: 1 523 128 (66944)
I0409 11:11:52.724959 46620 net.cpp:139] Memory required for data: 45362928
I0409 11:11:52.724975 46620 layer_factory.hpp:77] Creating layer h_1_lstm1_unit_1_1_split
I0409 11:11:52.724982 46620 net.cpp:86] Creating Layer h_1_lstm1_unit_1_1_split
I0409 11:11:52.724984 46620 net.cpp:408] h_1_lstm1_unit_1_1_split <- h_1
I0409 11:11:52.724990 46620 net.cpp:382] h_1_lstm1_unit_1_1_split -> h_1_lstm1_unit_1_1_split_0
I0409 11:11:52.724997 46620 net.cpp:382] h_1_lstm1_unit_1_1_split -> h_1_lstm1_unit_1_1_split_1
I0409 11:11:52.725033 46620 net.cpp:124] Setting up h_1_lstm1_unit_1_1_split
I0409 11:11:52.725039 46620 net.cpp:131] Top shape: 1 523 128 (66944)
I0409 11:11:52.725044 46620 net.cpp:131] Top shape: 1 523 128 (66944)
I0409 11:11:52.725047 46620 net.cpp:139] Memory required for data: 45898480
I0409 11:11:52.725050 46620 layer_factory.hpp:77] Creating layer lstm1_h_conted_1
I0409 11:11:52.725056 46620 net.cpp:86] Creating Layer lstm1_h_conted_1
I0409 11:11:52.725060 46620 net.cpp:408] lstm1_h_conted_1 <- h_1_lstm1_unit_1_1_split_0
I0409 11:11:52.725064 46620 net.cpp:408] lstm1_h_conted_1 <- cont_2_lstm1_cont_slice_1_split_0
I0409 11:11:52.725075 46620 net.cpp:382] lstm1_h_conted_1 -> h_conted_1
I0409 11:11:52.725133 46620 net.cpp:124] Setting up lstm1_h_conted_1
I0409 11:11:52.725142 46620 net.cpp:131] Top shape: 1 523 128 (66944)
I0409 11:11:52.725145 46620 net.cpp:139] Memory required for data: 46166256
I0409 11:11:52.725148 46620 layer_factory.hpp:77] Creating layer lstm1_transform_2
I0409 11:11:52.725154 46620 net.cpp:86] Creating Layer lstm1_transform_2
I0409 11:11:52.725159 46620 net.cpp:408] lstm1_transform_2 <- h_conted_1
I0409 11:11:52.725167 46620 net.cpp:382] lstm1_transform_2 -> W_hc_h_1
I0409 11:11:52.725585 46620 net.cpp:124] Setting up lstm1_transform_2
I0409 11:11:52.725594 46620 net.cpp:131] Top shape: 1 523 512 (267776)
I0409 11:11:52.725598 46620 net.cpp:139] Memory required for data: 47237360
I0409 11:11:52.725602 46620 net.cpp:467] Sharing parameters 'W_hc' owned by layer 'lstm1_transform_1', param index 0
I0409 11:11:52.725606 46620 layer_factory.hpp:77] Creating layer lstm1_gate_input_2
I0409 11:11:52.725612 46620 net.cpp:86] Creating Layer lstm1_gate_input_2
I0409 11:11:52.725616 46620 net.cpp:408] lstm1_gate_input_2 <- W_hc_h_1
I0409 11:11:52.725620 46620 net.cpp:408] lstm1_gate_input_2 <- W_xc_x_2
I0409 11:11:52.725626 46620 net.cpp:382] lstm1_gate_input_2 -> gate_input_2
I0409 11:11:52.725648 46620 net.cpp:124] Setting up lstm1_gate_input_2
I0409 11:11:52.725656 46620 net.cpp:131] Top shape: 1 523 512 (267776)
I0409 11:11:52.725658 46620 net.cpp:139] Memory required for data: 48308464
I0409 11:11:52.725661 46620 layer_factory.hpp:77] Creating layer lstm1_unit_2
I0409 11:11:52.725666 46620 net.cpp:86] Creating Layer lstm1_unit_2
I0409 11:11:52.725672 46620 net.cpp:408] lstm1_unit_2 <- c_1
I0409 11:11:52.725675 46620 net.cpp:408] lstm1_unit_2 <- gate_input_2
I0409 11:11:52.725679 46620 net.cpp:408] lstm1_unit_2 <- cont_2_lstm1_cont_slice_1_split_1
I0409 11:11:52.725685 46620 net.cpp:382] lstm1_unit_2 -> c_2
I0409 11:11:52.725692 46620 net.cpp:382] lstm1_unit_2 -> h_2
I0409 11:11:52.725731 46620 net.cpp:124] Setting up lstm1_unit_2
I0409 11:11:52.725739 46620 net.cpp:131] Top shape: 1 523 128 (66944)
I0409 11:11:52.725742 46620 net.cpp:131] Top shape: 1 523 128 (66944)
I0409 11:11:52.725746 46620 net.cpp:139] Memory required for data: 48844016
I0409 11:11:52.725749 46620 layer_factory.hpp:77] Creating layer h_2_lstm1_unit_2_1_split
I0409 11:11:52.725756 46620 net.cpp:86] Creating Layer h_2_lstm1_unit_2_1_split
I0409 11:11:52.725760 46620 net.cpp:408] h_2_lstm1_unit_2_1_split <- h_2
I0409 11:11:52.725765 46620 net.cpp:382] h_2_lstm1_unit_2_1_split -> h_2_lstm1_unit_2_1_split_0
I0409 11:11:52.725771 46620 net.cpp:382] h_2_lstm1_unit_2_1_split -> h_2_lstm1_unit_2_1_split_1
I0409 11:11:52.725801 46620 net.cpp:124] Setting up h_2_lstm1_unit_2_1_split
I0409 11:11:52.725808 46620 net.cpp:131] Top shape: 1 523 128 (66944)
I0409 11:11:52.725813 46620 net.cpp:131] Top shape: 1 523 128 (66944)
I0409 11:11:52.725816 46620 net.cpp:139] Memory required for data: 49379568
I0409 11:11:52.725831 46620 layer_factory.hpp:77] Creating layer lstm1_h_conted_2
I0409 11:11:52.725838 46620 net.cpp:86] Creating Layer lstm1_h_conted_2
I0409 11:11:52.725843 46620 net.cpp:408] lstm1_h_conted_2 <- h_2_lstm1_unit_2_1_split_0
I0409 11:11:52.725847 46620 net.cpp:408] lstm1_h_conted_2 <- cont_3_lstm1_cont_slice_2_split_0
I0409 11:11:52.725852 46620 net.cpp:382] lstm1_h_conted_2 -> h_conted_2
I0409 11:11:52.725908 46620 net.cpp:124] Setting up lstm1_h_conted_2
I0409 11:11:52.725915 46620 net.cpp:131] Top shape: 1 523 128 (66944)
I0409 11:11:52.725919 46620 net.cpp:139] Memory required for data: 49647344
I0409 11:11:52.725922 46620 layer_factory.hpp:77] Creating layer lstm1_transform_3
I0409 11:11:52.725927 46620 net.cpp:86] Creating Layer lstm1_transform_3
I0409 11:11:52.725931 46620 net.cpp:408] lstm1_transform_3 <- h_conted_2
I0409 11:11:52.725939 46620 net.cpp:382] lstm1_transform_3 -> W_hc_h_2
I0409 11:11:52.726359 46620 net.cpp:124] Setting up lstm1_transform_3
I0409 11:11:52.726367 46620 net.cpp:131] Top shape: 1 523 512 (267776)
I0409 11:11:52.726372 46620 net.cpp:139] Memory required for data: 50718448
I0409 11:11:52.726377 46620 net.cpp:467] Sharing parameters 'W_hc' owned by layer 'lstm1_transform_1', param index 0
I0409 11:11:52.726380 46620 layer_factory.hpp:77] Creating layer lstm1_gate_input_3
I0409 11:11:52.726387 46620 net.cpp:86] Creating Layer lstm1_gate_input_3
I0409 11:11:52.726390 46620 net.cpp:408] lstm1_gate_input_3 <- W_hc_h_2
I0409 11:11:52.726394 46620 net.cpp:408] lstm1_gate_input_3 <- W_xc_x_3
I0409 11:11:52.726399 46620 net.cpp:382] lstm1_gate_input_3 -> gate_input_3
I0409 11:11:52.726423 46620 net.cpp:124] Setting up lstm1_gate_input_3
I0409 11:11:52.726429 46620 net.cpp:131] Top shape: 1 523 512 (267776)
I0409 11:11:52.726433 46620 net.cpp:139] Memory required for data: 51789552
I0409 11:11:52.726436 46620 layer_factory.hpp:77] Creating layer lstm1_unit_3
I0409 11:11:52.726440 46620 net.cpp:86] Creating Layer lstm1_unit_3
I0409 11:11:52.726445 46620 net.cpp:408] lstm1_unit_3 <- c_2
I0409 11:11:52.726449 46620 net.cpp:408] lstm1_unit_3 <- gate_input_3
I0409 11:11:52.726454 46620 net.cpp:408] lstm1_unit_3 <- cont_3_lstm1_cont_slice_2_split_1
I0409 11:11:52.726459 46620 net.cpp:382] lstm1_unit_3 -> c_3
I0409 11:11:52.726465 46620 net.cpp:382] lstm1_unit_3 -> h_3
I0409 11:11:52.726505 46620 net.cpp:124] Setting up lstm1_unit_3
I0409 11:11:52.726511 46620 net.cpp:131] Top shape: 1 523 128 (66944)
I0409 11:11:52.726516 46620 net.cpp:131] Top shape: 1 523 128 (66944)
I0409 11:11:52.726519 46620 net.cpp:139] Memory required for data: 52325104
I0409 11:11:52.726522 46620 layer_factory.hpp:77] Creating layer h_3_lstm1_unit_3_1_split
I0409 11:11:52.726531 46620 net.cpp:86] Creating Layer h_3_lstm1_unit_3_1_split
I0409 11:11:52.726534 46620 net.cpp:408] h_3_lstm1_unit_3_1_split <- h_3
I0409 11:11:52.726541 46620 net.cpp:382] h_3_lstm1_unit_3_1_split -> h_3_lstm1_unit_3_1_split_0
I0409 11:11:52.726547 46620 net.cpp:382] h_3_lstm1_unit_3_1_split -> h_3_lstm1_unit_3_1_split_1
I0409 11:11:52.726578 46620 net.cpp:124] Setting up h_3_lstm1_unit_3_1_split
I0409 11:11:52.726585 46620 net.cpp:131] Top shape: 1 523 128 (66944)
I0409 11:11:52.726590 46620 net.cpp:131] Top shape: 1 523 128 (66944)
I0409 11:11:52.726599 46620 net.cpp:139] Memory required for data: 52860656
I0409 11:11:52.726603 46620 layer_factory.hpp:77] Creating layer lstm1_h_conted_3
I0409 11:11:52.726610 46620 net.cpp:86] Creating Layer lstm1_h_conted_3
I0409 11:11:52.726615 46620 net.cpp:408] lstm1_h_conted_3 <- h_3_lstm1_unit_3_1_split_0
I0409 11:11:52.726619 46620 net.cpp:408] lstm1_h_conted_3 <- cont_4_lstm1_cont_slice_3_split_0
I0409 11:11:52.726624 46620 net.cpp:382] lstm1_h_conted_3 -> h_conted_3
I0409 11:11:52.726677 46620 net.cpp:124] Setting up lstm1_h_conted_3
I0409 11:11:52.726686 46620 net.cpp:131] Top shape: 1 523 128 (66944)
I0409 11:11:52.726689 46620 net.cpp:139] Memory required for data: 53128432
I0409 11:11:52.726693 46620 layer_factory.hpp:77] Creating layer lstm1_transform_4
I0409 11:11:52.726701 46620 net.cpp:86] Creating Layer lstm1_transform_4
I0409 11:11:52.726714 46620 net.cpp:408] lstm1_transform_4 <- h_conted_3
I0409 11:11:52.726721 46620 net.cpp:382] lstm1_transform_4 -> W_hc_h_3
I0409 11:11:52.727140 46620 net.cpp:124] Setting up lstm1_transform_4
I0409 11:11:52.727149 46620 net.cpp:131] Top shape: 1 523 512 (267776)
I0409 11:11:52.727152 46620 net.cpp:139] Memory required for data: 54199536
I0409 11:11:52.727156 46620 net.cpp:467] Sharing parameters 'W_hc' owned by layer 'lstm1_transform_1', param index 0
I0409 11:11:52.727160 46620 layer_factory.hpp:77] Creating layer lstm1_gate_input_4
I0409 11:11:52.727166 46620 net.cpp:86] Creating Layer lstm1_gate_input_4
I0409 11:11:52.727170 46620 net.cpp:408] lstm1_gate_input_4 <- W_hc_h_3
I0409 11:11:52.727175 46620 net.cpp:408] lstm1_gate_input_4 <- W_xc_x_4
I0409 11:11:52.727182 46620 net.cpp:382] lstm1_gate_input_4 -> gate_input_4
I0409 11:11:52.727203 46620 net.cpp:124] Setting up lstm1_gate_input_4
I0409 11:11:52.727210 46620 net.cpp:131] Top shape: 1 523 512 (267776)
I0409 11:11:52.727213 46620 net.cpp:139] Memory required for data: 55270640
I0409 11:11:52.727216 46620 layer_factory.hpp:77] Creating layer lstm1_unit_4
I0409 11:11:52.727221 46620 net.cpp:86] Creating Layer lstm1_unit_4
I0409 11:11:52.727226 46620 net.cpp:408] lstm1_unit_4 <- c_3
I0409 11:11:52.727231 46620 net.cpp:408] lstm1_unit_4 <- gate_input_4
I0409 11:11:52.727234 46620 net.cpp:408] lstm1_unit_4 <- cont_4_lstm1_cont_slice_3_split_1
I0409 11:11:52.727239 46620 net.cpp:382] lstm1_unit_4 -> c_4
I0409 11:11:52.727246 46620 net.cpp:382] lstm1_unit_4 -> h_4
I0409 11:11:52.727288 46620 net.cpp:124] Setting up lstm1_unit_4
I0409 11:11:52.727293 46620 net.cpp:131] Top shape: 1 523 128 (66944)
I0409 11:11:52.727298 46620 net.cpp:131] Top shape: 1 523 128 (66944)
I0409 11:11:52.727301 46620 net.cpp:139] Memory required for data: 55806192
I0409 11:11:52.727305 46620 layer_factory.hpp:77] Creating layer h_4_lstm1_unit_4_1_split
I0409 11:11:52.727309 46620 net.cpp:86] Creating Layer h_4_lstm1_unit_4_1_split
I0409 11:11:52.727313 46620 net.cpp:408] h_4_lstm1_unit_4_1_split <- h_4
I0409 11:11:52.727319 46620 net.cpp:382] h_4_lstm1_unit_4_1_split -> h_4_lstm1_unit_4_1_split_0
I0409 11:11:52.727325 46620 net.cpp:382] h_4_lstm1_unit_4_1_split -> h_4_lstm1_unit_4_1_split_1
I0409 11:11:52.727355 46620 net.cpp:124] Setting up h_4_lstm1_unit_4_1_split
I0409 11:11:52.727362 46620 net.cpp:131] Top shape: 1 523 128 (66944)
I0409 11:11:52.727367 46620 net.cpp:131] Top shape: 1 523 128 (66944)
I0409 11:11:52.727370 46620 net.cpp:139] Memory required for data: 56341744
I0409 11:11:52.727373 46620 layer_factory.hpp:77] Creating layer lstm1_h_conted_4
I0409 11:11:52.727378 46620 net.cpp:86] Creating Layer lstm1_h_conted_4
I0409 11:11:52.727383 46620 net.cpp:408] lstm1_h_conted_4 <- h_4_lstm1_unit_4_1_split_0
I0409 11:11:52.727387 46620 net.cpp:408] lstm1_h_conted_4 <- cont_5_lstm1_cont_slice_4_split_0
I0409 11:11:52.727394 46620 net.cpp:382] lstm1_h_conted_4 -> h_conted_4
I0409 11:11:52.727449 46620 net.cpp:124] Setting up lstm1_h_conted_4
I0409 11:11:52.727458 46620 net.cpp:131] Top shape: 1 523 128 (66944)
I0409 11:11:52.727460 46620 net.cpp:139] Memory required for data: 56609520
I0409 11:11:52.727463 46620 layer_factory.hpp:77] Creating layer lstm1_transform_5
I0409 11:11:52.727470 46620 net.cpp:86] Creating Layer lstm1_transform_5
I0409 11:11:52.727474 46620 net.cpp:408] lstm1_transform_5 <- h_conted_4
I0409 11:11:52.727480 46620 net.cpp:382] lstm1_transform_5 -> W_hc_h_4
I0409 11:11:52.728579 46620 net.cpp:124] Setting up lstm1_transform_5
I0409 11:11:52.728592 46620 net.cpp:131] Top shape: 1 523 512 (267776)
I0409 11:11:52.728597 46620 net.cpp:139] Memory required for data: 57680624
I0409 11:11:52.728601 46620 net.cpp:467] Sharing parameters 'W_hc' owned by layer 'lstm1_transform_1', param index 0
I0409 11:11:52.728605 46620 layer_factory.hpp:77] Creating layer lstm1_gate_input_5
I0409 11:11:52.728613 46620 net.cpp:86] Creating Layer lstm1_gate_input_5
I0409 11:11:52.728618 46620 net.cpp:408] lstm1_gate_input_5 <- W_hc_h_4
I0409 11:11:52.728636 46620 net.cpp:408] lstm1_gate_input_5 <- W_xc_x_5
I0409 11:11:52.728642 46620 net.cpp:382] lstm1_gate_input_5 -> gate_input_5
I0409 11:11:52.728667 46620 net.cpp:124] Setting up lstm1_gate_input_5
I0409 11:11:52.728674 46620 net.cpp:131] Top shape: 1 523 512 (267776)
I0409 11:11:52.728677 46620 net.cpp:139] Memory required for data: 58751728
I0409 11:11:52.728680 46620 layer_factory.hpp:77] Creating layer lstm1_unit_5
I0409 11:11:52.728685 46620 net.cpp:86] Creating Layer lstm1_unit_5
I0409 11:11:52.728690 46620 net.cpp:408] lstm1_unit_5 <- c_4
I0409 11:11:52.728694 46620 net.cpp:408] lstm1_unit_5 <- gate_input_5
I0409 11:11:52.728699 46620 net.cpp:408] lstm1_unit_5 <- cont_5_lstm1_cont_slice_4_split_1
I0409 11:11:52.728706 46620 net.cpp:382] lstm1_unit_5 -> c_5
I0409 11:11:52.728713 46620 net.cpp:382] lstm1_unit_5 -> h_5
I0409 11:11:52.728754 46620 net.cpp:124] Setting up lstm1_unit_5
I0409 11:11:52.728761 46620 net.cpp:131] Top shape: 1 523 128 (66944)
I0409 11:11:52.728765 46620 net.cpp:131] Top shape: 1 523 128 (66944)
I0409 11:11:52.728770 46620 net.cpp:139] Memory required for data: 59287280
I0409 11:11:52.728772 46620 layer_factory.hpp:77] Creating layer h_5_lstm1_unit_5_1_split
I0409 11:11:52.728777 46620 net.cpp:86] Creating Layer h_5_lstm1_unit_5_1_split
I0409 11:11:52.728781 46620 net.cpp:408] h_5_lstm1_unit_5_1_split <- h_5
I0409 11:11:52.728788 46620 net.cpp:382] h_5_lstm1_unit_5_1_split -> h_5_lstm1_unit_5_1_split_0
I0409 11:11:52.728796 46620 net.cpp:382] h_5_lstm1_unit_5_1_split -> h_5_lstm1_unit_5_1_split_1
I0409 11:11:52.728823 46620 net.cpp:124] Setting up h_5_lstm1_unit_5_1_split
I0409 11:11:52.728829 46620 net.cpp:131] Top shape: 1 523 128 (66944)
I0409 11:11:52.728834 46620 net.cpp:131] Top shape: 1 523 128 (66944)
I0409 11:11:52.728837 46620 net.cpp:139] Memory required for data: 59822832
I0409 11:11:52.728842 46620 layer_factory.hpp:77] Creating layer lstm1_h_conted_5
I0409 11:11:52.728848 46620 net.cpp:86] Creating Layer lstm1_h_conted_5
I0409 11:11:52.728853 46620 net.cpp:408] lstm1_h_conted_5 <- h_5_lstm1_unit_5_1_split_0
I0409 11:11:52.728857 46620 net.cpp:408] lstm1_h_conted_5 <- cont_6_lstm1_cont_slice_5_split_0
I0409 11:11:52.728863 46620 net.cpp:382] lstm1_h_conted_5 -> h_conted_5
I0409 11:11:52.728915 46620 net.cpp:124] Setting up lstm1_h_conted_5
I0409 11:11:52.728922 46620 net.cpp:131] Top shape: 1 523 128 (66944)
I0409 11:11:52.728926 46620 net.cpp:139] Memory required for data: 60090608
I0409 11:11:52.728929 46620 layer_factory.hpp:77] Creating layer lstm1_transform_6
I0409 11:11:52.728935 46620 net.cpp:86] Creating Layer lstm1_transform_6
I0409 11:11:52.728940 46620 net.cpp:408] lstm1_transform_6 <- h_conted_5
I0409 11:11:52.728945 46620 net.cpp:382] lstm1_transform_6 -> W_hc_h_5
I0409 11:11:52.729364 46620 net.cpp:124] Setting up lstm1_transform_6
I0409 11:11:52.729372 46620 net.cpp:131] Top shape: 1 523 512 (267776)
I0409 11:11:52.729377 46620 net.cpp:139] Memory required for data: 61161712
I0409 11:11:52.729380 46620 net.cpp:467] Sharing parameters 'W_hc' owned by layer 'lstm1_transform_1', param index 0
I0409 11:11:52.729383 46620 layer_factory.hpp:77] Creating layer lstm1_gate_input_6
I0409 11:11:52.729393 46620 net.cpp:86] Creating Layer lstm1_gate_input_6
I0409 11:11:52.729398 46620 net.cpp:408] lstm1_gate_input_6 <- W_hc_h_5
I0409 11:11:52.729401 46620 net.cpp:408] lstm1_gate_input_6 <- W_xc_x_6
I0409 11:11:52.729406 46620 net.cpp:382] lstm1_gate_input_6 -> gate_input_6
I0409 11:11:52.729427 46620 net.cpp:124] Setting up lstm1_gate_input_6
I0409 11:11:52.729434 46620 net.cpp:131] Top shape: 1 523 512 (267776)
I0409 11:11:52.729437 46620 net.cpp:139] Memory required for data: 62232816
I0409 11:11:52.729440 46620 layer_factory.hpp:77] Creating layer lstm1_unit_6
I0409 11:11:52.729445 46620 net.cpp:86] Creating Layer lstm1_unit_6
I0409 11:11:52.729450 46620 net.cpp:408] lstm1_unit_6 <- c_5
I0409 11:11:52.729454 46620 net.cpp:408] lstm1_unit_6 <- gate_input_6
I0409 11:11:52.729459 46620 net.cpp:408] lstm1_unit_6 <- cont_6_lstm1_cont_slice_5_split_1
I0409 11:11:52.729466 46620 net.cpp:382] lstm1_unit_6 -> c_6
I0409 11:11:52.729481 46620 net.cpp:382] lstm1_unit_6 -> h_6
I0409 11:11:52.729522 46620 net.cpp:124] Setting up lstm1_unit_6
I0409 11:11:52.729529 46620 net.cpp:131] Top shape: 1 523 128 (66944)
I0409 11:11:52.729534 46620 net.cpp:131] Top shape: 1 523 128 (66944)
I0409 11:11:52.729538 46620 net.cpp:139] Memory required for data: 62768368
I0409 11:11:52.729542 46620 layer_factory.hpp:77] Creating layer h_6_lstm1_unit_6_1_split
I0409 11:11:52.729547 46620 net.cpp:86] Creating Layer h_6_lstm1_unit_6_1_split
I0409 11:11:52.729549 46620 net.cpp:408] h_6_lstm1_unit_6_1_split <- h_6
I0409 11:11:52.729557 46620 net.cpp:382] h_6_lstm1_unit_6_1_split -> h_6_lstm1_unit_6_1_split_0
I0409 11:11:52.729563 46620 net.cpp:382] h_6_lstm1_unit_6_1_split -> h_6_lstm1_unit_6_1_split_1
I0409 11:11:52.729593 46620 net.cpp:124] Setting up h_6_lstm1_unit_6_1_split
I0409 11:11:52.729598 46620 net.cpp:131] Top shape: 1 523 128 (66944)
I0409 11:11:52.729604 46620 net.cpp:131] Top shape: 1 523 128 (66944)
I0409 11:11:52.729606 46620 net.cpp:139] Memory required for data: 63303920
I0409 11:11:52.729609 46620 layer_factory.hpp:77] Creating layer lstm1_h_conted_6
I0409 11:11:52.729616 46620 net.cpp:86] Creating Layer lstm1_h_conted_6
I0409 11:11:52.729621 46620 net.cpp:408] lstm1_h_conted_6 <- h_6_lstm1_unit_6_1_split_0
I0409 11:11:52.729625 46620 net.cpp:408] lstm1_h_conted_6 <- cont_7_lstm1_cont_slice_6_split_0
I0409 11:11:52.729634 46620 net.cpp:382] lstm1_h_conted_6 -> h_conted_6
I0409 11:11:52.729686 46620 net.cpp:124] Setting up lstm1_h_conted_6
I0409 11:11:52.729692 46620 net.cpp:131] Top shape: 1 523 128 (66944)
I0409 11:11:52.729696 46620 net.cpp:139] Memory required for data: 63571696
I0409 11:11:52.729698 46620 layer_factory.hpp:77] Creating layer lstm1_transform_7
I0409 11:11:52.729704 46620 net.cpp:86] Creating Layer lstm1_transform_7
I0409 11:11:52.729708 46620 net.cpp:408] lstm1_transform_7 <- h_conted_6
I0409 11:11:52.729713 46620 net.cpp:382] lstm1_transform_7 -> W_hc_h_6
I0409 11:11:52.730134 46620 net.cpp:124] Setting up lstm1_transform_7
I0409 11:11:52.730141 46620 net.cpp:131] Top shape: 1 523 512 (267776)
I0409 11:11:52.730145 46620 net.cpp:139] Memory required for data: 64642800
I0409 11:11:52.730150 46620 net.cpp:467] Sharing parameters 'W_hc' owned by layer 'lstm1_transform_1', param index 0
I0409 11:11:52.730154 46620 layer_factory.hpp:77] Creating layer lstm1_gate_input_7
I0409 11:11:52.730161 46620 net.cpp:86] Creating Layer lstm1_gate_input_7
I0409 11:11:52.730166 46620 net.cpp:408] lstm1_gate_input_7 <- W_hc_h_6
I0409 11:11:52.730170 46620 net.cpp:408] lstm1_gate_input_7 <- W_xc_x_7
I0409 11:11:52.730175 46620 net.cpp:382] lstm1_gate_input_7 -> gate_input_7
I0409 11:11:52.730196 46620 net.cpp:124] Setting up lstm1_gate_input_7
I0409 11:11:52.730203 46620 net.cpp:131] Top shape: 1 523 512 (267776)
I0409 11:11:52.730206 46620 net.cpp:139] Memory required for data: 65713904
I0409 11:11:52.730211 46620 layer_factory.hpp:77] Creating layer lstm1_unit_7
I0409 11:11:52.730216 46620 net.cpp:86] Creating Layer lstm1_unit_7
I0409 11:11:52.730221 46620 net.cpp:408] lstm1_unit_7 <- c_6
I0409 11:11:52.730226 46620 net.cpp:408] lstm1_unit_7 <- gate_input_7
I0409 11:11:52.730231 46620 net.cpp:408] lstm1_unit_7 <- cont_7_lstm1_cont_slice_6_split_1
I0409 11:11:52.730235 46620 net.cpp:382] lstm1_unit_7 -> c_7
I0409 11:11:52.730242 46620 net.cpp:382] lstm1_unit_7 -> h_7
I0409 11:11:52.730281 46620 net.cpp:124] Setting up lstm1_unit_7
I0409 11:11:52.730288 46620 net.cpp:131] Top shape: 1 523 128 (66944)
I0409 11:11:52.730293 46620 net.cpp:131] Top shape: 1 523 128 (66944)
I0409 11:11:52.730296 46620 net.cpp:139] Memory required for data: 66249456
I0409 11:11:52.730299 46620 layer_factory.hpp:77] Creating layer h_7_lstm1_unit_7_1_split
I0409 11:11:52.730304 46620 net.cpp:86] Creating Layer h_7_lstm1_unit_7_1_split
I0409 11:11:52.730307 46620 net.cpp:408] h_7_lstm1_unit_7_1_split <- h_7
I0409 11:11:52.730315 46620 net.cpp:382] h_7_lstm1_unit_7_1_split -> h_7_lstm1_unit_7_1_split_0
I0409 11:11:52.730321 46620 net.cpp:382] h_7_lstm1_unit_7_1_split -> h_7_lstm1_unit_7_1_split_1
I0409 11:11:52.730365 46620 net.cpp:124] Setting up h_7_lstm1_unit_7_1_split
I0409 11:11:52.730372 46620 net.cpp:131] Top shape: 1 523 128 (66944)
I0409 11:11:52.730378 46620 net.cpp:131] Top shape: 1 523 128 (66944)
I0409 11:11:52.730381 46620 net.cpp:139] Memory required for data: 66785008
I0409 11:11:52.730384 46620 layer_factory.hpp:77] Creating layer lstm1_h_conted_7
I0409 11:11:52.730389 46620 net.cpp:86] Creating Layer lstm1_h_conted_7
I0409 11:11:52.730394 46620 net.cpp:408] lstm1_h_conted_7 <- h_7_lstm1_unit_7_1_split_0
I0409 11:11:52.730398 46620 net.cpp:408] lstm1_h_conted_7 <- cont_8_lstm1_cont_slice_7_split_0
I0409 11:11:52.730406 46620 net.cpp:382] lstm1_h_conted_7 -> h_conted_7
I0409 11:11:52.730458 46620 net.cpp:124] Setting up lstm1_h_conted_7
I0409 11:11:52.730466 46620 net.cpp:131] Top shape: 1 523 128 (66944)
I0409 11:11:52.730469 46620 net.cpp:139] Memory required for data: 67052784
I0409 11:11:52.730473 46620 layer_factory.hpp:77] Creating layer lstm1_transform_8
I0409 11:11:52.730479 46620 net.cpp:86] Creating Layer lstm1_transform_8
I0409 11:11:52.730482 46620 net.cpp:408] lstm1_transform_8 <- h_conted_7
I0409 11:11:52.730487 46620 net.cpp:382] lstm1_transform_8 -> W_hc_h_7
I0409 11:11:52.730927 46620 net.cpp:124] Setting up lstm1_transform_8
I0409 11:11:52.730937 46620 net.cpp:131] Top shape: 1 523 512 (267776)
I0409 11:11:52.730942 46620 net.cpp:139] Memory required for data: 68123888
I0409 11:11:52.730944 46620 net.cpp:467] Sharing parameters 'W_hc' owned by layer 'lstm1_transform_1', param index 0
I0409 11:11:52.730960 46620 layer_factory.hpp:77] Creating layer lstm1_gate_input_8
I0409 11:11:52.730968 46620 net.cpp:86] Creating Layer lstm1_gate_input_8
I0409 11:11:52.730973 46620 net.cpp:408] lstm1_gate_input_8 <- W_hc_h_7
I0409 11:11:52.730978 46620 net.cpp:408] lstm1_gate_input_8 <- W_xc_x_8
I0409 11:11:52.730983 46620 net.cpp:382] lstm1_gate_input_8 -> gate_input_8
I0409 11:11:52.731003 46620 net.cpp:124] Setting up lstm1_gate_input_8
I0409 11:11:52.731010 46620 net.cpp:131] Top shape: 1 523 512 (267776)
I0409 11:11:52.731014 46620 net.cpp:139] Memory required for data: 69194992
I0409 11:11:52.731017 46620 layer_factory.hpp:77] Creating layer lstm1_unit_8
I0409 11:11:52.731021 46620 net.cpp:86] Creating Layer lstm1_unit_8
I0409 11:11:52.731026 46620 net.cpp:408] lstm1_unit_8 <- c_7
I0409 11:11:52.731030 46620 net.cpp:408] lstm1_unit_8 <- gate_input_8
I0409 11:11:52.731034 46620 net.cpp:408] lstm1_unit_8 <- cont_8_lstm1_cont_slice_7_split_1
I0409 11:11:52.731041 46620 net.cpp:382] lstm1_unit_8 -> c_8
I0409 11:11:52.731048 46620 net.cpp:382] lstm1_unit_8 -> h_8
I0409 11:11:52.731089 46620 net.cpp:124] Setting up lstm1_unit_8
I0409 11:11:52.731096 46620 net.cpp:131] Top shape: 1 523 128 (66944)
I0409 11:11:52.731101 46620 net.cpp:131] Top shape: 1 523 128 (66944)
I0409 11:11:52.731104 46620 net.cpp:139] Memory required for data: 69730544
I0409 11:11:52.731108 46620 layer_factory.hpp:77] Creating layer h_8_lstm1_unit_8_1_split
I0409 11:11:52.731112 46620 net.cpp:86] Creating Layer h_8_lstm1_unit_8_1_split
I0409 11:11:52.731117 46620 net.cpp:408] h_8_lstm1_unit_8_1_split <- h_8
I0409 11:11:52.731123 46620 net.cpp:382] h_8_lstm1_unit_8_1_split -> h_8_lstm1_unit_8_1_split_0
I0409 11:11:52.731129 46620 net.cpp:382] h_8_lstm1_unit_8_1_split -> h_8_lstm1_unit_8_1_split_1
I0409 11:11:52.731158 46620 net.cpp:124] Setting up h_8_lstm1_unit_8_1_split
I0409 11:11:52.731164 46620 net.cpp:131] Top shape: 1 523 128 (66944)
I0409 11:11:52.731168 46620 net.cpp:131] Top shape: 1 523 128 (66944)
I0409 11:11:52.731171 46620 net.cpp:139] Memory required for data: 70266096
I0409 11:11:52.731175 46620 layer_factory.hpp:77] Creating layer lstm1_h_conted_8
I0409 11:11:52.731182 46620 net.cpp:86] Creating Layer lstm1_h_conted_8
I0409 11:11:52.731186 46620 net.cpp:408] lstm1_h_conted_8 <- h_8_lstm1_unit_8_1_split_0
I0409 11:11:52.731190 46620 net.cpp:408] lstm1_h_conted_8 <- cont_9_lstm1_cont_slice_8_split_0
I0409 11:11:52.731197 46620 net.cpp:382] lstm1_h_conted_8 -> h_conted_8
I0409 11:11:52.731264 46620 net.cpp:124] Setting up lstm1_h_conted_8
I0409 11:11:52.731273 46620 net.cpp:131] Top shape: 1 523 128 (66944)
I0409 11:11:52.731276 46620 net.cpp:139] Memory required for data: 70533872
I0409 11:11:52.731281 46620 layer_factory.hpp:77] Creating layer lstm1_transform_9
I0409 11:11:52.731287 46620 net.cpp:86] Creating Layer lstm1_transform_9
I0409 11:11:52.731290 46620 net.cpp:408] lstm1_transform_9 <- h_conted_8
I0409 11:11:52.731297 46620 net.cpp:382] lstm1_transform_9 -> W_hc_h_8
I0409 11:11:52.732385 46620 net.cpp:124] Setting up lstm1_transform_9
I0409 11:11:52.732399 46620 net.cpp:131] Top shape: 1 523 512 (267776)
I0409 11:11:52.732404 46620 net.cpp:139] Memory required for data: 71604976
I0409 11:11:52.732409 46620 net.cpp:467] Sharing parameters 'W_hc' owned by layer 'lstm1_transform_1', param index 0
I0409 11:11:52.732412 46620 layer_factory.hpp:77] Creating layer lstm1_gate_input_9
I0409 11:11:52.732419 46620 net.cpp:86] Creating Layer lstm1_gate_input_9
I0409 11:11:52.732424 46620 net.cpp:408] lstm1_gate_input_9 <- W_hc_h_8
I0409 11:11:52.732429 46620 net.cpp:408] lstm1_gate_input_9 <- W_xc_x_9
I0409 11:11:52.732434 46620 net.cpp:382] lstm1_gate_input_9 -> gate_input_9
I0409 11:11:52.732460 46620 net.cpp:124] Setting up lstm1_gate_input_9
I0409 11:11:52.732468 46620 net.cpp:131] Top shape: 1 523 512 (267776)
I0409 11:11:52.732471 46620 net.cpp:139] Memory required for data: 72676080
I0409 11:11:52.732475 46620 layer_factory.hpp:77] Creating layer lstm1_unit_9
I0409 11:11:52.732479 46620 net.cpp:86] Creating Layer lstm1_unit_9
I0409 11:11:52.732484 46620 net.cpp:408] lstm1_unit_9 <- c_8
I0409 11:11:52.732489 46620 net.cpp:408] lstm1_unit_9 <- gate_input_9
I0409 11:11:52.732493 46620 net.cpp:408] lstm1_unit_9 <- cont_9_lstm1_cont_slice_8_split_1
I0409 11:11:52.732498 46620 net.cpp:382] lstm1_unit_9 -> c_9
I0409 11:11:52.732506 46620 net.cpp:382] lstm1_unit_9 -> h_9
I0409 11:11:52.732547 46620 net.cpp:124] Setting up lstm1_unit_9
I0409 11:11:52.732553 46620 net.cpp:131] Top shape: 1 523 128 (66944)
I0409 11:11:52.732558 46620 net.cpp:131] Top shape: 1 523 128 (66944)
I0409 11:11:52.732561 46620 net.cpp:139] Memory required for data: 73211632
I0409 11:11:52.732564 46620 layer_factory.hpp:77] Creating layer h_9_lstm1_unit_9_1_split
I0409 11:11:52.732571 46620 net.cpp:86] Creating Layer h_9_lstm1_unit_9_1_split
I0409 11:11:52.732575 46620 net.cpp:408] h_9_lstm1_unit_9_1_split <- h_9
I0409 11:11:52.732580 46620 net.cpp:382] h_9_lstm1_unit_9_1_split -> h_9_lstm1_unit_9_1_split_0
I0409 11:11:52.732587 46620 net.cpp:382] h_9_lstm1_unit_9_1_split -> h_9_lstm1_unit_9_1_split_1
I0409 11:11:52.732616 46620 net.cpp:124] Setting up h_9_lstm1_unit_9_1_split
I0409 11:11:52.732623 46620 net.cpp:131] Top shape: 1 523 128 (66944)
I0409 11:11:52.732628 46620 net.cpp:131] Top shape: 1 523 128 (66944)
I0409 11:11:52.732631 46620 net.cpp:139] Memory required for data: 73747184
I0409 11:11:52.732635 46620 layer_factory.hpp:77] Creating layer lstm1_h_conted_9
I0409 11:11:52.732642 46620 net.cpp:86] Creating Layer lstm1_h_conted_9
I0409 11:11:52.732646 46620 net.cpp:408] lstm1_h_conted_9 <- h_9_lstm1_unit_9_1_split_0
I0409 11:11:52.732651 46620 net.cpp:408] lstm1_h_conted_9 <- cont_10_lstm1_cont_slice_9_split_0
I0409 11:11:52.732656 46620 net.cpp:382] lstm1_h_conted_9 -> h_conted_9
I0409 11:11:52.732708 46620 net.cpp:124] Setting up lstm1_h_conted_9
I0409 11:11:52.732717 46620 net.cpp:131] Top shape: 1 523 128 (66944)
I0409 11:11:52.732719 46620 net.cpp:139] Memory required for data: 74014960
I0409 11:11:52.732722 46620 layer_factory.hpp:77] Creating layer lstm1_transform_10
I0409 11:11:52.732733 46620 net.cpp:86] Creating Layer lstm1_transform_10
I0409 11:11:52.732738 46620 net.cpp:408] lstm1_transform_10 <- h_conted_9
I0409 11:11:52.732743 46620 net.cpp:382] lstm1_transform_10 -> W_hc_h_9
I0409 11:11:52.733160 46620 net.cpp:124] Setting up lstm1_transform_10
I0409 11:11:52.733170 46620 net.cpp:131] Top shape: 1 523 512 (267776)
I0409 11:11:52.733172 46620 net.cpp:139] Memory required for data: 75086064
I0409 11:11:52.733189 46620 net.cpp:467] Sharing parameters 'W_hc' owned by layer 'lstm1_transform_1', param index 0
I0409 11:11:52.733193 46620 layer_factory.hpp:77] Creating layer lstm1_gate_input_10
I0409 11:11:52.733201 46620 net.cpp:86] Creating Layer lstm1_gate_input_10
I0409 11:11:52.733206 46620 net.cpp:408] lstm1_gate_input_10 <- W_hc_h_9
I0409 11:11:52.733211 46620 net.cpp:408] lstm1_gate_input_10 <- W_xc_x_10
I0409 11:11:52.733217 46620 net.cpp:382] lstm1_gate_input_10 -> gate_input_10
I0409 11:11:52.733237 46620 net.cpp:124] Setting up lstm1_gate_input_10
I0409 11:11:52.733244 46620 net.cpp:131] Top shape: 1 523 512 (267776)
I0409 11:11:52.733248 46620 net.cpp:139] Memory required for data: 76157168
I0409 11:11:52.733252 46620 layer_factory.hpp:77] Creating layer lstm1_unit_10
I0409 11:11:52.733261 46620 net.cpp:86] Creating Layer lstm1_unit_10
I0409 11:11:52.733265 46620 net.cpp:408] lstm1_unit_10 <- c_9
I0409 11:11:52.733270 46620 net.cpp:408] lstm1_unit_10 <- gate_input_10
I0409 11:11:52.733275 46620 net.cpp:408] lstm1_unit_10 <- cont_10_lstm1_cont_slice_9_split_1
I0409 11:11:52.733280 46620 net.cpp:382] lstm1_unit_10 -> c_10
I0409 11:11:52.733287 46620 net.cpp:382] lstm1_unit_10 -> h_10
I0409 11:11:52.733327 46620 net.cpp:124] Setting up lstm1_unit_10
I0409 11:11:52.733335 46620 net.cpp:131] Top shape: 1 523 128 (66944)
I0409 11:11:52.733338 46620 net.cpp:131] Top shape: 1 523 128 (66944)
I0409 11:11:52.733342 46620 net.cpp:139] Memory required for data: 76692720
I0409 11:11:52.733345 46620 layer_factory.hpp:77] Creating layer h_10_lstm1_unit_10_1_split
I0409 11:11:52.733350 46620 net.cpp:86] Creating Layer h_10_lstm1_unit_10_1_split
I0409 11:11:52.733355 46620 net.cpp:408] h_10_lstm1_unit_10_1_split <- h_10
I0409 11:11:52.733362 46620 net.cpp:382] h_10_lstm1_unit_10_1_split -> h_10_lstm1_unit_10_1_split_0
I0409 11:11:52.733368 46620 net.cpp:382] h_10_lstm1_unit_10_1_split -> h_10_lstm1_unit_10_1_split_1
I0409 11:11:52.733400 46620 net.cpp:124] Setting up h_10_lstm1_unit_10_1_split
I0409 11:11:52.733407 46620 net.cpp:131] Top shape: 1 523 128 (66944)
I0409 11:11:52.733412 46620 net.cpp:131] Top shape: 1 523 128 (66944)
I0409 11:11:52.733415 46620 net.cpp:139] Memory required for data: 77228272
I0409 11:11:52.733418 46620 layer_factory.hpp:77] Creating layer lstm1_h_conted_10
I0409 11:11:52.733423 46620 net.cpp:86] Creating Layer lstm1_h_conted_10
I0409 11:11:52.733428 46620 net.cpp:408] lstm1_h_conted_10 <- h_10_lstm1_unit_10_1_split_0
I0409 11:11:52.733433 46620 net.cpp:408] lstm1_h_conted_10 <- cont_11_lstm1_cont_slice_10_split_0
I0409 11:11:52.733438 46620 net.cpp:382] lstm1_h_conted_10 -> h_conted_10
I0409 11:11:52.733492 46620 net.cpp:124] Setting up lstm1_h_conted_10
I0409 11:11:52.733500 46620 net.cpp:131] Top shape: 1 523 128 (66944)
I0409 11:11:52.733503 46620 net.cpp:139] Memory required for data: 77496048
I0409 11:11:52.733506 46620 layer_factory.hpp:77] Creating layer lstm1_transform_11
I0409 11:11:52.733512 46620 net.cpp:86] Creating Layer lstm1_transform_11
I0409 11:11:52.733516 46620 net.cpp:408] lstm1_transform_11 <- h_conted_10
I0409 11:11:52.733521 46620 net.cpp:382] lstm1_transform_11 -> W_hc_h_10
I0409 11:11:52.733945 46620 net.cpp:124] Setting up lstm1_transform_11
I0409 11:11:52.733954 46620 net.cpp:131] Top shape: 1 523 512 (267776)
I0409 11:11:52.733958 46620 net.cpp:139] Memory required for data: 78567152
I0409 11:11:52.733963 46620 net.cpp:467] Sharing parameters 'W_hc' owned by layer 'lstm1_transform_1', param index 0
I0409 11:11:52.733966 46620 layer_factory.hpp:77] Creating layer lstm1_gate_input_11
I0409 11:11:52.733971 46620 net.cpp:86] Creating Layer lstm1_gate_input_11
I0409 11:11:52.733975 46620 net.cpp:408] lstm1_gate_input_11 <- W_hc_h_10
I0409 11:11:52.733980 46620 net.cpp:408] lstm1_gate_input_11 <- W_xc_x_11
I0409 11:11:52.733989 46620 net.cpp:382] lstm1_gate_input_11 -> gate_input_11
I0409 11:11:52.734009 46620 net.cpp:124] Setting up lstm1_gate_input_11
I0409 11:11:52.734016 46620 net.cpp:131] Top shape: 1 523 512 (267776)
I0409 11:11:52.734030 46620 net.cpp:139] Memory required for data: 79638256
I0409 11:11:52.734035 46620 layer_factory.hpp:77] Creating layer lstm1_unit_11
I0409 11:11:52.734040 46620 net.cpp:86] Creating Layer lstm1_unit_11
I0409 11:11:52.734043 46620 net.cpp:408] lstm1_unit_11 <- c_10
I0409 11:11:52.734048 46620 net.cpp:408] lstm1_unit_11 <- gate_input_11
I0409 11:11:52.734052 46620 net.cpp:408] lstm1_unit_11 <- cont_11_lstm1_cont_slice_10_split_1
I0409 11:11:52.734057 46620 net.cpp:382] lstm1_unit_11 -> c_11
I0409 11:11:52.734064 46620 net.cpp:382] lstm1_unit_11 -> h_11
I0409 11:11:52.734109 46620 net.cpp:124] Setting up lstm1_unit_11
I0409 11:11:52.734124 46620 net.cpp:131] Top shape: 1 523 128 (66944)
I0409 11:11:52.734128 46620 net.cpp:131] Top shape: 1 523 128 (66944)
I0409 11:11:52.734133 46620 net.cpp:139] Memory required for data: 80173808
I0409 11:11:52.734135 46620 layer_factory.hpp:77] Creating layer h_11_lstm1_unit_11_1_split
I0409 11:11:52.734140 46620 net.cpp:86] Creating Layer h_11_lstm1_unit_11_1_split
I0409 11:11:52.734144 46620 net.cpp:408] h_11_lstm1_unit_11_1_split <- h_11
I0409 11:11:52.734153 46620 net.cpp:382] h_11_lstm1_unit_11_1_split -> h_11_lstm1_unit_11_1_split_0
I0409 11:11:52.734159 46620 net.cpp:382] h_11_lstm1_unit_11_1_split -> h_11_lstm1_unit_11_1_split_1
I0409 11:11:52.734189 46620 net.cpp:124] Setting up h_11_lstm1_unit_11_1_split
I0409 11:11:52.734196 46620 net.cpp:131] Top shape: 1 523 128 (66944)
I0409 11:11:52.734201 46620 net.cpp:131] Top shape: 1 523 128 (66944)
I0409 11:11:52.734205 46620 net.cpp:139] Memory required for data: 80709360
I0409 11:11:52.734207 46620 layer_factory.hpp:77] Creating layer lstm1_h_conted_11
I0409 11:11:52.734212 46620 net.cpp:86] Creating Layer lstm1_h_conted_11
I0409 11:11:52.734217 46620 net.cpp:408] lstm1_h_conted_11 <- h_11_lstm1_unit_11_1_split_0
I0409 11:11:52.734221 46620 net.cpp:408] lstm1_h_conted_11 <- cont_12_lstm1_cont_slice_11_split_0
I0409 11:11:52.734230 46620 net.cpp:382] lstm1_h_conted_11 -> h_conted_11
I0409 11:11:52.734285 46620 net.cpp:124] Setting up lstm1_h_conted_11
I0409 11:11:52.734293 46620 net.cpp:131] Top shape: 1 523 128 (66944)
I0409 11:11:52.734297 46620 net.cpp:139] Memory required for data: 80977136
I0409 11:11:52.734299 46620 layer_factory.hpp:77] Creating layer lstm1_transform_12
I0409 11:11:52.734308 46620 net.cpp:86] Creating Layer lstm1_transform_12
I0409 11:11:52.734311 46620 net.cpp:408] lstm1_transform_12 <- h_conted_11
I0409 11:11:52.734316 46620 net.cpp:382] lstm1_transform_12 -> W_hc_h_11
I0409 11:11:52.734746 46620 net.cpp:124] Setting up lstm1_transform_12
I0409 11:11:52.734755 46620 net.cpp:131] Top shape: 1 523 512 (267776)
I0409 11:11:52.734760 46620 net.cpp:139] Memory required for data: 82048240
I0409 11:11:52.734763 46620 net.cpp:467] Sharing parameters 'W_hc' owned by layer 'lstm1_transform_1', param index 0
I0409 11:11:52.734767 46620 layer_factory.hpp:77] Creating layer lstm1_gate_input_12
I0409 11:11:52.734773 46620 net.cpp:86] Creating Layer lstm1_gate_input_12
I0409 11:11:52.734777 46620 net.cpp:408] lstm1_gate_input_12 <- W_hc_h_11
I0409 11:11:52.734782 46620 net.cpp:408] lstm1_gate_input_12 <- W_xc_x_12
I0409 11:11:52.734787 46620 net.cpp:382] lstm1_gate_input_12 -> gate_input_12
I0409 11:11:52.734810 46620 net.cpp:124] Setting up lstm1_gate_input_12
I0409 11:11:52.734817 46620 net.cpp:131] Top shape: 1 523 512 (267776)
I0409 11:11:52.734822 46620 net.cpp:139] Memory required for data: 83119344
I0409 11:11:52.734824 46620 layer_factory.hpp:77] Creating layer lstm1_unit_12
I0409 11:11:52.734829 46620 net.cpp:86] Creating Layer lstm1_unit_12
I0409 11:11:52.734833 46620 net.cpp:408] lstm1_unit_12 <- c_11
I0409 11:11:52.734838 46620 net.cpp:408] lstm1_unit_12 <- gate_input_12
I0409 11:11:52.734843 46620 net.cpp:408] lstm1_unit_12 <- cont_12_lstm1_cont_slice_11_split_1
I0409 11:11:52.734848 46620 net.cpp:382] lstm1_unit_12 -> c_12
I0409 11:11:52.734854 46620 net.cpp:382] lstm1_unit_12 -> h_12
I0409 11:11:52.734897 46620 net.cpp:124] Setting up lstm1_unit_12
I0409 11:11:52.734903 46620 net.cpp:131] Top shape: 1 523 128 (66944)
I0409 11:11:52.734917 46620 net.cpp:131] Top shape: 1 523 128 (66944)
I0409 11:11:52.734922 46620 net.cpp:139] Memory required for data: 83654896
I0409 11:11:52.734925 46620 layer_factory.hpp:77] Creating layer h_12_lstm1_unit_12_1_split
I0409 11:11:52.734930 46620 net.cpp:86] Creating Layer h_12_lstm1_unit_12_1_split
I0409 11:11:52.734935 46620 net.cpp:408] h_12_lstm1_unit_12_1_split <- h_12
I0409 11:11:52.734941 46620 net.cpp:382] h_12_lstm1_unit_12_1_split -> h_12_lstm1_unit_12_1_split_0
I0409 11:11:52.734946 46620 net.cpp:382] h_12_lstm1_unit_12_1_split -> h_12_lstm1_unit_12_1_split_1
I0409 11:11:52.734977 46620 net.cpp:124] Setting up h_12_lstm1_unit_12_1_split
I0409 11:11:52.734984 46620 net.cpp:131] Top shape: 1 523 128 (66944)
I0409 11:11:52.734989 46620 net.cpp:131] Top shape: 1 523 128 (66944)
I0409 11:11:52.734992 46620 net.cpp:139] Memory required for data: 84190448
I0409 11:11:52.734995 46620 layer_factory.hpp:77] Creating layer lstm1_h_conted_12
I0409 11:11:52.735000 46620 net.cpp:86] Creating Layer lstm1_h_conted_12
I0409 11:11:52.735005 46620 net.cpp:408] lstm1_h_conted_12 <- h_12_lstm1_unit_12_1_split_0
I0409 11:11:52.735009 46620 net.cpp:408] lstm1_h_conted_12 <- cont_13_lstm1_cont_slice_12_split_0
I0409 11:11:52.735020 46620 net.cpp:382] lstm1_h_conted_12 -> h_conted_12
I0409 11:11:52.735074 46620 net.cpp:124] Setting up lstm1_h_conted_12
I0409 11:11:52.735082 46620 net.cpp:131] Top shape: 1 523 128 (66944)
I0409 11:11:52.735085 46620 net.cpp:139] Memory required for data: 84458224
I0409 11:11:52.735088 46620 layer_factory.hpp:77] Creating layer lstm1_transform_13
I0409 11:11:52.735096 46620 net.cpp:86] Creating Layer lstm1_transform_13
I0409 11:11:52.735101 46620 net.cpp:408] lstm1_transform_13 <- h_conted_12
I0409 11:11:52.735107 46620 net.cpp:382] lstm1_transform_13 -> W_hc_h_12
I0409 11:11:52.736222 46620 net.cpp:124] Setting up lstm1_transform_13
I0409 11:11:52.736235 46620 net.cpp:131] Top shape: 1 523 512 (267776)
I0409 11:11:52.736239 46620 net.cpp:139] Memory required for data: 85529328
I0409 11:11:52.736244 46620 net.cpp:467] Sharing parameters 'W_hc' owned by layer 'lstm1_transform_1', param index 0
I0409 11:11:52.736248 46620 layer_factory.hpp:77] Creating layer lstm1_gate_input_13
I0409 11:11:52.736254 46620 net.cpp:86] Creating Layer lstm1_gate_input_13
I0409 11:11:52.736258 46620 net.cpp:408] lstm1_gate_input_13 <- W_hc_h_12
I0409 11:11:52.736266 46620 net.cpp:408] lstm1_gate_input_13 <- W_xc_x_13
I0409 11:11:52.736274 46620 net.cpp:382] lstm1_gate_input_13 -> gate_input_13
I0409 11:11:52.736296 46620 net.cpp:124] Setting up lstm1_gate_input_13
I0409 11:11:52.736304 46620 net.cpp:131] Top shape: 1 523 512 (267776)
I0409 11:11:52.736307 46620 net.cpp:139] Memory required for data: 86600432
I0409 11:11:52.736310 46620 layer_factory.hpp:77] Creating layer lstm1_unit_13
I0409 11:11:52.736316 46620 net.cpp:86] Creating Layer lstm1_unit_13
I0409 11:11:52.736320 46620 net.cpp:408] lstm1_unit_13 <- c_12
I0409 11:11:52.736325 46620 net.cpp:408] lstm1_unit_13 <- gate_input_13
I0409 11:11:52.736330 46620 net.cpp:408] lstm1_unit_13 <- cont_13_lstm1_cont_slice_12_split_1
I0409 11:11:52.736337 46620 net.cpp:382] lstm1_unit_13 -> c_13
I0409 11:11:52.736344 46620 net.cpp:382] lstm1_unit_13 -> h_13
I0409 11:11:52.736385 46620 net.cpp:124] Setting up lstm1_unit_13
I0409 11:11:52.736392 46620 net.cpp:131] Top shape: 1 523 128 (66944)
I0409 11:11:52.736397 46620 net.cpp:131] Top shape: 1 523 128 (66944)
I0409 11:11:52.736400 46620 net.cpp:139] Memory required for data: 87135984
I0409 11:11:52.736404 46620 layer_factory.hpp:77] Creating layer lstm1_
I0409 11:11:52.736408 46620 net.cpp:86] Creating Layer lstm1_
I0409 11:11:52.736413 46620 net.cpp:408] lstm1_ <- c_13
I0409 11:11:52.736418 46620 net.cpp:382] lstm1_ -> c_T
I0409 11:11:52.736438 46620 net.cpp:124] Setting up lstm1_
I0409 11:11:52.736444 46620 net.cpp:131] Top shape: 1 523 128 (66944)
I0409 11:11:52.736447 46620 net.cpp:139] Memory required for data: 87403760
I0409 11:11:52.736451 46620 layer_factory.hpp:77] Creating layer lstm1_h_concat
I0409 11:11:52.736470 46620 net.cpp:86] Creating Layer lstm1_h_concat
I0409 11:11:52.736474 46620 net.cpp:408] lstm1_h_concat <- h_1_lstm1_unit_1_1_split_1
I0409 11:11:52.736479 46620 net.cpp:408] lstm1_h_concat <- h_2_lstm1_unit_2_1_split_1
…
I0409 11:11:52.739500 46620 net.cpp:202] lstm1_ does not need backward computation.
I0409 11:11:52.739504 46620 net.cpp:244] This network produces output c_T
I0409 11:11:52.739522 46620 net.cpp:244] This network produces output h_pseudoloss
I0409 11:11:52.740530 46620 net.cpp:257] Network initialization done.
I0409 11:11:52.740669 46620 recurrent_layer.cpp:150] Adding parameter 0: W_xc
I0409 11:11:52.740677 46620 recurrent_layer.cpp:150] Adding parameter 1: b_c
I0409 11:11:52.740681 46620 recurrent_layer.cpp:150] Adding parameter 2: W_hc
I0409 11:11:52.741735 46620 net.cpp:124] Setting up lstm1
I0409 11:11:52.741750 46620 net.cpp:131] Top shape: 13 523 128 (870272)
I0409 11:11:52.741755 46620 net.cpp:139] Memory required for data: 3351865160
I0409 11:11:52.741761 46620 layer_factory.hpp:77] Creating layer lstm2
I0409 11:11:52.741770 46620 net.cpp:86] Creating Layer lstm2
I0409 11:11:52.741773 46620 net.cpp:408] lstm2 <- lstm1
I0409 11:11:52.741794 46620 net.cpp:408] lstm2 <- indicator_indicator_0_split_1
I0409 11:11:52.741801 46620 net.cpp:382] lstm2 -> lstm2
I0409 11:11:52.741807 46620 recurrent_layer.cpp:20] Initializing recurrent layer: assuming input batch contains 13 timesteps of 523 independent streams.
I0409 11:11:52.742223 46620 net.cpp:53] Initializing net from parameters: 
layer {
  name: "lstm2_"
  type: "Input"
  top: "x"
  top: "cont"
  input_param {
    shape {
      dim: 13
      dim: 523
      dim: 128
    }
    shape {
      dim: 13
      dim: 523
    }
  }
}
layer {
  name: "lstm2_"
  type: "Input"
  top: "c_0"
  top: "h_0"
  input_param {
    shape {
      dim: 1
      dim: 523
      dim: 256
    }
    shape {
      dim: 1
      dim: 523
      dim: 256
    }
  }
}
layer {
  name: "lstm2_cont_slice"
  type: "Slice"
  bottom: "cont"
  top: "cont_1"
  top: "cont_2"
  top: "cont_3"
  top: "cont_4"
  top: "cont_5"
  top: "cont_6"
  top: "cont_7"
  top: "cont_8"
  top: "cont_9"
  top: "cont_10"
  top: "cont_11"
  top: "cont_12"
  top: "cont_13"
  slice_param {
    axis: 0
  }
}
layer {
  name: "lstm2_x_transform"
  type: "InnerProduct"
  bottom: "x"
  top: "W_xc_x"
  param {
    name: "W_xc"
  }
  param {
    name: "b_c"
  }
  propagate_down: true
  inner_product_param {
    num_output: 1024
    bias_term: true
    weight_filler {
      type: "xavier"
    }
    bias_filler {
      type: "constant"
      value: 0
    }
    axis: 2
  }
}
layer {
  name: "lstm2_W_xc_x_slice"
  type: "Slice"
  bottom: "W_xc_x"
  top: "W_xc_x_1"
  top: "W_xc_x_2"
  top: "W_xc_x_3"
  top: "W_xc_x_4"
  top: "W_xc_x_5"
  top: "W_xc_x_6"
  top: "W_xc_x_7"
  top: "W_xc_x_8"
  top: "W_xc_x_9"
  top: "W_xc_x_10"
  top: "W_xc_x_11"
  top: "W_xc_x_12"
  top: "W_xc_x_13"
  slice_param {
    axis: 0
  }
}
layer {
  name: "lstm2_h_conted_0"
  type: "Scale"
  bottom: "h_0"
  bottom: "cont_1"
  top: "h_conted_0"
  scale_param {
    axis: 0
  }
}
layer {
  name: "lstm2_transform_1"
  type: "InnerProduct"
  bottom: "h_conted_0"
  top: "W_hc_h_0"
  param {
    name: "W_hc"
  }
  inner_product_param {
    num_output: 1024
    bias_term: false
    weight_filler {
      type: "xavier"
    }
    axis: 2
  }
}
layer {
  name: "lstm2_gate_input_1"
  type: "Eltwise"
  bottom: "W_hc_h_0"
  bottom: "W_xc_x_1"
  top: "gate_input_1"
  eltwise_param {
    operation: SUM
  }
}
layer {
  name: "lstm2_unit_1"
  type: "LSTMUnit"
  bottom: "c_0"
  bottom: "gate_input_1"
  bottom: "cont_1"
  top: "c_1"
  top: "h_1"
}
layer {
  name: "lstm2_h_conted_1"
  type: "Scale"
  bottom: "h_1"
  bottom: "cont_2"
  top: "h_conted_1"
  scale_param {
    axis: 0
  }
}
layer {
  name: "lstm2_transform_2"
  type: "InnerProduct"
  bottom: "h_conted_1"
  top: "W_hc_h_1"
  param {
    name: "W_hc"
  }
  inner_product_param {
    num_output: 1024
    bias_term: false
    weight_filler {
      type: "xavier"
    }
    axis: 2
  }
}
layer {
  name: "lstm2_gate_input_2"
  type: "Eltwise"
  bottom: "W_hc_h_1"
  bottom: "W_xc_x_2"
  top: "gate_input_2"
  eltwise_param {
    operation: SUM
  }
}
layer {
  name: "lstm2_unit_2"
  type: "LSTMUnit"
  bottom: "c_1"
  bottom: "gate_input_2"
  bottom: "cont_2"
  top: "c_2"
  top: "h_2"
}
layer {
  name: "lstm2_h_conted_2"
  type: "Scale"
  bottom: "h_2"
  bottom: "cont_3"
  top: "h_conted_2"
  scale_param {
    axis: 0
  }
}
layer {
  name: "lstm2_transform_3"
  type: "InnerProduct"
  bottom: "h_conted_2"
  top: "W_hc_h_2"
  param {
    name: "W_hc"
  }
  inner_product_param {
    num_output: 1024
    bias_term: false
    weight_filler {
      type: "xavier"
    }
    axis: 2
  }
}
layer {
  name: "lstm2_gate_input_3"
  type: "Eltwise"
  bottom: "W_hc_h_2"
  bottom: "W_xc_x_3"
  top: "gate_input_3"
  eltwise_param {
    operation: SUM
  }
}
layer {
  name: "lstm2_unit_3"
  type: "LSTMUnit"
  bottom: "c_2"
  bottom: "gate_input_3"
  bottom: "cont_3"
  top: "c_3"
  top: "h_3"
}
layer {
  name: "lstm2_h_conted_3"
  type: "Scale"
  bottom: "h_3"
  bottom: "cont_4"
  top: "h_conted_3"
  scale_param {
    axis: 0
  }
}
layer {
  name: "lstm2_transform_4"
  type: "InnerProduct"
  bottom: "h_conted_3"
  top: "W_hc_h_3"
  param {
    name: "W_hc"
  }
  inner_product_param {
    num_output: 1024
    bias_term: false
    weight_filler {
      type: "xavier"
    }
    axis: 2
  }
}
layer {
  name: "lstm2_gate_input_4"
  type: "Eltwise"
  bottom: "W_hc_h_3"
  bottom: "W_xc_x_4"
  top: "gate_input_4"
  eltwise_param {
    operation: SUM
  }
}
layer {
  name: "lstm2_unit_4"
  type: "LSTMUnit"
  bottom: "c_3"
  bottom: "gate_input_4"
  bottom: "cont_4"
  top: "c_4"
  top: "h_4"
}
layer {
  name: "lstm2_h_conted_4"
  type: "Scale"
  bottom: "h_4"
  bottom: "cont_5"
  top: "h_conted_4"
  scale_param {
    axis: 0
  }
}
layer {
  name: "lstm2_transform_5"
  type: "InnerProduct"
  bottom: "h_conted_4"
  top: "W_hc_h_4"
  param {
    name: "W_hc"
  }
  inner_product_param {
    num_output: 1024
    bias_term: false
    weight_filler {
      type: "xavier"
    }
    axis: 2
  }
}
layer {
  name: "lstm2_gate_input_5"
  type: "Eltwise"
  bottom: "W_hc_h_4"
  bottom: "W_xc_x_5"
  top: "gate_input_5"
  eltwise_param {
    operation: SUM
  }
}
layer {
  name: "lstm2_unit_5"
  type: "LSTMUnit"
  bottom: "c_4"
  bottom: "gate_input_5"
  bottom: "cont_5"
  top: "c_5"
  top: "h_5"
}
layer {
  name: "lstm2_h_conted_5"
  type: "Scale"
  bottom: "h_5"
  bottom: "cont_6"
  top: "h_conted_5"
  scale_param {
    axis: 0
  }
}
layer {
  name: "lstm2_transform_6"
  type: "InnerProduct"
  bottom: "h_conted_5"
  top: "W_hc_h_5"
  param {
    name: "W_hc"
  }
  inner_product_param {
    num_output: 1024
    bias_term: false
    weight_filler {
      type: "xavier"
    }
    axis: 2
  }
}
layer {
  name: "lstm2_gate_input_6"
  type: "Eltwise"
  bottom: "W_hc_h_5"
  bottom: "W_xc_x_6"
  top: "gate_input_6"
  eltwise_param {
    operation: SUM
  }
}
layer {
  name: "lstm2_unit_6"
  type: "LSTMUnit"
  bottom: "c_5"
  bottom: "gate_input_6"
  bottom: "cont_6"
  top: "c_6"
  top: "h_6"
}
layer {
  name: "lstm2_h_conted_6"
  type: "Scale"
  bottom: "h_6"
  bottom: "cont_7"
  top: "h_conted_6"
  scale_param {
    axis: 0
  }
}
layer {
  name: "lstm2_transform_7"
  type: "InnerProduct"
  bottom: "h_conted_6"
  top: "W_hc_h_6"
  param {
    name: "W_hc"
  }
  inner_product_param {
    num_output: 1024
    bias_term: false
    weight_filler {
      type: "xavier"
    }
    axis: 2
  }
}
layer {
  name: "lstm2_gate_input_7"
  type: "Eltwise"
  bottom: "W_hc_h_6"
  bottom: "W_xc_x_7"
  top: "gate_input_7"
  eltwise_param {
    operation: SUM
  }
}
layer {
  name: "lstm2_unit_7"
  type: "LSTMUnit"
  bottom: "c_6"
  bottom: "gate_input_7"
  bottom: "cont_7"
  top: "c_7"
  top: "h_7"
}
layer {
  name: "lstm2_h_conted_7"
  type: "Scale"
  bottom: "h_7"
  bottom: "cont_8"
  top: "h_conted_7"
  scale_param {
    axis: 0
  }
}
layer {
  name: "lstm2_transform_8"
  type: "InnerProduct"
  bottom: "h_conted_7"
  top: "W_hc_h_7"
  param {
    name: "W_hc"
  }
  inner_product_param {
    num_output: 1024
    bias_term: false
    weight_filler {
      type: "xavier"
    }
    axis: 2
  }
}
layer {
  name: "lstm2_gate_input_8"
  type: "Eltwise"
  bottom: "W_hc_h_7"
  bottom: "W_xc_x_8"
  top: "gate_input_8"
  eltwise_param {
    operation: SUM
  }
}
layer {
  name: "lstm2_unit_8"
  type: "LSTMUnit"
  bottom: "c_7"
  bottom: "gate_input_8"
  bottom: "cont_8"
  top: "c_8"
  top: "h_8"
}
layer {
  name: "lstm2_h_conted_8"
  type: "Scale"
  bottom: "h_8"
  bottom: "cont_9"
  top: "h_conted_8"
  scale_param {
    axis: 0
  }
}
layer {
  name: "lstm2_transform_9"
  type: "InnerProduct"
  bottom: "h_conted_8"
  top: "W_hc_h_8"
  param {
    name: "W_hc"
  }
  inner_product_param {
    num_output: 1024
    bias_term: false
    weight_filler {
      type: "xavier"
    }
    axis: 2
  }
}
layer {
  name: "lstm2_gate_input_9"
  type: "Eltwise"
  bottom: "W_hc_h_8"
  bottom: "W_xc_x_9"
  top: "gate_input_9"
  eltwise_param {
    operation: SUM
  }
}
layer {
  name: "lstm2_unit_9"
  type: "LSTMUnit"
  bottom: "c_8"
  bottom: "gate_input_9"
  bottom: "cont_9"
  top: "c_9"
  top: "h_9"
}
layer {
  name: "lstm2_h_conted_9"
  type: "Scale"
  bottom: "h_9"
  bottom: "cont_10"
  top: "h_conted_9"
  scale_param {
    axis: 0
  }
}
layer {
  name: "lstm2_transform_10"
  type: "InnerProduct"
  bottom: "h_conted_9"
  top: "W_hc_h_9"
  param {
    name: "W_hc"
  }
  inner_product_param {
    num_output: 1024
    bias_term: false
    weight_filler {
      type: "xavier"
    }
    axis: 2
  }
}
layer {
  name: "lstm2_gate_input_10"
  type: "Eltwise"
  bottom: "W_hc_h_9"
  bottom: "W_xc_x_10"
  top: "gate_input_10"
  eltwise_param {
    operation: SUM
  }
}
layer {
  name: "lstm2_unit_10"
  type: "LSTMUnit"
  bottom: "c_9"
  bottom: "gate_input_10"
  bottom: "cont_10"
  top: "c_10"
  top: "h_10"
}
layer {
  name: "lstm2_h_conted_10"
  type: "Scale"
  bottom: "h_10"
  bottom: "cont_11"
  top: "h_conted_10"
  scale_param {
    axis: 0
  }
}
layer {
  name: "lstm2_transform_11"
  type: "InnerProduct"
  bottom: "h_conted_10"
  top: "W_hc_h_10"
  param {
    name: "W_hc"
  }
  inner_product_param {
    num_output: 1024
    bias_term: false
    weight_filler {
      type: "xavier"
    }
    axis: 2
  }
}
layer {
  name: "lstm2_gate_input_11"
  type: "Eltwise"
  bottom: "W_hc_h_10"
  bottom: "W_xc_x_11"
  top: "gate_input_11"
  eltwise_param {
    operation: SUM
  }
}
layer {
  name: "lstm2_unit_11"
  type: "LSTMUnit"
  bottom: "c_10"
  bottom: "gate_input_11"
  bottom: "cont_11"
  top: "c_11"
  top: "h_11"
}
layer {
  name: "lstm2_h_conted_11"
  type: "Scale"
  bottom: "h_11"
  bottom: "cont_12"
  top: "h_conted_11"
  scale_param {
    axis: 0
  }
}
layer {
  name: "lstm2_transform_12"
  type: "InnerProduct"
  bottom: "h_conted_11"
  top: "W_hc_h_11"
  param {
    name: "W_hc"
  }
  inner_product_param {
    num_output: 1024
    bias_term: false
    weight_filler {
      type: "xavier"
    }
    axis: 2
  }
}
layer {
  name: "lstm2_gate_input_12"
  type: "Eltwise"
  bottom: "W_hc_h_11"
  bottom: "W_xc_x_12"
  top: "gate_input_12"
  eltwise_param {
    operation: SUM
  }
}
layer {
  name: "lstm2_unit_12"
  type: "LSTMUnit"
  bottom: "c_11"
  bottom: "gate_input_12"
  bottom: "cont_12"
  top: "c_12"
  top: "h_12"
}
layer {
  name: "lstm2_h_conted_12"
  type: "Scale"
  bottom: "h_12"
  bottom: "cont_13"
  top: "h_conted_12"
  scale_param {
    axis: 0
  }
}
layer {
  name: "lstm2_transform_13"
  type: "InnerProduct"
  bottom: "h_conted_12"
  top: "W_hc_h_12"
  param {
    name: "W_hc"
  }
  inner_product_param {
    num_output: 1024
    bias_term: false
    weight_filler {
      type: "xavier"
    }
    axis: 2
  }
}
layer {
  name: "lstm2_gate_input_13"
  type: "Eltwise"
  bottom: "W_hc_h_12"
  bottom: "W_xc_x_13"
  top: "gate_input_13"
  eltwise_param {
    operation: SUM
  }
}
layer {
  name: "lstm2_unit_13"
  type: "LSTMUnit"
  bottom: "c_12"
  bottom: "gate_input_13"
  bottom: "cont_13"
  top: "c_13"
  top: "h_13"
}
layer {
  name: "lstm2_"
  type: "Split"
  bottom: "c_13"
  top: "c_T"
}
layer {
  name: "lstm2_h_concat"
  type: "Concat"
  bottom: "h_1"
  bottom: "h_2"
  bottom: "h_3"
  bottom: "h_4"
  bottom: "h_5"
  bottom: "h_6"
  bottom: "h_7"
  bottom: "h_8"
  bottom: "h_9"
  bottom: "h_10"
  bottom: "h_11"
  bottom: "h_12"
  bottom: "h_13"
  top: "h"
  concat_param {
    axis: 0
  }
}
layer {
  name: "h_pseudoloss"
  type: "Reduction"
  bottom: "h"
  top: "h_pseudoloss"
  loss_weight: 1
}
I0409 11:11:52.742628 46620 layer_factory.hpp:77] Creating layer lstm2_
I0409 11:11:52.742640 46620 net.cpp:86] Creating Layer lstm2_
I0409 11:11:52.742645 46620 net.cpp:382] lstm2_ -> x
I0409 11:11:52.742653 46620 net.cpp:382] lstm2_ -> cont
I0409 11:11:52.742698 46620 net.cpp:124] Setting up lstm2_
I0409 11:11:52.742705 46620 net.cpp:131] Top shape: 13 523 128 (870272)
I0409 11:11:52.742709 46620 net.cpp:131] Top shape: 13 523 (6799)
I0409 11:11:52.742712 46620 net.cpp:139] Memory required for data: 3508284
I0409 11:11:52.742717 46620 layer_factory.hpp:77] Creating layer lstm2_
I0409 11:11:52.742722 46620 net.cpp:86] Creating Layer lstm2_
I0409 11:11:52.742727 46620 net.cpp:382] lstm2_ -> c_0
I0409 11:11:52.742734 46620 net.cpp:382] lstm2_ -> h_0
I0409 11:11:52.742766 46620 net.cpp:124] Setting up lstm2_
I0409 11:11:52.742772 46620 net.cpp:131] Top shape: 1 523 256 (133888)
I0409 11:11:52.742776 46620 net.cpp:131] Top shape: 1 523 256 (133888)
I0409 11:11:52.742779 46620 net.cpp:139] Memory required for data: 4579388
I0409 11:11:52.742784 46620 layer_factory.hpp:77] Creating layer lstm2_cont_slice
I0409 11:11:52.742796 46620 net.cpp:86] Creating Layer lstm2_cont_slice
I0409 11:11:52.742800 46620 net.cpp:408] lstm2_cont_slice <- cont
I0409 11:11:52.742806 46620 net.cpp:382] lstm2_cont_slice -> cont_1
I0409 11:11:52.742815 46620 net.cpp:382] lstm2_cont_slice -> cont_2
I0409 11:11:52.742820 46620 net.cpp:382] lstm2_cont_slice -> cont_3
I0409 11:11:52.742826 46620 net.cpp:382] lstm2_cont_slice -> cont_4
I0409 11:11:52.742832 46620 net.cpp:382] lstm2_cont_slice -> cont_5
I0409 11:11:52.742839 46620 net.cpp:382] lstm2_cont_slice -> cont_6
I0409 11:11:52.742846 46620 net.cpp:382] lstm2_cont_slice -> cont_7
I0409 11:11:52.742851 46620 net.cpp:382] lstm2_cont_slice -> cont_8
I0409 11:11:52.742856 46620 net.cpp:382] lstm2_cont_slice -> cont_9
I0409 11:11:52.742863 46620 net.cpp:382] lstm2_cont_slice -> cont_10
I0409 11:11:52.742869 46620 net.cpp:382] lstm2_cont_slice -> cont_11
I0409 11:11:52.742874 46620 net.cpp:382] lstm2_cont_slice -> cont_12
I0409 11:11:52.742880 46620 net.cpp:382] lstm2_cont_slice -> cont_13
I0409 11:11:52.743029 46620 net.cpp:124] Setting up lstm2_cont_slice
I0409 11:11:52.743036 46620 net.cpp:131] Top shape: 1 523 (523)
I0409 11:11:52.743039 46620 net.cpp:131] Top shape: 1 523 (523)
I0409 11:11:52.743043 46620 net.cpp:131] Top shape: 1 523 (523)
I0409 11:11:52.743048 46620 net.cpp:131] Top shape: 1 523 (523)
I0409 11:11:52.743052 46620 net.cpp:131] Top shape: 1 523 (523)
I0409 11:11:52.743065 46620 net.cpp:131] Top shape: 1 523 (523)
I0409 11:11:52.743069 46620 net.cpp:131] Top shape: 1 523 (523)
I0409 11:11:52.743074 46620 net.cpp:131] Top shape: 1 523 (523)
I0409 11:11:52.743077 46620 net.cpp:131] Top shape: 1 523 (523)
I0409 11:11:52.743082 46620 net.cpp:131] Top shape: 1 523 (523)
I0409 11:11:52.743085 46620 net.cpp:131] Top shape: 1 523 (523)
I0409 11:11:52.743089 46620 net.cpp:131] Top shape: 1 523 (523)
I0409 11:11:52.743093 46620 net.cpp:131] Top shape: 1 523 (523)
I0409 11:11:52.743096 46620 net.cpp:139] Memory required for data: 4606584
I0409 11:11:52.743099 46620 layer_factory.hpp:77] Creating layer cont_1_lstm2_cont_slice_0_split
I0409 11:11:52.743105 46620 net.cpp:86] Creating Layer cont_1_lstm2_cont_slice_0_split
I0409 11:11:52.743109 46620 net.cpp:408] cont_1_lstm2_cont_slice_0_split <- cont_1
I0409 11:11:52.743114 46620 net.cpp:382] cont_1_lstm2_cont_slice_0_split -> cont_1_lstm2_cont_slice_0_split_0
I0409 11:11:52.743122 46620 net.cpp:382] cont_1_lstm2_cont_slice_0_split -> cont_1_lstm2_cont_slice_0_split_1
I0409 11:11:52.743156 46620 net.cpp:124] Setting up cont_1_lstm2_cont_slice_0_split
I0409 11:11:52.743162 46620 net.cpp:131] Top shape: 1 523 (523)
I0409 11:11:52.743165 46620 net.cpp:131] Top shape: 1 523 (523)
I0409 11:11:52.743168 46620 net.cpp:139] Memory required for data: 4610768
I0409 11:11:52.743172 46620 layer_factory.hpp:77] Creating layer cont_2_lstm2_cont_slice_1_split
I0409 11:11:52.743180 46620 net.cpp:86] Creating Layer cont_2_lstm2_cont_slice_1_split
I0409 11:11:52.743182 46620 net.cpp:408] cont_2_lstm2_cont_slice_1_split <- cont_2
I0409 11:11:52.743187 46620 net.cpp:382] cont_2_lstm2_cont_slice_1_split -> cont_2_lstm2_cont_slice_1_split_0
I0409 11:11:52.743196 46620 net.cpp:382] cont_2_lstm2_cont_slice_1_split -> cont_2_lstm2_cont_slice_1_split_1
I0409 11:11:52.743225 46620 net.cpp:124] Setting up cont_2_lstm2_cont_slice_1_split
I0409 11:11:52.743230 46620 net.cpp:131] Top shape: 1 523 (523)
I0409 11:11:52.743234 46620 net.cpp:131] Top shape: 1 523 (523)
I0409 11:11:52.743237 46620 net.cpp:139] Memory required for data: 4614952
I0409 11:11:52.743240 46620 layer_factory.hpp:77] Creating layer cont_3_lstm2_cont_slice_2_split
I0409 11:11:52.743245 46620 net.cpp:86] Creating Layer cont_3_lstm2_cont_slice_2_split
I0409 11:11:52.743248 46620 net.cpp:408] cont_3_lstm2_cont_slice_2_split <- cont_3
I0409 11:11:52.743254 46620 net.cpp:382] cont_3_lstm2_cont_slice_2_split -> cont_3_lstm2_cont_slice_2_split_0
I0409 11:11:52.743260 46620 net.cpp:382] cont_3_lstm2_cont_slice_2_split -> cont_3_lstm2_cont_slice_2_split_1
I0409 11:11:52.743290 46620 net.cpp:124] Setting up cont_3_lstm2_cont_slice_2_split
I0409 11:11:52.743295 46620 net.cpp:131] Top shape: 1 523 (523)
I0409 11:11:52.743300 46620 net.cpp:131] Top shape: 1 523 (523)
I0409 11:11:52.743302 46620 net.cpp:139] Memory required for data: 4619136
I0409 11:11:52.743306 46620 layer_factory.hpp:77] Creating layer cont_4_lstm2_cont_slice_3_split
I0409 11:11:52.743311 46620 net.cpp:86] Creating Layer cont_4_lstm2_cont_slice_3_split
I0409 11:11:52.743315 46620 net.cpp:408] cont_4_lstm2_cont_slice_3_split <- cont_4
I0409 11:11:52.743320 46620 net.cpp:382] cont_4_lstm2_cont_slice_3_split -> cont_4_lstm2_cont_slice_3_split_0
I0409 11:11:52.743327 46620 net.cpp:382] cont_4_lstm2_cont_slice_3_split -> cont_4_lstm2_cont_slice_3_split_1
I0409 11:11:52.743355 46620 net.cpp:124] Setting up cont_4_lstm2_cont_slice_3_split
I0409 11:11:52.743362 46620 net.cpp:131] Top shape: 1 523 (523)
I0409 11:11:52.743366 46620 net.cpp:131] Top shape: 1 523 (523)
I0409 11:11:52.743369 46620 net.cpp:139] Memory required for data: 4623320
I0409 11:11:52.743372 46620 layer_factory.hpp:77] Creating layer cont_5_lstm2_cont_slice_4_split
I0409 11:11:52.743379 46620 net.cpp:86] Creating Layer cont_5_lstm2_cont_slice_4_split
I0409 11:11:52.743382 46620 net.cpp:408] cont_5_lstm2_cont_slice_4_split <- cont_5
I0409 11:11:52.743387 46620 net.cpp:382] cont_5_lstm2_cont_slice_4_split -> cont_5_lstm2_cont_slice_4_split_0
I0409 11:11:52.743392 46620 net.cpp:382] cont_5_lstm2_cont_slice_4_split -> cont_5_lstm2_cont_slice_4_split_1
I0409 11:11:52.743429 46620 net.cpp:124] Setting up cont_5_lstm2_cont_slice_4_split
I0409 11:11:52.743436 46620 net.cpp:131] Top shape: 1 523 (523)
I0409 11:11:52.743440 46620 net.cpp:131] Top shape: 1 523 (523)
I0409 11:11:52.743443 46620 net.cpp:139] Memory required for data: 4627504
I0409 11:11:52.743448 46620 layer_factory.hpp:77] Creating layer cont_6_lstm2_cont_slice_5_split
I0409 11:11:52.743454 46620 net.cpp:86] Creating Layer cont_6_lstm2_cont_slice_5_split
I0409 11:11:52.743458 46620 net.cpp:408] cont_6_lstm2_cont_slice_5_split <- cont_6
I0409 11:11:52.743463 46620 net.cpp:382] cont_6_lstm2_cont_slice_5_split -> cont_6_lstm2_cont_slice_5_split_0
I0409 11:11:52.743469 46620 net.cpp:382] cont_6_lstm2_cont_slice_5_split -> cont_6_lstm2_cont_slice_5_split_1
I0409 11:11:52.743500 46620 net.cpp:124] Setting up cont_6_lstm2_cont_slice_5_split
I0409 11:11:52.743507 46620 net.cpp:131] Top shape: 1 523 (523)
I0409 11:11:52.743511 46620 net.cpp:131] Top shape: 1 523 (523)
I0409 11:11:52.743515 46620 net.cpp:139] Memory required for data: 4631688
I0409 11:11:52.743518 46620 layer_factory.hpp:77] Creating layer cont_7_lstm2_cont_slice_6_split
I0409 11:11:52.743523 46620 net.cpp:86] Creating Layer cont_7_lstm2_cont_slice_6_split
I0409 11:11:52.743526 46620 net.cpp:408] cont_7_lstm2_cont_slice_6_split <- cont_7
I0409 11:11:52.743532 46620 net.cpp:382] cont_7_lstm2_cont_slice_6_split -> cont_7_lstm2_cont_slice_6_split_0
I0409 11:11:52.743537 46620 net.cpp:382] cont_7_lstm2_cont_slice_6_split -> cont_7_lstm2_cont_slice_6_split_1
I0409 11:11:52.743568 46620 net.cpp:124] Setting up cont_7_lstm2_cont_slice_6_split
I0409 11:11:52.743589 46620 net.cpp:131] Top shape: 1 523 (523)
I0409 11:11:52.743593 46620 net.cpp:131] Top shape: 1 523 (523)
I0409 11:11:52.743597 46620 net.cpp:139] Memory required for data: 4635872
I0409 11:11:52.743599 46620 layer_factory.hpp:77] Creating layer cont_8_lstm2_cont_slice_7_split
I0409 11:11:52.743604 46620 net.cpp:86] Creating Layer cont_8_lstm2_cont_slice_7_split
I0409 11:11:52.743608 46620 net.cpp:408] cont_8_lstm2_cont_slice_7_split <- cont_8
I0409 11:11:52.743613 46620 net.cpp:382] cont_8_lstm2_cont_slice_7_split -> cont_8_lstm2_cont_slice_7_split_0
I0409 11:11:52.743619 46620 net.cpp:382] cont_8_lstm2_cont_slice_7_split -> cont_8_lstm2_cont_slice_7_split_1
I0409 11:11:52.743649 46620 net.cpp:124] Setting up cont_8_lstm2_cont_slice_7_split
I0409 11:11:52.743656 46620 net.cpp:131] Top shape: 1 523 (523)
I0409 11:11:52.743660 46620 net.cpp:131] Top shape: 1 523 (523)
I0409 11:11:52.743664 46620 net.cpp:139] Memory required for data: 4640056
I0409 11:11:52.743667 46620 layer_factory.hpp:77] Creating layer cont_9_lstm2_cont_slice_8_split
I0409 11:11:52.743672 46620 net.cpp:86] Creating Layer cont_9_lstm2_cont_slice_8_split
I0409 11:11:52.743675 46620 net.cpp:408] cont_9_lstm2_cont_slice_8_split <- cont_9
I0409 11:11:52.743681 46620 net.cpp:382] cont_9_lstm2_cont_slice_8_split -> cont_9_lstm2_cont_slice_8_split_0
I0409 11:11:52.743687 46620 net.cpp:382] cont_9_lstm2_cont_slice_8_split -> cont_9_lstm2_cont_slice_8_split_1
I0409 11:11:52.743716 46620 net.cpp:124] Setting up cont_9_lstm2_cont_slice_8_split
I0409 11:11:52.743721 46620 net.cpp:131] Top shape: 1 523 (523)
I0409 11:11:52.743726 46620 net.cpp:131] Top shape: 1 523 (523)
I0409 11:11:52.743728 46620 net.cpp:139] Memory required for data: 4644240
I0409 11:11:52.743732 46620 layer_factory.hpp:77] Creating layer cont_10_lstm2_cont_slice_9_split
I0409 11:11:52.743736 46620 net.cpp:86] Creating Layer cont_10_lstm2_cont_slice_9_split
I0409 11:11:52.743739 46620 net.cpp:408] cont_10_lstm2_cont_slice_9_split <- cont_10
I0409 11:11:52.743744 46620 net.cpp:382] cont_10_lstm2_cont_slice_9_split -> cont_10_lstm2_cont_slice_9_split_0
I0409 11:11:52.743750 46620 net.cpp:382] cont_10_lstm2_cont_slice_9_split -> cont_10_lstm2_cont_slice_9_split_1
I0409 11:11:52.743778 46620 net.cpp:124] Setting up cont_10_lstm2_cont_slice_9_split
I0409 11:11:52.743784 46620 net.cpp:131] Top shape: 1 523 (523)
I0409 11:11:52.743794 46620 net.cpp:131] Top shape: 1 523 (523)
I0409 11:11:52.743798 46620 net.cpp:139] Memory required for data: 4648424
I0409 11:11:52.743803 46620 layer_factory.hpp:77] Creating layer cont_11_lstm2_cont_slice_10_split
I0409 11:11:52.743806 46620 net.cpp:86] Creating Layer cont_11_lstm2_cont_slice_10_split
I0409 11:11:52.743809 46620 net.cpp:408] cont_11_lstm2_cont_slice_10_split <- cont_11
I0409 11:11:52.743816 46620 net.cpp:382] cont_11_lstm2_cont_slice_10_split -> cont_11_lstm2_cont_slice_10_split_0
I0409 11:11:52.743822 46620 net.cpp:382] cont_11_lstm2_cont_slice_10_split -> cont_11_lstm2_cont_slice_10_split_1
I0409 11:11:52.743850 46620 net.cpp:124] Setting up cont_11_lstm2_cont_slice_10_split
I0409 11:11:52.743857 46620 net.cpp:131] Top shape: 1 523 (523)
I0409 11:11:52.743861 46620 net.cpp:131] Top shape: 1 523 (523)
I0409 11:11:52.743865 46620 net.cpp:139] Memory required for data: 4652608
I0409 11:11:52.743867 46620 layer_factory.hpp:77] Creating layer cont_12_lstm2_cont_slice_11_split
I0409 11:11:52.743871 46620 net.cpp:86] Creating Layer cont_12_lstm2_cont_slice_11_split
I0409 11:11:52.743875 46620 net.cpp:408] cont_12_lstm2_cont_slice_11_split <- cont_12
I0409 11:11:52.743880 46620 net.cpp:382] cont_12_lstm2_cont_slice_11_split -> cont_12_lstm2_cont_slice_11_split_0
I0409 11:11:52.743885 46620 net.cpp:382] cont_12_lstm2_cont_slice_11_split -> cont_12_lstm2_cont_slice_11_split_1
I0409 11:11:52.743912 46620 net.cpp:124] Setting up cont_12_lstm2_cont_slice_11_split
I0409 11:11:52.743919 46620 net.cpp:131] Top shape: 1 523 (523)
I0409 11:11:52.743923 46620 net.cpp:131] Top shape: 1 523 (523)
I0409 11:11:52.743927 46620 net.cpp:139] Memory required for data: 4656792
I0409 11:11:52.743929 46620 layer_factory.hpp:77] Creating layer cont_13_lstm2_cont_slice_12_split
I0409 11:11:52.743934 46620 net.cpp:86] Creating Layer cont_13_lstm2_cont_slice_12_split
I0409 11:11:52.743937 46620 net.cpp:408] cont_13_lstm2_cont_slice_12_split <- cont_13
I0409 11:11:52.743943 46620 net.cpp:382] cont_13_lstm2_cont_slice_12_split -> cont_13_lstm2_cont_slice_12_split_0
I0409 11:11:52.743949 46620 net.cpp:382] cont_13_lstm2_cont_slice_12_split -> cont_13_lstm2_cont_slice_12_split_1
I0409 11:11:52.743975 46620 net.cpp:124] Setting up cont_13_lstm2_cont_slice_12_split
I0409 11:11:52.743981 46620 net.cpp:131] Top shape: 1 523 (523)
I0409 11:11:52.743985 46620 net.cpp:131] Top shape: 1 523 (523)
I0409 11:11:52.743988 46620 net.cpp:139] Memory required for data: 4660976
I0409 11:11:52.743993 46620 layer_factory.hpp:77] Creating layer lstm2_x_transform
I0409 11:11:52.744000 46620 net.cpp:86] Creating Layer lstm2_x_transform
I0409 11:11:52.744004 46620 net.cpp:408] lstm2_x_transform <- x
I0409 11:11:52.744009 46620 net.cpp:382] lstm2_x_transform -> W_xc_x
I0409 11:11:52.744833 46620 net.cpp:124] Setting up lstm2_x_transform
I0409 11:11:52.744841 46620 net.cpp:131] Top shape: 13 523 1024 (6962176)
I0409 11:11:52.744845 46620 net.cpp:139] Memory required for data: 32509680
I0409 11:11:52.744853 46620 layer_factory.hpp:77] Creating layer lstm2_W_xc_x_slice
I0409 11:11:52.744860 46620 net.cpp:86] Creating Layer lstm2_W_xc_x_slice
I0409 11:11:52.744863 46620 net.cpp:408] lstm2_W_xc_x_slice <- W_xc_x
I0409 11:11:52.744869 46620 net.cpp:382] lstm2_W_xc_x_slice -> W_xc_x_1
I0409 11:11:52.744876 46620 net.cpp:382] lstm2_W_xc_x_slice -> W_xc_x_2
I0409 11:11:52.744882 46620 net.cpp:382] lstm2_W_xc_x_slice -> W_xc_x_3
I0409 11:11:52.744889 46620 net.cpp:382] lstm2_W_xc_x_slice -> W_xc_x_4
I0409 11:11:52.744894 46620 net.cpp:382] lstm2_W_xc_x_slice -> W_xc_x_5
I0409 11:11:52.744900 46620 net.cpp:382] lstm2_W_xc_x_slice -> W_xc_x_6
I0409 11:11:52.744906 46620 net.cpp:382] lstm2_W_xc_x_slice -> W_xc_x_7
I0409 11:11:52.744915 46620 net.cpp:382] lstm2_W_xc_x_slice -> W_xc_x_8
I0409 11:11:52.744920 46620 net.cpp:382] lstm2_W_xc_x_slice -> W_xc_x_9
I0409 11:11:52.744926 46620 net.cpp:382] lstm2_W_xc_x_slice -> W_xc_x_10
I0409 11:11:52.744932 46620 net.cpp:382] lstm2_W_xc_x_slice -> W_xc_x_11
I0409 11:11:52.744938 46620 net.cpp:382] lstm2_W_xc_x_slice -> W_xc_x_12
I0409 11:11:52.744951 46620 net.cpp:382] lstm2_W_xc_x_slice -> W_xc_x_13
I0409 11:11:52.745091 46620 net.cpp:124] Setting up lstm2_W_xc_x_slice
I0409 11:11:52.745100 46620 net.cpp:131] Top shape: 1 523 1024 (535552)
I0409 11:11:52.745105 46620 net.cpp:131] Top shape: 1 523 1024 (535552)
I0409 11:11:52.745108 46620 net.cpp:131] Top shape: 1 523 1024 (535552)
I0409 11:11:52.745112 46620 net.cpp:131] Top shape: 1 523 1024 (535552)
I0409 11:11:52.745116 46620 net.cpp:131] Top shape: 1 523 1024 (535552)
I0409 11:11:52.745121 46620 net.cpp:131] Top shape: 1 523 1024 (535552)
I0409 11:11:52.745124 46620 net.cpp:131] Top shape: 1 523 1024 (535552)
I0409 11:11:52.745127 46620 net.cpp:131] Top shape: 1 523 1024 (535552)
I0409 11:11:52.745132 46620 net.cpp:131] Top shape: 1 523 1024 (535552)
I0409 11:11:52.745136 46620 net.cpp:131] Top shape: 1 523 1024 (535552)
I0409 11:11:52.745139 46620 net.cpp:131] Top shape: 1 523 1024 (535552)
I0409 11:11:52.745143 46620 net.cpp:131] Top shape: 1 523 1024 (535552)
I0409 11:11:52.745148 46620 net.cpp:131] Top shape: 1 523 1024 (535552)
I0409 11:11:52.745151 46620 net.cpp:139] Memory required for data: 60358384
I0409 11:11:52.745154 46620 layer_factory.hpp:77] Creating layer lstm2_h_conted_0
I0409 11:11:52.745159 46620 net.cpp:86] Creating Layer lstm2_h_conted_0
I0409 11:11:52.745164 46620 net.cpp:408] lstm2_h_conted_0 <- h_0
I0409 11:11:52.745168 46620 net.cpp:408] lstm2_h_conted_0 <- cont_1_lstm2_cont_slice_0_split_0
I0409 11:11:52.745173 46620 net.cpp:382] lstm2_h_conted_0 -> h_conted_0
I0409 11:11:52.745225 46620 net.cpp:124] Setting up lstm2_h_conted_0
I0409 11:11:52.745234 46620 net.cpp:131] Top shape: 1 523 256 (133888)
I0409 11:11:52.745236 46620 net.cpp:139] Memory required for data: 60893936
I0409 11:11:52.745239 46620 layer_factory.hpp:77] Creating layer lstm2_transform_1
I0409 11:11:52.745246 46620 net.cpp:86] Creating Layer lstm2_transform_1
I0409 11:11:52.745250 46620 net.cpp:408] lstm2_transform_1 <- h_conted_0
I0409 11:11:52.745255 46620 net.cpp:382] lstm2_transform_1 -> W_hc_h_0
I0409 11:11:52.747195 46620 net.cpp:124] Setting up lstm2_transform_1
I0409 11:11:52.747215 46620 net.cpp:131] Top shape: 1 523 1024 (535552)
I0409 11:11:52.747220 46620 net.cpp:139] Memory required for data: 63036144
I0409 11:11:52.747226 46620 layer_factory.hpp:77] Creating layer lstm2_gate_input_1
I0409 11:11:52.747234 46620 net.cpp:86] Creating Layer lstm2_gate_input_1
I0409 11:11:52.747238 46620 net.cpp:408] lstm2_gate_input_1 <- W_hc_h_0
I0409 11:11:52.747244 46620 net.cpp:408] lstm2_gate_input_1 <- W_xc_x_1
I0409 11:11:52.747249 46620 net.cpp:382] lstm2_gate_input_1 -> gate_input_1
I0409 11:11:52.747275 46620 net.cpp:124] Setting up lstm2_gate_input_1
I0409 11:11:52.747282 46620 net.cpp:131] Top shape: 1 523 1024 (535552)
I0409 11:11:52.747287 46620 net.cpp:139] Memory required for data: 65178352
I0409 11:11:52.747289 46620 layer_factory.hpp:77] Creating layer lstm2_unit_1
I0409 11:11:52.747295 46620 net.cpp:86] Creating Layer lstm2_unit_1
I0409 11:11:52.747299 46620 net.cpp:408] lstm2_unit_1 <- c_0
I0409 11:11:52.747304 46620 net.cpp:408] lstm2_unit_1 <- gate_input_1
I0409 11:11:52.747308 46620 net.cpp:408] lstm2_unit_1 <- cont_1_lstm2_cont_slice_0_split_1
I0409 11:11:52.747314 46620 net.cpp:382] lstm2_unit_1 -> c_1
I0409 11:11:52.747320 46620 net.cpp:382] lstm2_unit_1 -> h_1
I0409 11:11:52.747362 46620 net.cpp:124] Setting up lstm2_unit_1
I0409 11:11:52.747370 46620 net.cpp:131] Top shape: 1 523 256 (133888)
I0409 11:11:52.747373 46620 net.cpp:131] Top shape: 1 523 256 (133888)
I0409 11:11:52.747376 46620 net.cpp:139] Memory required for data: 66249456
I0409 11:11:52.747380 46620 layer_factory.hpp:77] Creating layer h_1_lstm2_unit_1_1_split
I0409 11:11:52.747385 46620 net.cpp:86] Creating Layer h_1_lstm2_unit_1_1_split
I0409 11:11:52.747388 46620 net.cpp:408] h_1_lstm2_unit_1_1_split <- h_1
I0409 11:11:52.747393 46620 net.cpp:382] h_1_lstm2_unit_1_1_split -> h_1_lstm2_unit_1_1_split_0
I0409 11:11:52.747400 46620 net.cpp:382] h_1_lstm2_unit_1_1_split -> h_1_lstm2_unit_1_1_split_1
I0409 11:11:52.747445 46620 net.cpp:124] Setting up h_1_lstm2_unit_1_1_split
I0409 11:11:52.747452 46620 net.cpp:131] Top shape: 1 523 256 (133888)
I0409 11:11:52.747457 46620 net.cpp:131] Top shape: 1 523 256 (133888)
I0409 11:11:52.747460 46620 net.cpp:139] Memory required for data: 67320560
I0409 11:11:52.747464 46620 layer_factory.hpp:77] Creating layer lstm2_h_conted_1
I0409 11:11:52.747469 46620 net.cpp:86] Creating Layer lstm2_h_conted_1
I0409 11:11:52.747473 46620 net.cpp:408] lstm2_h_conted_1 <- h_1_lstm2_unit_1_1_split_0
I0409 11:11:52.747478 46620 net.cpp:408] lstm2_h_conted_1 <- cont_2_lstm2_cont_slice_1_split_0
I0409 11:11:52.747484 46620 net.cpp:382] lstm2_h_conted_1 -> h_conted_1
I0409 11:11:52.747545 46620 net.cpp:124] Setting up lstm2_h_conted_1
I0409 11:11:52.747552 46620 net.cpp:131] Top shape: 1 523 256 (133888)
I0409 11:11:52.747556 46620 net.cpp:139] Memory required for data: 67856112
I0409 11:11:52.747560 46620 layer_factory.hpp:77] Creating layer lstm2_transform_2
I0409 11:11:52.747565 46620 net.cpp:86] Creating Layer lstm2_transform_2
I0409 11:11:52.747570 46620 net.cpp:408] lstm2_transform_2 <- h_conted_1
I0409 11:11:52.747577 46620 net.cpp:382] lstm2_transform_2 -> W_hc_h_1
I0409 11:11:52.749687 46620 net.cpp:124] Setting up lstm2_transform_2
I0409 11:11:52.749701 46620 net.cpp:131] Top shape: 1 523 1024 (535552)
I0409 11:11:52.749704 46620 net.cpp:139] Memory required for data: 69998320
I0409 11:11:52.749711 46620 net.cpp:467] Sharing parameters 'W_hc' owned by layer 'lstm2_transform_1', param index 0
I0409 11:11:52.749714 46620 layer_factory.hpp:77] Creating layer lstm2_gate_input_2
I0409 11:11:52.749720 46620 net.cpp:86] Creating Layer lstm2_gate_input_2
I0409 11:11:52.749724 46620 net.cpp:408] lstm2_gate_input_2 <- W_hc_h_1
I0409 11:11:52.749730 46620 net.cpp:408] lstm2_gate_input_2 <- W_xc_x_2
I0409 11:11:52.749735 46620 net.cpp:382] lstm2_gate_input_2 -> gate_input_2
I0409 11:11:52.749761 46620 net.cpp:124] Setting up lstm2_gate_input_2
I0409 11:11:52.749768 46620 net.cpp:131] Top shape: 1 523 1024 (535552)
I0409 11:11:52.749773 46620 net.cpp:139] Memory required for data: 72140528
I0409 11:11:52.749775 46620 layer_factory.hpp:77] Creating layer lstm2_unit_2
I0409 11:11:52.749780 46620 net.cpp:86] Creating Layer lstm2_unit_2
I0409 11:11:52.749783 46620 net.cpp:408] lstm2_unit_2 <- c_1
I0409 11:11:52.749788 46620 net.cpp:408] lstm2_unit_2 <- gate_input_2
I0409 11:11:52.749794 46620 net.cpp:408] lstm2_unit_2 <- cont_2_lstm2_cont_slice_1_split_1
I0409 11:11:52.749799 46620 net.cpp:382] lstm2_unit_2 -> c_2
I0409 11:11:52.749804 46620 net.cpp:382] lstm2_unit_2 -> h_2
I0409 11:11:52.749845 46620 net.cpp:124] Setting up lstm2_unit_2
I0409 11:11:52.749852 46620 net.cpp:131] Top shape: 1 523 256 (133888)
I0409 11:11:52.749858 46620 net.cpp:131] Top shape: 1 523 256 (133888)
I0409 11:11:52.749861 46620 net.cpp:139] Memory required for data: 73211632
I0409 11:11:52.749866 46620 layer_factory.hpp:77] Creating layer h_2_lstm2_unit_2_1_split
I0409 11:11:52.749869 46620 net.cpp:86] Creating Layer h_2_lstm2_unit_2_1_split
I0409 11:11:52.749873 46620 net.cpp:408] h_2_lstm2_unit_2_1_split <- h_2
I0409 11:11:52.749878 46620 net.cpp:382] h_2_lstm2_unit_2_1_split -> h_2_lstm2_unit_2_1_split_0
I0409 11:11:52.749884 46620 net.cpp:382] h_2_lstm2_unit_2_1_split -> h_2_lstm2_unit_2_1_split_1
I0409 11:11:52.749917 46620 net.cpp:124] Setting up h_2_lstm2_unit_2_1_split
I0409 11:11:52.749923 46620 net.cpp:131] Top shape: 1 523 256 (133888)
I0409 11:11:52.749927 46620 net.cpp:131] Top shape: 1 523 256 (133888)
I0409 11:11:52.749931 46620 net.cpp:139] Memory required for data: 74282736
I0409 11:11:52.749934 46620 layer_factory.hpp:77] Creating layer lstm2_h_conted_2
I0409 11:11:52.749939 46620 net.cpp:86] Creating Layer lstm2_h_conted_2
I0409 11:11:52.749943 46620 net.cpp:408] lstm2_h_conted_2 <- h_2_lstm2_unit_2_1_split_0
I0409 11:11:52.749948 46620 net.cpp:408] lstm2_h_conted_2 <- cont_3_lstm2_cont_slice_2_split_0
I0409 11:11:52.749955 46620 net.cpp:382] lstm2_h_conted_2 -> h_conted_2
I0409 11:11:52.750008 46620 net.cpp:124] Setting up lstm2_h_conted_2
I0409 11:11:52.750025 46620 net.cpp:131] Top shape: 1 523 256 (133888)
I0409 11:11:52.750030 46620 net.cpp:139] Memory required for data: 74818288
I0409 11:11:52.750033 46620 layer_factory.hpp:77] Creating layer lstm2_transform_3
I0409 11:11:52.750042 46620 net.cpp:86] Creating Layer lstm2_transform_3
I0409 11:11:52.750046 46620 net.cpp:408] lstm2_transform_3 <- h_conted_2
I0409 11:11:52.750051 46620 net.cpp:382] lstm2_transform_3 -> W_hc_h_2
I0409 11:11:52.752204 46620 net.cpp:124] Setting up lstm2_transform_3
I0409 11:11:52.752219 46620 net.cpp:131] Top shape: 1 523 1024 (535552)
I0409 11:11:52.752223 46620 net.cpp:139] Memory required for data: 76960496
I0409 11:11:52.752229 46620 net.cpp:467] Sharing parameters 'W_hc' owned by layer 'lstm2_transform_1', param index 0
I0409 11:11:52.752233 46620 layer_factory.hpp:77] Creating layer lstm2_gate_input_3
I0409 11:11:52.752241 46620 net.cpp:86] Creating Layer lstm2_gate_input_3
I0409 11:11:52.752245 46620 net.cpp:408] lstm2_gate_input_3 <- W_hc_h_2
I0409 11:11:52.752251 46620 net.cpp:408] lstm2_gate_input_3 <- W_xc_x_3
I0409 11:11:52.752256 46620 net.cpp:382] lstm2_gate_input_3 -> gate_input_3
I0409 11:11:52.752281 46620 net.cpp:124] Setting up lstm2_gate_input_3
I0409 11:11:52.752288 46620 net.cpp:131] Top shape: 1 523 1024 (535552)
I0409 11:11:52.752292 46620 net.cpp:139] Memory required for data: 79102704
I0409 11:11:52.752295 46620 layer_factory.hpp:77] Creating layer lstm2_unit_3
I0409 11:11:52.752303 46620 net.cpp:86] Creating Layer lstm2_unit_3
I0409 11:11:52.752307 46620 net.cpp:408] lstm2_unit_3 <- c_2
I0409 11:11:52.752312 46620 net.cpp:408] lstm2_unit_3 <- gate_input_3
I0409 11:11:52.752316 46620 net.cpp:408] lstm2_unit_3 <- cont_3_lstm2_cont_slice_2_split_1
I0409 11:11:52.752321 46620 net.cpp:382] lstm2_unit_3 -> c_3
I0409 11:11:52.752327 46620 net.cpp:382] lstm2_unit_3 -> h_3
I0409 11:11:52.752369 46620 net.cpp:124] Setting up lstm2_unit_3
I0409 11:11:52.752375 46620 net.cpp:131] Top shape: 1 523 256 (133888)
I0409 11:11:52.752380 46620 net.cpp:131] Top shape: 1 523 256 (133888)
I0409 11:11:52.752383 46620 net.cpp:139] Memory required for data: 80173808
I0409 11:11:52.752388 46620 layer_factory.hpp:77] Creating layer h_3_lstm2_unit_3_1_split
I0409 11:11:52.752398 46620 net.cpp:86] Creating Layer h_3_lstm2_unit_3_1_split
I0409 11:11:52.752404 46620 net.cpp:408] h_3_lstm2_unit_3_1_split <- h_3
I0409 11:11:52.752410 46620 net.cpp:382] h_3_lstm2_unit_3_1_split -> h_3_lstm2_unit_3_1_split_0
I0409 11:11:52.752418 46620 net.cpp:382] h_3_lstm2_unit_3_1_split -> h_3_lstm2_unit_3_1_split_1
I0409 11:11:52.752447 46620 net.cpp:124] Setting up h_3_lstm2_unit_3_1_split
I0409 11:11:52.752454 46620 net.cpp:131] Top shape: 1 523 256 (133888)
I0409 11:11:52.752458 46620 net.cpp:131] Top shape: 1 523 256 (133888)
I0409 11:11:52.752462 46620 net.cpp:139] Memory required for data: 81244912
I0409 11:11:52.752465 46620 layer_factory.hpp:77] Creating layer lstm2_h_conted_3
I0409 11:11:52.752470 46620 net.cpp:86] Creating Layer lstm2_h_conted_3
I0409 11:11:52.752475 46620 net.cpp:408] lstm2_h_conted_3 <- h_3_lstm2_unit_3_1_split_0
I0409 11:11:52.752480 46620 net.cpp:408] lstm2_h_conted_3 <- cont_4_lstm2_cont_slice_3_split_0
I0409 11:11:52.752486 46620 net.cpp:382] lstm2_h_conted_3 -> h_conted_3
I0409 11:11:52.752538 46620 net.cpp:124] Setting up lstm2_h_conted_3
I0409 11:11:52.752545 46620 net.cpp:131] Top shape: 1 523 256 (133888)
I0409 11:11:52.752549 46620 net.cpp:139] Memory required for data: 81780464
I0409 11:11:52.752552 46620 layer_factory.hpp:77] Creating layer lstm2_transform_4
I0409 11:11:52.752558 46620 net.cpp:86] Creating Layer lstm2_transform_4
I0409 11:11:52.752562 46620 net.cpp:408] lstm2_transform_4 <- h_conted_3
I0409 11:11:52.752569 46620 net.cpp:382] lstm2_transform_4 -> W_hc_h_3
I0409 11:11:52.755534 46620 net.cpp:124] Setting up lstm2_transform_4
I0409 11:11:52.755549 46620 net.cpp:131] Top shape: 1 523 1024 (535552)
I0409 11:11:52.755553 46620 net.cpp:139] Memory required for data: 83922672
I0409 11:11:52.755558 46620 net.cpp:467] Sharing parameters 'W_hc' owned by layer 'lstm2_transform_1', param index 0
I0409 11:11:52.755573 46620 layer_factory.hpp:77] Creating layer lstm2_gate_input_4
I0409 11:11:52.755579 46620 net.cpp:86] Creating Layer lstm2_gate_input_4
I0409 11:11:52.755584 46620 net.cpp:408] lstm2_gate_input_4 <- W_hc_h_3
I0409 11:11:52.755589 46620 net.cpp:408] lstm2_gate_input_4 <- W_xc_x_4
I0409 11:11:52.755597 46620 net.cpp:382] lstm2_gate_input_4 -> gate_input_4
I0409 11:11:52.755622 46620 net.cpp:124] Setting up lstm2_gate_input_4
I0409 11:11:52.755630 46620 net.cpp:131] Top shape: 1 523 1024 (535552)
I0409 11:11:52.755633 46620 net.cpp:139] Memory required for data: 86064880
I0409 11:11:52.755636 46620 layer_factory.hpp:77] Creating layer lstm2_unit_4
I0409 11:11:52.755642 46620 net.cpp:86] Creating Layer lstm2_unit_4
I0409 11:11:52.755646 46620 net.cpp:408] lstm2_unit_4 <- c_3
I0409 11:11:52.755651 46620 net.cpp:408] lstm2_unit_4 <- gate_input_4
I0409 11:11:52.755656 46620 net.cpp:408] lstm2_unit_4 <- cont_4_lstm2_cont_slice_3_split_1
I0409 11:11:52.755661 46620 net.cpp:382] lstm2_unit_4 -> c_4
I0409 11:11:52.755668 46620 net.cpp:382] lstm2_unit_4 -> h_4
I0409 11:11:52.755710 46620 net.cpp:124] Setting up lstm2_unit_4
I0409 11:11:52.755717 46620 net.cpp:131] Top shape: 1 523 256 (133888)
I0409 11:11:52.755720 46620 net.cpp:131] Top shape: 1 523 256 (133888)
I0409 11:11:52.755723 46620 net.cpp:139] Memory required for data: 87135984
I0409 11:11:52.755728 46620 layer_factory.hpp:77] Creating layer h_4_lstm2_unit_4_1_split
I0409 11:11:52.755733 46620 net.cpp:86] Creating Layer h_4_lstm2_unit_4_1_split
I0409 11:11:52.755735 46620 net.cpp:408] h_4_lstm2_unit_4_1_split <- h_4
I0409 11:11:52.755740 46620 net.cpp:382] h_4_lstm2_unit_4_1_split -> h_4_lstm2_unit_4_1_split_0
I0409 11:11:52.755748 46620 net.cpp:382] h_4_lstm2_unit_4_1_split -> h_4_lstm2_unit_4_1_split_1
I0409 11:11:52.755777 46620 net.cpp:124] Setting up h_4_lstm2_unit_4_1_split
I0409 11:11:52.755784 46620 net.cpp:131] Top shape: 1 523 256 (133888)
I0409 11:11:52.755787 46620 net.cpp:131] Top shape: 1 523 256 (133888)
I0409 11:11:52.755791 46620 net.cpp:139] Memory required for data: 88207088
I0409 11:11:52.755795 46620 layer_factory.hpp:77] Creating layer lstm2_h_conted_4
I0409 11:11:52.755801 46620 net.cpp:86] Creating Layer lstm2_h_conted_4
I0409 11:11:52.755805 46620 net.cpp:408] lstm2_h_conted_4 <- h_4_lstm2_unit_4_1_split_0
I0409 11:11:52.755810 46620 net.cpp:408] lstm2_h_conted_4 <- cont_5_lstm2_cont_slice_4_split_0
I0409 11:11:52.755815 46620 net.cpp:382] lstm2_h_conted_4 -> h_conted_4
I0409 11:11:52.755867 46620 net.cpp:124] Setting up lstm2_h_conted_4
I0409 11:11:52.755874 46620 net.cpp:131] Top shape: 1 523 256 (133888)
I0409 11:11:52.755878 46620 net.cpp:139] Memory required for data: 88742640
I0409 11:11:52.755882 46620 layer_factory.hpp:77] Creating layer lstm2_transform_5
I0409 11:11:52.755889 46620 net.cpp:86] Creating Layer lstm2_transform_5
I0409 11:11:52.755893 46620 net.cpp:408] lstm2_transform_5 <- h_conted_4
I0409 11:11:52.755899 46620 net.cpp:382] lstm2_transform_5 -> W_hc_h_4
I0409 11:11:52.758050 46620 net.cpp:124] Setting up lstm2_transform_5
I0409 11:11:52.758064 46620 net.cpp:131] Top shape: 1 523 1024 (535552)
I0409 11:11:52.758067 46620 net.cpp:139] Memory required for data: 90884848
I0409 11:11:52.758072 46620 net.cpp:467] Sharing parameters 'W_hc' owned by layer 'lstm2_transform_1', param index 0
I0409 11:11:52.758076 46620 layer_factory.hpp:77] Creating layer lstm2_gate_input_5
I0409 11:11:52.758087 46620 net.cpp:86] Creating Layer lstm2_gate_input_5
I0409 11:11:52.758091 46620 net.cpp:408] lstm2_gate_input_5 <- W_hc_h_4
I0409 11:11:52.758097 46620 net.cpp:408] lstm2_gate_input_5 <- W_xc_x_5
I0409 11:11:52.758102 46620 net.cpp:382] lstm2_gate_input_5 -> gate_input_5
I0409 11:11:52.758126 46620 net.cpp:124] Setting up lstm2_gate_input_5
I0409 11:11:52.758131 46620 net.cpp:131] Top shape: 1 523 1024 (535552)
I0409 11:11:52.758136 46620 net.cpp:139] Memory required for data: 93027056
I0409 11:11:52.758138 46620 layer_factory.hpp:77] Creating layer lstm2_unit_5
I0409 11:11:52.758157 46620 net.cpp:86] Creating Layer lstm2_unit_5
I0409 11:11:52.758160 46620 net.cpp:408] lstm2_unit_5 <- c_4
I0409 11:11:52.758165 46620 net.cpp:408] lstm2_unit_5 <- gate_input_5
I0409 11:11:52.758169 46620 net.cpp:408] lstm2_unit_5 <- cont_5_lstm2_cont_slice_4_split_1
I0409 11:11:52.758174 46620 net.cpp:382] lstm2_unit_5 -> c_5
I0409 11:11:52.758180 46620 net.cpp:382] lstm2_unit_5 -> h_5
I0409 11:11:52.758224 46620 net.cpp:124] Setting up lstm2_unit_5
I0409 11:11:52.758229 46620 net.cpp:131] Top shape: 1 523 256 (133888)
I0409 11:11:52.758234 46620 net.cpp:131] Top shape: 1 523 256 (133888)
I0409 11:11:52.758236 46620 net.cpp:139] Memory required for data: 94098160
I0409 11:11:52.758239 46620 layer_factory.hpp:77] Creating layer h_5_lstm2_unit_5_1_split
I0409 11:11:52.758244 46620 net.cpp:86] Creating Layer h_5_lstm2_unit_5_1_split
I0409 11:11:52.758247 46620 net.cpp:408] h_5_lstm2_unit_5_1_split <- h_5
I0409 11:11:52.758255 46620 net.cpp:382] h_5_lstm2_unit_5_1_split -> h_5_lstm2_unit_5_1_split_0
I0409 11:11:52.758261 46620 net.cpp:382] h_5_lstm2_unit_5_1_split -> h_5_lstm2_unit_5_1_split_1
I0409 11:11:52.758291 46620 net.cpp:124] Setting up h_5_lstm2_unit_5_1_split
I0409 11:11:52.758296 46620 net.cpp:131] Top shape: 1 523 256 (133888)
I0409 11:11:52.758299 46620 net.cpp:131] Top shape: 1 523 256 (133888)
I0409 11:11:52.758302 46620 net.cpp:139] Memory required for data: 95169264
I0409 11:11:52.758306 46620 layer_factory.hpp:77] Creating layer lstm2_h_conted_5
I0409 11:11:52.758311 46620 net.cpp:86] Creating Layer lstm2_h_conted_5
I0409 11:11:52.758314 46620 net.cpp:408] lstm2_h_conted_5 <- h_5_lstm2_unit_5_1_split_0
I0409 11:11:52.758319 46620 net.cpp:408] lstm2_h_conted_5 <- cont_6_lstm2_cont_slice_5_split_0
I0409 11:11:52.758324 46620 net.cpp:382] lstm2_h_conted_5 -> h_conted_5
I0409 11:11:52.758380 46620 net.cpp:124] Setting up lstm2_h_conted_5
I0409 11:11:52.758386 46620 net.cpp:131] Top shape: 1 523 256 (133888)
I0409 11:11:52.758390 46620 net.cpp:139] Memory required for data: 95704816
I0409 11:11:52.758394 46620 layer_factory.hpp:77] Creating layer lstm2_transform_6
I0409 11:11:52.758399 46620 net.cpp:86] Creating Layer lstm2_transform_6
I0409 11:11:52.758402 46620 net.cpp:408] lstm2_transform_6 <- h_conted_5
I0409 11:11:52.758409 46620 net.cpp:382] lstm2_transform_6 -> W_hc_h_5
I0409 11:11:52.760612 46620 net.cpp:124] Setting up lstm2_transform_6
I0409 11:11:52.760623 46620 net.cpp:131] Top shape: 1 523 1024 (535552)
I0409 11:11:52.760627 46620 net.cpp:139] Memory required for data: 97847024
I0409 11:11:52.760643 46620 net.cpp:467] Sharing parameters 'W_hc' owned by layer 'lstm2_transform_1', param index 0
I0409 11:11:52.760646 46620 layer_factory.hpp:77] Creating layer lstm2_gate_input_6
I0409 11:11:52.760653 46620 net.cpp:86] Creating Layer lstm2_gate_input_6
I0409 11:11:52.760656 46620 net.cpp:408] lstm2_gate_input_6 <- W_hc_h_5
I0409 11:11:52.760663 46620 net.cpp:408] lstm2_gate_input_6 <- W_xc_x_6
I0409 11:11:52.760668 46620 net.cpp:382] lstm2_gate_input_6 -> gate_input_6
I0409 11:11:52.760694 46620 net.cpp:124] Setting up lstm2_gate_input_6
I0409 11:11:52.760699 46620 net.cpp:131] Top shape: 1 523 1024 (535552)
I0409 11:11:52.760702 46620 net.cpp:139] Memory required for data: 99989232
I0409 11:11:52.760705 46620 layer_factory.hpp:77] Creating layer lstm2_unit_6
I0409 11:11:52.760710 46620 net.cpp:86] Creating Layer lstm2_unit_6
I0409 11:11:52.760715 46620 net.cpp:408] lstm2_unit_6 <- c_5
I0409 11:11:52.760720 46620 net.cpp:408] lstm2_unit_6 <- gate_input_6
I0409 11:11:52.760723 46620 net.cpp:408] lstm2_unit_6 <- cont_6_lstm2_cont_slice_5_split_1
I0409 11:11:52.760728 46620 net.cpp:382] lstm2_unit_6 -> c_6
I0409 11:11:52.760735 46620 net.cpp:382] lstm2_unit_6 -> h_6
I0409 11:11:52.760776 46620 net.cpp:124] Setting up lstm2_unit_6
I0409 11:11:52.760782 46620 net.cpp:131] Top shape: 1 523 256 (133888)
I0409 11:11:52.760785 46620 net.cpp:131] Top shape: 1 523 256 (133888)
I0409 11:11:52.760788 46620 net.cpp:139] Memory required for data: 101060336
I0409 11:11:52.760802 46620 layer_factory.hpp:77] Creating layer h_6_lstm2_unit_6_1_split
I0409 11:11:52.760809 46620 net.cpp:86] Creating Layer h_6_lstm2_unit_6_1_split
I0409 11:11:52.760813 46620 net.cpp:408] h_6_lstm2_unit_6_1_split <- h_6
I0409 11:11:52.760818 46620 net.cpp:382] h_6_lstm2_unit_6_1_split -> h_6_lstm2_unit_6_1_split_0
I0409 11:11:52.760825 46620 net.cpp:382] h_6_lstm2_unit_6_1_split -> h_6_lstm2_unit_6_1_split_1
I0409 11:11:52.760857 46620 net.cpp:124] Setting up h_6_lstm2_unit_6_1_split
I0409 11:11:52.760864 46620 net.cpp:131] Top shape: 1 523 256 (133888)
I0409 11:11:52.760869 46620 net.cpp:131] Top shape: 1 523 256 (133888)
I0409 11:11:52.760871 46620 net.cpp:139] Memory required for data: 102131440
I0409 11:11:52.760874 46620 layer_factory.hpp:77] Creating layer lstm2_h_conted_6
I0409 11:11:52.760879 46620 net.cpp:86] Creating Layer lstm2_h_conted_6
I0409 11:11:52.760884 46620 net.cpp:408] lstm2_h_conted_6 <- h_6_lstm2_unit_6_1_split_0
I0409 11:11:52.760888 46620 net.cpp:408] lstm2_h_conted_6 <- cont_7_lstm2_cont_slice_6_split_0
I0409 11:11:52.760893 46620 net.cpp:382] lstm2_h_conted_6 -> h_conted_6
I0409 11:11:52.760947 46620 net.cpp:124] Setting up lstm2_h_conted_6
I0409 11:11:52.760953 46620 net.cpp:131] Top shape: 1 523 256 (133888)
I0409 11:11:52.760957 46620 net.cpp:139] Memory required for data: 102666992
I0409 11:11:52.760960 46620 layer_factory.hpp:77] Creating layer lstm2_transform_7
I0409 11:11:52.760965 46620 net.cpp:86] Creating Layer lstm2_transform_7
I0409 11:11:52.760969 46620 net.cpp:408] lstm2_transform_7 <- h_conted_6
I0409 11:11:52.760977 46620 net.cpp:382] lstm2_transform_7 -> W_hc_h_6
I0409 11:11:52.763134 46620 net.cpp:124] Setting up lstm2_transform_7
I0409 11:11:52.763145 46620 net.cpp:131] Top shape: 1 523 1024 (535552)
I0409 11:11:52.763149 46620 net.cpp:139] Memory required for data: 104809200
I0409 11:11:52.763154 46620 net.cpp:467] Sharing parameters 'W_hc' owned by layer 'lstm2_transform_1', param index 0
I0409 11:11:52.763159 46620 layer_factory.hpp:77] Creating layer lstm2_gate_input_7
I0409 11:11:52.763165 46620 net.cpp:86] Creating Layer lstm2_gate_input_7
I0409 11:11:52.763170 46620 net.cpp:408] lstm2_gate_input_7 <- W_hc_h_6
I0409 11:11:52.763175 46620 net.cpp:408] lstm2_gate_input_7 <- W_xc_x_7
I0409 11:11:52.763182 46620 net.cpp:382] lstm2_gate_input_7 -> gate_input_7
I0409 11:11:52.763206 46620 net.cpp:124] Setting up lstm2_gate_input_7
I0409 11:11:52.763211 46620 net.cpp:131] Top shape: 1 523 1024 (535552)
I0409 11:11:52.763216 46620 net.cpp:139] Memory required for data: 106951408
I0409 11:11:52.763218 46620 layer_factory.hpp:77] Creating layer lstm2_unit_7
I0409 11:11:52.763223 46620 net.cpp:86] Creating Layer lstm2_unit_7
I0409 11:11:52.763226 46620 net.cpp:408] lstm2_unit_7 <- c_6
I0409 11:11:52.763231 46620 net.cpp:408] lstm2_unit_7 <- gate_input_7
I0409 11:11:52.763236 46620 net.cpp:408] lstm2_unit_7 <- cont_7_lstm2_cont_slice_6_split_1
I0409 11:11:52.763243 46620 net.cpp:382] lstm2_unit_7 -> c_7
I0409 11:11:52.763249 46620 net.cpp:382] lstm2_unit_7 -> h_7
I0409 11:11:52.763290 46620 net.cpp:124] Setting up lstm2_unit_7
I0409 11:11:52.763295 46620 net.cpp:131] Top shape: 1 523 256 (133888)
I0409 11:11:52.763299 46620 net.cpp:131] Top shape: 1 523 256 (133888)
I0409 11:11:52.763303 46620 net.cpp:139] Memory required for data: 108022512
I0409 11:11:52.763306 46620 layer_factory.hpp:77] Creating layer h_7_lstm2_unit_7_1_split
I0409 11:11:52.763311 46620 net.cpp:86] Creating Layer h_7_lstm2_unit_7_1_split
I0409 11:11:52.763314 46620 net.cpp:408] h_7_lstm2_unit_7_1_split <- h_7
I0409 11:11:52.763319 46620 net.cpp:382] h_7_lstm2_unit_7_1_split -> h_7_lstm2_unit_7_1_split_0
I0409 11:11:52.763326 46620 net.cpp:382] h_7_lstm2_unit_7_1_split -> h_7_lstm2_unit_7_1_split_1
I0409 11:11:52.763358 46620 net.cpp:124] Setting up h_7_lstm2_unit_7_1_split
I0409 11:11:52.763363 46620 net.cpp:131] Top shape: 1 523 256 (133888)
I0409 11:11:52.763367 46620 net.cpp:131] Top shape: 1 523 256 (133888)
I0409 11:11:52.763370 46620 net.cpp:139] Memory required for data: 109093616
I0409 11:11:52.763384 46620 layer_factory.hpp:77] Creating layer lstm2_h_conted_7
I0409 11:11:52.763392 46620 net.cpp:86] Creating Layer lstm2_h_conted_7
I0409 11:11:52.763396 46620 net.cpp:408] lstm2_h_conted_7 <- h_7_lstm2_unit_7_1_split_0
I0409 11:11:52.763401 46620 net.cpp:408] lstm2_h_conted_7 <- cont_8_lstm2_cont_slice_7_split_0
I0409 11:11:52.763406 46620 net.cpp:382] lstm2_h_conted_7 -> h_conted_7
I0409 11:11:52.763461 46620 net.cpp:124] Setting up lstm2_h_conted_7
I0409 11:11:52.763468 46620 net.cpp:131] Top shape: 1 523 256 (133888)
I0409 11:11:52.763470 46620 net.cpp:139] Memory required for data: 109629168
I0409 11:11:52.763474 46620 layer_factory.hpp:77] Creating layer lstm2_transform_8
I0409 11:11:52.763483 46620 net.cpp:86] Creating Layer lstm2_transform_8
I0409 11:11:52.763486 46620 net.cpp:408] lstm2_transform_8 <- h_conted_7
I0409 11:11:52.763492 46620 net.cpp:382] lstm2_transform_8 -> W_hc_h_7
I0409 11:11:52.765671 46620 net.cpp:124] Setting up lstm2_transform_8
I0409 11:11:52.765682 46620 net.cpp:131] Top shape: 1 523 1024 (535552)
I0409 11:11:52.765686 46620 net.cpp:139] Memory required for data: 111771376
I0409 11:11:52.765691 46620 net.cpp:467] Sharing parameters 'W_hc' owned by layer 'lstm2_transform_1', param index 0
I0409 11:11:52.765694 46620 layer_factory.hpp:77] Creating layer lstm2_gate_input_8
I0409 11:11:52.765702 46620 net.cpp:86] Creating Layer lstm2_gate_input_8
I0409 11:11:52.765707 46620 net.cpp:408] lstm2_gate_input_8 <- W_hc_h_7
I0409 11:11:52.765712 46620 net.cpp:408] lstm2_gate_input_8 <- W_xc_x_8
I0409 11:11:52.765718 46620 net.cpp:382] lstm2_gate_input_8 -> gate_input_8
I0409 11:11:52.765741 46620 net.cpp:124] Setting up lstm2_gate_input_8
I0409 11:11:52.765748 46620 net.cpp:131] Top shape: 1 523 1024 (535552)
I0409 11:11:52.765751 46620 net.cpp:139] Memory required for data: 113913584
I0409 11:11:52.765754 46620 layer_factory.hpp:77] Creating layer lstm2_unit_8
I0409 11:11:52.765761 46620 net.cpp:86] Creating Layer lstm2_unit_8
I0409 11:11:52.765765 46620 net.cpp:408] lstm2_unit_8 <- c_7
I0409 11:11:52.765770 46620 net.cpp:408] lstm2_unit_8 <- gate_input_8
I0409 11:11:52.765775 46620 net.cpp:408] lstm2_unit_8 <- cont_8_lstm2_cont_slice_7_split_1
I0409 11:11:52.765780 46620 net.cpp:382] lstm2_unit_8 -> c_8
I0409 11:11:52.765786 46620 net.cpp:382] lstm2_unit_8 -> h_8
I0409 11:11:52.765838 46620 net.cpp:124] Setting up lstm2_unit_8
I0409 11:11:52.765844 46620 net.cpp:131] Top shape: 1 523 256 (133888)
I0409 11:11:52.765848 46620 net.cpp:131] Top shape: 1 523 256 (133888)
I0409 11:11:52.765851 46620 net.cpp:139] Memory required for data: 114984688
I0409 11:11:52.765854 46620 layer_factory.hpp:77] Creating layer h_8_lstm2_unit_8_1_split
I0409 11:11:52.765859 46620 net.cpp:86] Creating Layer h_8_lstm2_unit_8_1_split
I0409 11:11:52.765862 46620 net.cpp:408] h_8_lstm2_unit_8_1_split <- h_8
I0409 11:11:52.765869 46620 net.cpp:382] h_8_lstm2_unit_8_1_split -> h_8_lstm2_unit_8_1_split_0
I0409 11:11:52.765877 46620 net.cpp:382] h_8_lstm2_unit_8_1_split -> h_8_lstm2_unit_8_1_split_1
I0409 11:11:52.765906 46620 net.cpp:124] Setting up h_8_lstm2_unit_8_1_split
I0409 11:11:52.765911 46620 net.cpp:131] Top shape: 1 523 256 (133888)
I0409 11:11:52.765915 46620 net.cpp:131] Top shape: 1 523 256 (133888)
I0409 11:11:52.765918 46620 net.cpp:139] Memory required for data: 116055792
I0409 11:11:52.765923 46620 layer_factory.hpp:77] Creating layer lstm2_h_conted_8
I0409 11:11:52.765928 46620 net.cpp:86] Creating Layer lstm2_h_conted_8
I0409 11:11:52.765930 46620 net.cpp:408] lstm2_h_conted_8 <- h_8_lstm2_unit_8_1_split_0
I0409 11:11:52.765935 46620 net.cpp:408] lstm2_h_conted_8 <- cont_9_lstm2_cont_slice_8_split_0
I0409 11:11:52.765940 46620 net.cpp:382] lstm2_h_conted_8 -> h_conted_8
I0409 11:11:52.765992 46620 net.cpp:124] Setting up lstm2_h_conted_8
I0409 11:11:52.765998 46620 net.cpp:131] Top shape: 1 523 256 (133888)
I0409 11:11:52.766001 46620 net.cpp:139] Memory required for data: 116591344
I0409 11:11:52.766005 46620 layer_factory.hpp:77] Creating layer lstm2_transform_9
I0409 11:11:52.766010 46620 net.cpp:86] Creating Layer lstm2_transform_9
I0409 11:11:52.766024 46620 net.cpp:408] lstm2_transform_9 <- h_conted_8
I0409 11:11:52.766031 46620 net.cpp:382] lstm2_transform_9 -> W_hc_h_8
I0409 11:11:52.768187 46620 net.cpp:124] Setting up lstm2_transform_9
I0409 11:11:52.768199 46620 net.cpp:131] Top shape: 1 523 1024 (535552)
I0409 11:11:52.768203 46620 net.cpp:139] Memory required for data: 118733552
I0409 11:11:52.768208 46620 net.cpp:467] Sharing parameters 'W_hc' owned by layer 'lstm2_transform_1', param index 0
I0409 11:11:52.768211 46620 layer_factory.hpp:77] Creating layer lstm2_gate_input_9
I0409 11:11:52.768218 46620 net.cpp:86] Creating Layer lstm2_gate_input_9
I0409 11:11:52.768221 46620 net.cpp:408] lstm2_gate_input_9 <- W_hc_h_8
I0409 11:11:52.768227 46620 net.cpp:408] lstm2_gate_input_9 <- W_xc_x_9
I0409 11:11:52.768232 46620 net.cpp:382] lstm2_gate_input_9 -> gate_input_9
I0409 11:11:52.768259 46620 net.cpp:124] Setting up lstm2_gate_input_9
I0409 11:11:52.768265 46620 net.cpp:131] Top shape: 1 523 1024 (535552)
I0409 11:11:52.768268 46620 net.cpp:139] Memory required for data: 120875760
I0409 11:11:52.768271 46620 layer_factory.hpp:77] Creating layer lstm2_unit_9
I0409 11:11:52.768276 46620 net.cpp:86] Creating Layer lstm2_unit_9
I0409 11:11:52.768280 46620 net.cpp:408] lstm2_unit_9 <- c_8
I0409 11:11:52.768285 46620 net.cpp:408] lstm2_unit_9 <- gate_input_9
I0409 11:11:52.768290 46620 net.cpp:408] lstm2_unit_9 <- cont_9_lstm2_cont_slice_8_split_1
I0409 11:11:52.768294 46620 net.cpp:382] lstm2_unit_9 -> c_9
I0409 11:11:52.768301 46620 net.cpp:382] lstm2_unit_9 -> h_9
I0409 11:11:52.768343 46620 net.cpp:124] Setting up lstm2_unit_9
I0409 11:11:52.768348 46620 net.cpp:131] Top shape: 1 523 256 (133888)
I0409 11:11:52.768354 46620 net.cpp:131] Top shape: 1 523 256 (133888)
I0409 11:11:52.768357 46620 net.cpp:139] Memory required for data: 121946864
I0409 11:11:52.768362 46620 layer_factory.hpp:77] Creating layer h_9_lstm2_unit_9_1_split
I0409 11:11:52.768365 46620 net.cpp:86] Creating Layer h_9_lstm2_unit_9_1_split
I0409 11:11:52.768369 46620 net.cpp:408] h_9_lstm2_unit_9_1_split <- h_9
I0409 11:11:52.768373 46620 net.cpp:382] h_9_lstm2_unit_9_1_split -> h_9_lstm2_unit_9_1_split_0
I0409 11:11:52.768380 46620 net.cpp:382] h_9_lstm2_unit_9_1_split -> h_9_lstm2_unit_9_1_split_1
I0409 11:11:52.768410 46620 net.cpp:124] Setting up h_9_lstm2_unit_9_1_split
I0409 11:11:52.768417 46620 net.cpp:131] Top shape: 1 523 256 (133888)
I0409 11:11:52.768421 46620 net.cpp:131] Top shape: 1 523 256 (133888)
I0409 11:11:52.768425 46620 net.cpp:139] Memory required for data: 123017968
I0409 11:11:52.768429 46620 layer_factory.hpp:77] Creating layer lstm2_h_conted_9
I0409 11:11:52.768435 46620 net.cpp:86] Creating Layer lstm2_h_conted_9
I0409 11:11:52.768437 46620 net.cpp:408] lstm2_h_conted_9 <- h_9_lstm2_unit_9_1_split_0
I0409 11:11:52.768442 46620 net.cpp:408] lstm2_h_conted_9 <- cont_10_lstm2_cont_slice_9_split_0
I0409 11:11:52.768450 46620 net.cpp:382] lstm2_h_conted_9 -> h_conted_9
I0409 11:11:52.768508 46620 net.cpp:124] Setting up lstm2_h_conted_9
I0409 11:11:52.768514 46620 net.cpp:131] Top shape: 1 523 256 (133888)
I0409 11:11:52.768518 46620 net.cpp:139] Memory required for data: 123553520
I0409 11:11:52.768522 46620 layer_factory.hpp:77] Creating layer lstm2_transform_10
I0409 11:11:52.768532 46620 net.cpp:86] Creating Layer lstm2_transform_10
I0409 11:11:52.768537 46620 net.cpp:408] lstm2_transform_10 <- h_conted_9
I0409 11:11:52.768543 46620 net.cpp:382] lstm2_transform_10 -> W_hc_h_9
I0409 11:11:52.770756 46620 net.cpp:124] Setting up lstm2_transform_10
I0409 11:11:52.770766 46620 net.cpp:131] Top shape: 1 523 1024 (535552)
I0409 11:11:52.770771 46620 net.cpp:139] Memory required for data: 125695728
I0409 11:11:52.770776 46620 net.cpp:467] Sharing parameters 'W_hc' owned by layer 'lstm2_transform_1', param index 0
I0409 11:11:52.770779 46620 layer_factory.hpp:77] Creating layer lstm2_gate_input_10
I0409 11:11:52.770787 46620 net.cpp:86] Creating Layer lstm2_gate_input_10
I0409 11:11:52.770789 46620 net.cpp:408] lstm2_gate_input_10 <- W_hc_h_9
I0409 11:11:52.770807 46620 net.cpp:408] lstm2_gate_input_10 <- W_xc_x_10
I0409 11:11:52.770812 46620 net.cpp:382] lstm2_gate_input_10 -> gate_input_10
I0409 11:11:52.770839 46620 net.cpp:124] Setting up lstm2_gate_input_10
I0409 11:11:52.770845 46620 net.cpp:131] Top shape: 1 523 1024 (535552)
I0409 11:11:52.770849 46620 net.cpp:139] Memory required for data: 127837936
I0409 11:11:52.770853 46620 layer_factory.hpp:77] Creating layer lstm2_unit_10
I0409 11:11:52.770857 46620 net.cpp:86] Creating Layer lstm2_unit_10
I0409 11:11:52.770861 46620 net.cpp:408] lstm2_unit_10 <- c_9
I0409 11:11:52.770866 46620 net.cpp:408] lstm2_unit_10 <- gate_input_10
I0409 11:11:52.770870 46620 net.cpp:408] lstm2_unit_10 <- cont_10_lstm2_cont_slice_9_split_1
I0409 11:11:52.770876 46620 net.cpp:382] lstm2_unit_10 -> c_10
I0409 11:11:52.770882 46620 net.cpp:382] lstm2_unit_10 -> h_10
I0409 11:11:52.770925 46620 net.cpp:124] Setting up lstm2_unit_10
I0409 11:11:52.770929 46620 net.cpp:131] Top shape: 1 523 256 (133888)
I0409 11:11:52.770936 46620 net.cpp:131] Top shape: 1 523 256 (133888)
I0409 11:11:52.770938 46620 net.cpp:139] Memory required for data: 128909040
I0409 11:11:52.770942 46620 layer_factory.hpp:77] Creating layer h_10_lstm2_unit_10_1_split
I0409 11:11:52.770946 46620 net.cpp:86] Creating Layer h_10_lstm2_unit_10_1_split
I0409 11:11:52.770951 46620 net.cpp:408] h_10_lstm2_unit_10_1_split <- h_10
I0409 11:11:52.770956 46620 net.cpp:382] h_10_lstm2_unit_10_1_split -> h_10_lstm2_unit_10_1_split_0
I0409 11:11:52.770962 46620 net.cpp:382] h_10_lstm2_unit_10_1_split -> h_10_lstm2_unit_10_1_split_1
I0409 11:11:52.770993 46620 net.cpp:124] Setting up h_10_lstm2_unit_10_1_split
I0409 11:11:52.770998 46620 net.cpp:131] Top shape: 1 523 256 (133888)
I0409 11:11:52.771003 46620 net.cpp:131] Top shape: 1 523 256 (133888)
I0409 11:11:52.771005 46620 net.cpp:139] Memory required for data: 129980144
I0409 11:11:52.771009 46620 layer_factory.hpp:77] Creating layer lstm2_h_conted_10
I0409 11:11:52.771014 46620 net.cpp:86] Creating Layer lstm2_h_conted_10
I0409 11:11:52.771018 46620 net.cpp:408] lstm2_h_conted_10 <- h_10_lstm2_unit_10_1_split_0
I0409 11:11:52.771023 46620 net.cpp:408] lstm2_h_conted_10 <- cont_11_lstm2_cont_slice_10_split_0
I0409 11:11:52.771030 46620 net.cpp:382] lstm2_h_conted_10 -> h_conted_10
I0409 11:11:52.771088 46620 net.cpp:124] Setting up lstm2_h_conted_10
I0409 11:11:52.771095 46620 net.cpp:131] Top shape: 1 523 256 (133888)
I0409 11:11:52.771097 46620 net.cpp:139] Memory required for data: 130515696
I0409 11:11:52.771100 46620 layer_factory.hpp:77] Creating layer lstm2_transform_11
I0409 11:11:52.771109 46620 net.cpp:86] Creating Layer lstm2_transform_11
I0409 11:11:52.771113 46620 net.cpp:408] lstm2_transform_11 <- h_conted_10
I0409 11:11:52.771119 46620 net.cpp:382] lstm2_transform_11 -> W_hc_h_10
I0409 11:11:52.773265 46620 net.cpp:124] Setting up lstm2_transform_11
I0409 11:11:52.773277 46620 net.cpp:131] Top shape: 1 523 1024 (535552)
I0409 11:11:52.773281 46620 net.cpp:139] Memory required for data: 132657904
I0409 11:11:52.773286 46620 net.cpp:467] Sharing parameters 'W_hc' owned by layer 'lstm2_transform_1', param index 0
I0409 11:11:52.773290 46620 layer_factory.hpp:77] Creating layer lstm2_gate_input_11
I0409 11:11:52.773298 46620 net.cpp:86] Creating Layer lstm2_gate_input_11
I0409 11:11:52.773301 46620 net.cpp:408] lstm2_gate_input_11 <- W_hc_h_10
I0409 11:11:52.773306 46620 net.cpp:408] lstm2_gate_input_11 <- W_xc_x_11
I0409 11:11:52.773313 46620 net.cpp:382] lstm2_gate_input_11 -> gate_input_11
I0409 11:11:52.773339 46620 net.cpp:124] Setting up lstm2_gate_input_11
I0409 11:11:52.773345 46620 net.cpp:131] Top shape: 1 523 1024 (535552)
I0409 11:11:52.773350 46620 net.cpp:139] Memory required for data: 134800112
I0409 11:11:52.773352 46620 layer_factory.hpp:77] Creating layer lstm2_unit_11
I0409 11:11:52.773357 46620 net.cpp:86] Creating Layer lstm2_unit_11
I0409 11:11:52.773360 46620 net.cpp:408] lstm2_unit_11 <- c_10
I0409 11:11:52.773366 46620 net.cpp:408] lstm2_unit_11 <- gate_input_11
I0409 11:11:52.773381 46620 net.cpp:408] lstm2_unit_11 <- cont_11_lstm2_cont_slice_10_split_1
I0409 11:11:52.773387 46620 net.cpp:382] lstm2_unit_11 -> c_11
I0409 11:11:52.773393 46620 net.cpp:382] lstm2_unit_11 -> h_11
I0409 11:11:52.773438 46620 net.cpp:124] Setting up lstm2_unit_11
I0409 11:11:52.773444 46620 net.cpp:131] Top shape: 1 523 256 (133888)
I0409 11:11:52.773450 46620 net.cpp:131] Top shape: 1 523 256 (133888)
I0409 11:11:52.773453 46620 net.cpp:139] Memory required for data: 135871216
I0409 11:11:52.773458 46620 layer_factory.hpp:77] Creating layer h_11_lstm2_unit_11_1_split
I0409 11:11:52.773463 46620 net.cpp:86] Creating Layer h_11_lstm2_unit_11_1_split
I0409 11:11:52.773466 46620 net.cpp:408] h_11_lstm2_unit_11_1_split <- h_11
I0409 11:11:52.773471 46620 net.cpp:382] h_11_lstm2_unit_11_1_split -> h_11_lstm2_unit_11_1_split_0
I0409 11:11:52.773478 46620 net.cpp:382] h_11_lstm2_unit_11_1_split -> h_11_lstm2_unit_11_1_split_1
I0409 11:11:52.773509 46620 net.cpp:124] Setting up h_11_lstm2_unit_11_1_split
I0409 11:11:52.773514 46620 net.cpp:131] Top shape: 1 523 256 (133888)
I0409 11:11:52.773517 46620 net.cpp:131] Top shape: 1 523 256 (133888)
I0409 11:11:52.773521 46620 net.cpp:139] Memory required for data: 136942320
I0409 11:11:52.773524 46620 layer_factory.hpp:77] Creating layer lstm2_h_conted_11
I0409 11:11:52.773530 46620 net.cpp:86] Creating Layer lstm2_h_conted_11
I0409 11:11:52.773533 46620 net.cpp:408] lstm2_h_conted_11 <- h_11_lstm2_unit_11_1_split_0
I0409 11:11:52.773538 46620 net.cpp:408] lstm2_h_conted_11 <- cont_12_lstm2_cont_slice_11_split_0
I0409 11:11:52.773546 46620 net.cpp:382] lstm2_h_conted_11 -> h_conted_11
I0409 11:11:52.773605 46620 net.cpp:124] Setting up lstm2_h_conted_11
I0409 11:11:52.773612 46620 net.cpp:131] Top shape: 1 523 256 (133888)
I0409 11:11:52.773615 46620 net.cpp:139] Memory required for data: 137477872
I0409 11:11:52.773618 46620 layer_factory.hpp:77] Creating layer lstm2_transform_12
I0409 11:11:52.773623 46620 net.cpp:86] Creating Layer lstm2_transform_12
I0409 11:11:52.773627 46620 net.cpp:408] lstm2_transform_12 <- h_conted_11
I0409 11:11:52.773634 46620 net.cpp:382] lstm2_transform_12 -> W_hc_h_11
I0409 11:11:52.775837 46620 net.cpp:124] Setting up lstm2_transform_12
I0409 11:11:52.775849 46620 net.cpp:131] Top shape: 1 523 1024 (535552)
I0409 11:11:52.775852 46620 net.cpp:139] Memory required for data: 139620080
I0409 11:11:52.775857 46620 net.cpp:467] Sharing parameters 'W_hc' owned by layer 'lstm2_transform_1', param index 0
I0409 11:11:52.775861 46620 layer_factory.hpp:77] Creating layer lstm2_gate_input_12
I0409 11:11:52.775868 46620 net.cpp:86] Creating Layer lstm2_gate_input_12
I0409 11:11:52.775872 46620 net.cpp:408] lstm2_gate_input_12 <- W_hc_h_11
I0409 11:11:52.775877 46620 net.cpp:408] lstm2_gate_input_12 <- W_xc_x_12
I0409 11:11:52.775884 46620 net.cpp:382] lstm2_gate_input_12 -> gate_input_12
I0409 11:11:52.775908 46620 net.cpp:124] Setting up lstm2_gate_input_12
I0409 11:11:52.775914 46620 net.cpp:131] Top shape: 1 523 1024 (535552)
I0409 11:11:52.775918 46620 net.cpp:139] Memory required for data: 141762288
I0409 11:11:52.775921 46620 layer_factory.hpp:77] Creating layer lstm2_unit_12
I0409 11:11:52.775926 46620 net.cpp:86] Creating Layer lstm2_unit_12
I0409 11:11:52.775929 46620 net.cpp:408] lstm2_unit_12 <- c_11
I0409 11:11:52.775935 46620 net.cpp:408] lstm2_unit_12 <- gate_input_12
I0409 11:11:52.775939 46620 net.cpp:408] lstm2_unit_12 <- cont_12_lstm2_cont_slice_11_split_1
I0409 11:11:52.775944 46620 net.cpp:382] lstm2_unit_12 -> c_12
I0409 11:11:52.775955 46620 net.cpp:382] lstm2_unit_12 -> h_12
I0409 11:11:52.775998 46620 net.cpp:124] Setting up lstm2_unit_12
I0409 11:11:52.776003 46620 net.cpp:131] Top shape: 1 523 256 (133888)
I0409 11:11:52.776008 46620 net.cpp:131] Top shape: 1 523 256 (133888)
I0409 11:11:52.776011 46620 net.cpp:139] Memory required for data: 142833392
I0409 11:11:52.776015 46620 layer_factory.hpp:77] Creating layer h_12_lstm2_unit_12_1_split
I0409 11:11:52.776019 46620 net.cpp:86] Creating Layer h_12_lstm2_unit_12_1_split
I0409 11:11:52.776034 46620 net.cpp:408] h_12_lstm2_unit_12_1_split <- h_12
I0409 11:11:52.776041 46620 net.cpp:382] h_12_lstm2_unit_12_1_split -> h_12_lstm2_unit_12_1_split_0
I0409 11:11:52.776047 46620 net.cpp:382] h_12_lstm2_unit_12_1_split -> h_12_lstm2_unit_12_1_split_1
I0409 11:11:52.776080 46620 net.cpp:124] Setting up h_12_lstm2_unit_12_1_split
I0409 11:11:52.776087 46620 net.cpp:131] Top shape: 1 523 256 (133888)
I0409 11:11:52.776090 46620 net.cpp:131] Top shape: 1 523 256 (133888)
I0409 11:11:52.776093 46620 net.cpp:139] Memory required for data: 143904496
I0409 11:11:52.776098 46620 layer_factory.hpp:77] Creating layer lstm2_h_conted_12
I0409 11:11:52.776104 46620 net.cpp:86] Creating Layer lstm2_h_conted_12
I0409 11:11:52.776108 46620 net.cpp:408] lstm2_h_conted_12 <- h_12_lstm2_unit_12_1_split_0
I0409 11:11:52.776113 46620 net.cpp:408] lstm2_h_conted_12 <- cont_13_lstm2_cont_slice_12_split_0
I0409 11:11:52.776118 46620 net.cpp:382] lstm2_h_conted_12 -> h_conted_12
I0409 11:11:52.776172 46620 net.cpp:124] Setting up lstm2_h_conted_12
I0409 11:11:52.776178 46620 net.cpp:131] Top shape: 1 523 256 (133888)
I0409 11:11:52.776182 46620 net.cpp:139] Memory required for data: 144440048
I0409 11:11:52.776185 46620 layer_factory.hpp:77] Creating layer lstm2_transform_13
I0409 11:11:52.776192 46620 net.cpp:86] Creating Layer lstm2_transform_13
I0409 11:11:52.776196 46620 net.cpp:408] lstm2_transform_13 <- h_conted_12
I0409 11:11:52.776202 46620 net.cpp:382] lstm2_transform_13 -> W_hc_h_12
I0409 11:11:52.778342 46620 net.cpp:124] Setting up lstm2_transform_13
I0409 11:11:52.778353 46620 net.cpp:131] Top shape: 1 523 1024 (535552)
I0409 11:11:52.778357 46620 net.cpp:139] Memory required for data: 146582256
I0409 11:11:52.778362 46620 net.cpp:467] Sharing parameters 'W_hc' owned by layer 'lstm2_transform_1', param index 0
I0409 11:11:52.778367 46620 layer_factory.hpp:77] Creating layer lstm2_gate_input_13
I0409 11:11:52.778374 46620 net.cpp:86] Creating Layer lstm2_gate_input_13
I0409 11:11:52.778378 46620 net.cpp:408] lstm2_gate_input_13 <- W_hc_h_12
I0409 11:11:52.778383 46620 net.cpp:408] lstm2_gate_input_13 <- W_xc_x_13
I0409 11:11:52.778389 46620 net.cpp:382] lstm2_gate_input_13 -> gate_input_13
I0409 11:11:52.778414 46620 net.cpp:124] Setting up lstm2_gate_input_13
I0409 11:11:52.778419 46620 net.cpp:131] Top shape: 1 523 1024 (535552)
I0409 11:11:52.778422 46620 net.cpp:139] Memory required for data: 148724464
I0409 11:11:52.778425 46620 layer_factory.hpp:77] Creating layer lstm2_unit_13
I0409 11:11:52.778432 46620 net.cpp:86] Creating Layer lstm2_unit_13
I0409 11:11:52.778435 46620 net.cpp:408] lstm2_unit_13 <- c_12
I0409 11:11:52.778440 46620 net.cpp:408] lstm2_unit_13 <- gate_input_13
I0409 11:11:52.778445 46620 net.cpp:408] lstm2_unit_13 <- cont_13_lstm2_cont_slice_12_split_1
I0409 11:11:52.778450 46620 net.cpp:382] lstm2_unit_13 -> c_13
I0409 11:11:52.778456 46620 net.cpp:382] lstm2_unit_13 -> h_13
I0409 11:11:52.778498 46620 net.cpp:124] Setting up lstm2_unit_13
I0409 11:11:52.778504 46620 net.cpp:131] Top shape: 1 523 256 (133888)
I0409 11:11:52.778508 46620 net.cpp:131] Top shape: 1 523 256 (133888)
I0409 11:11:52.778512 46620 net.cpp:139] Memory required for data: 149795568
I0409 11:11:52.778515 46620 layer_factory.hpp:77] Creating layer lstm2_
I0409 11:11:52.778519 46620 net.cpp:86] Creating Layer lstm2_
I0409 11:11:52.778523 46620 net.cpp:408] lstm2_ <- c_13
I0409 11:11:52.778532 46620 net.cpp:382] lstm2_ -> c_T
I0409 11:11:52.778553 46620 net.cpp:124] Setting up lstm2_
I0409 11:11:52.778558 46620 net.cpp:131] Top shape: 1 523 256 (133888)
I0409 11:11:52.778561 46620 net.cpp:139] Memory required for data: 150331120
I0409 11:11:52.778564 46620 layer_factory.hpp:77] Creating layer lstm2_h_concat
I0409 11:11:52.778571 46620 net.cpp:86] Creating Layer lstm2_h_concat
I0409 11:11:52.778574 46620 net.cpp:408] lstm2_h_concat <- h_1_lstm2_unit_1_1_split_1
I0409 11:11:52.778579 46620 net.cpp:408] lstm2_h_concat <- h_2_lstm2_unit_2_1_split_1
…
I0409 11:11:52.783792 46620 net.cpp:202] lstm2_ does not need backward computation.
I0409 11:11:52.783795 46620 net.cpp:244] This network produces output c_T
I0409 11:11:52.783800 46620 net.cpp:244] This network produces output h_pseudoloss
I0409 11:11:52.786960 46620 net.cpp:257] Network initialization done.
I0409 11:11:52.787096 46620 recurrent_layer.cpp:150] Adding parameter 0: W_xc
I0409 11:11:52.787101 46620 recurrent_layer.cpp:150] Adding parameter 1: b_c
I0409 11:11:52.787106 46620 recurrent_layer.cpp:150] Adding parameter 2: W_hc
I0409 11:11:52.789013 46620 net.cpp:124] Setting up lstm2
I0409 11:11:52.789027 46620 net.cpp:131] Top shape: 13 523 256 (1740544)
I0409 11:11:52.789031 46620 net.cpp:139] Memory required for data: 3358827336
I0409 11:11:52.789041 46620 layer_factory.hpp:77] Creating layer fc1
I0409 11:11:52.789048 46620 net.cpp:86] Creating Layer fc1
I0409 11:11:52.789052 46620 net.cpp:408] fc1 <- lstm2
I0409 11:11:52.789058 46620 net.cpp:382] fc1 -> fc1
I0409 11:11:52.789196 46620 net.cpp:124] Setting up fc1
I0409 11:11:52.789203 46620 net.cpp:131] Top shape: 13 523 11 (74789)
I0409 11:11:52.789206 46620 net.cpp:139] Memory required for data: 3359126492
I0409 11:11:52.789212 46620 layer_factory.hpp:77] Creating layer fc1_fc1_0_split
I0409 11:11:52.789219 46620 net.cpp:86] Creating Layer fc1_fc1_0_split
I0409 11:11:52.789223 46620 net.cpp:408] fc1_fc1_0_split <- fc1
I0409 11:11:52.789228 46620 net.cpp:382] fc1_fc1_0_split -> fc1_fc1_0_split_0
I0409 11:11:52.789234 46620 net.cpp:382] fc1_fc1_0_split -> fc1_fc1_0_split_1
I0409 11:11:52.789268 46620 net.cpp:124] Setting up fc1_fc1_0_split
I0409 11:11:52.789273 46620 net.cpp:131] Top shape: 13 523 11 (74789)
I0409 11:11:52.789276 46620 net.cpp:131] Top shape: 13 523 11 (74789)
I0409 11:11:52.789279 46620 net.cpp:139] Memory required for data: 3359724804
I0409 11:11:52.789283 46620 layer_factory.hpp:77] Creating layer ctc_loss
I0409 11:11:52.789292 46620 net.cpp:86] Creating Layer ctc_loss
I0409 11:11:52.789295 46620 net.cpp:408] ctc_loss <- fc1_fc1_0_split_0
I0409 11:11:52.789299 46620 net.cpp:408] ctc_loss <- label_data_1_split_0
I0409 11:11:52.789305 46620 net.cpp:382] ctc_loss -> ctc_loss
I0409 11:11:52.789333 46620 net.cpp:124] Setting up ctc_loss
I0409 11:11:52.789338 46620 net.cpp:131] Top shape: (1)
I0409 11:11:52.789341 46620 net.cpp:134]     with loss weight 1
I0409 11:11:52.789348 46620 net.cpp:139] Memory required for data: 3359724808
I0409 11:11:52.789351 46620 layer_factory.hpp:77] Creating layer permute_fc
I0409 11:11:52.789357 46620 net.cpp:86] Creating Layer permute_fc
I0409 11:11:52.789361 46620 net.cpp:408] permute_fc <- fc1_fc1_0_split_1
I0409 11:11:52.789366 46620 net.cpp:382] permute_fc -> premuted_fc
I0409 11:11:52.789459 46620 net.cpp:124] Setting up permute_fc
I0409 11:11:52.789464 46620 net.cpp:131] Top shape: 523 13 11 (74789)
I0409 11:11:52.789469 46620 net.cpp:139] Memory required for data: 3360023964
I0409 11:11:52.789484 46620 layer_factory.hpp:77] Creating layer accuracy
I0409 11:11:52.789489 46620 net.cpp:86] Creating Layer accuracy
I0409 11:11:52.789492 46620 net.cpp:408] accuracy <- premuted_fc
I0409 11:11:52.789497 46620 net.cpp:408] accuracy <- label_data_1_split_1
I0409 11:11:52.789503 46620 net.cpp:382] accuracy -> accuracy
…
